5312327.b16e1.model (torch_old, 820387 bytes, 32 tensors)

layer1.0.weight f4 [128, 3, 3, 3]
00000000: 6a47 d5bc 0def 04bd 373b 7dbd 091f 3ebe
00000010: 0c62 23be 319a 243e 9982 d4bd 077b 263e
00000020: f64c 403e 587b 183e 6351 cf3c 75ec 423e
00000030: cc5b 3ebe cb09 ccbd 2831 16be 513d 16be
00000040: 2724 263e 9231 1bbd c144 17be 11c6 f03d
00000050: 2f51 f8bd d002 3cbe 9780 22bd ab60 8f3b
00000060: 5efb fd3d ec3c ff3d a3d2 213e f5f1 4dbd
00000070: ddc5 db3d 524a 6bbd ced6 0e3e 0eb6 3bbd
00000080: aa5f eabd 08d0 123e 834f 30be b5d3 103d
00000090: 0bec d4bd d2e5 363d 14da 2a3e 32a6 c8bd
000000a0: 2da2 30be 9de9 41be 6618 d73c 7c26 193e
000000b0: 0813 0a3e 0457 99bc 2591 e1bd 7c31 313e
000000c0: c9d0 a53d 9575 15be 37b5 123e 36cc 9b3d
000000d0: dc17 193d 0f77 4abb 8842 4abc 48bd 703d
000000e0: ac4f 08bd fd36 22bd 67c4 283e ea75 433e
000000f0: 140f d13d 2dd4 8c3d 5e07 f8bd 17fa 39be
00000100: 8440 823d b7f5 40be d9cf c1bd b0fd a7bb
00000110: ab5e d83d 823a 9abd d74a ae3b def6 013e
00000120: 9b77 30be d8e2 173e 8052 a4bd b107 ff3d
00000130: 24d5 f4bc cf54 a03d 2787 703d 1a1c 8e3c
00000140: e8e2 b7bd 583f d33d f9ae 56bd 3935 8ebd
00000150: b6b8 45be 87f2 973d 3148 3a3e 6af3 bebd
00000160: f7bf d93c 40d4 7eb9 bfaa 3c3e 0566 203e
00000170: 34b3 e1bd 44b0 3fbe c115 a7bd fba3 043e
00000180: a5c2 09be ea9f 3c3e 6696 213e ac3b 75bb
00000190: 8a2a 94bd 47d6 363e 56bd 603c 3b41 3e3e
000001a0: b2ae ba3c edf3 0c3e be55 bfbb 0033 dd3c
000001b0: 7636 af3d cc4a 803d 6c78 b0bd a7f2 ec3d
000001c0: 7f7f 8cbd cc4f 42be 2906 f2bd 0ae6 e23c
000001d0: 793f 373e 9e5f 033e 041e c03d 994d 453e
000001e0: 047e fbbc d329 203e 5ba2 a83d dff5 ecbd
000001f0: 6a0f 2fbc 3207 31be e429 7dbc 5025 bb3d
00000200: 0eb4 acbd 1b39 483d bf4a 0f3e 97c3 b53d
00000210: 6129 703d cf38 31be a3de 18be aaab d2bd
00000220: 3978 353e 056d 2fbe 7e41 5a3d b418 153e
00000230: dbb3 48bc 27e0 f8bc c1be 28be 263b 2bbd
00000240: abbd 263e 771c 96bc e685 34be a38b 23be
00000250: 5f81 223d 819a 9f3c b2c5 92bd 3ae9 33be
00000260: 4c30 3f3e 55a9 a33d c2e9 883d c353 a63c
00000270: 8059 91bd 0af3 1cbe 7029 64bc 008b 093e
00000280: 02b7 413d f95d 14be 85af 2fbe 2531 d63d
00000290: 0af7 1f3d 4e8e 6b3d 39dd 303c cc17 2fbe
000002a0: 964b 2e3e 7784 e4bd d203 483d b584 85bc
000002b0: 19c8 c63d df6e 40bb 6ab1 3bbd aeff 19be
000002c0: 8432 b6bc 26b7 c7bd 5be0 6fbd 0d3e ed3d
000002d0: 3316 42bd 397c 9abd 97d0 723c 3913 f23d
000002e0: 3003 313e a5c7 dfbc 5dcf 393d 181a 853d
000002f0: a952 82bd 8316 31be e49a 0cba 018e 0c3d
00000300: a620 6f3d 0530 1a3c 9424 a5bd fdc7 1bbd
00000310: 3013 fabd 6497 2f3d ce59 21bd 3ae8 b03d
00000320: 29ad 31be 92fb 2b3d 566c 2ebe 7e25 6b3b
00000330: c3de 17bd 1aa5 363e 43c8 1d3d bd1f 45bd
00000340: 7ae4 b5bd 2e2c f8bd defa 223e ac44 05be
00000350: 9acd a0bd e830 d6bd 7b72 b33d cd1b 93bd
00000360: 304f 013e 6f34 3a3e ec2d ae3d 5bf1 303e
00000370: 5c1c 343e ffd3 d7bd 5b7f 963d b3bb 823d
00000380: 0819 e7bd 744a 003e f389 e33d fad6 1fbe
00000390: 3108 b1bc 3f16 98bd 9900 78bd be47 253c
000003a0: cd5a 85bd d566 d13c 6c89 98bd 7ba8 563c
000003b0: 7d85 cb3d 8dcd a33d 9650 14bd a3b2 fcbd
000003c0: b721 01be 9148 07be 2768 1d3d fd82 dbbd
000003d0: 3f7f 1f3e 96ce 1ebc 0b38 06bd 3068 66bd
000003e0: 48e1 e13c 4484 09be 3958 bbbc a334 3f3c
000003f0: 2ad1 033d acef 953d bf3d fc3d 9062 d9bd
-0.02603503 -0.03245454 -0.06182405 -0.18566526 -0.1595537 0.16074444 -0.10376472 0.16257869
0.18779358 0.14890802 0.025307363 0.19035514 -0.18589705 -0.09962805 -0.14667189 -0.14671828
0.16224729 -0.03788907 -0.14772321 0.11756528 -0.121248595 -0.18360448 -0.039673414 0.0043755374
0.1240146 0.12462792 0.15803008 -0.050279576 0.10731099 -0.057443924 0.13949129 -0.045827918
-0.11444028 0.1433717 -0.17217831 0.03535815 -0.10396584 0.044652767 0.16684753 -0.09797324
-0.17249365 -0.18936773 0.026256751 0.14956087 0.13483822 -0.01871825 -0.11014012 0.17304033
0.08096463 -0.14595635 0.1432694 0.076073095 0.03737627 -0.0030893718 -0.012344964 0.058774263
-0.033279106 -0.039603222 0.16481172 0.1908795 0.10207954 0.06876407 -0.1211078 -0.18161808
0.06359962 -0.18843733 -0.09463472 -0.0051266775 0.105649315 -0.07530691 0.00531898 0.12691829
-0.17233126 0.14832628 -0.08023548 0.12452639 -0.02988679 0.07828676 0.05872264 0.017347384
-0.08978826 0.10314816 -0.05241296 -0.06943745 -0.19308743 0.07419305 0.18191601 -0.09323771
0.026580794 -0.00024302397 0.1842451 0.15663917 -0.110205084 -0.18719584 -0.08158446 0.12953179
-0.13453157 0.18420377 0.15780029 -0.00374196 -0.07234676 0.17855178 0.013717016 0.18579571
0.02278838 0.13764925 -0.0058390787 0.027001858 0.085553095 0.06264266 -0.08616719 0.1156972
-0.068602555 -0.18975753 -0.11817581 0.027697582 0.17895307 0.12829444 0.09380725 0.19267882
-0.030699737 0.15640955 0.08234092 -0.11570334 -0.010684827 -0.17287901 -0.015451882 0.09137976
-0.0843278 0.048882585 0.13993357 0.088751964 0.058633212 -0.17306827 -0.14928679 -0.102866486
0.17721643 -0.17131431 0.053285114 0.14560205 -0.012249912 -0.030380322 -0.16479017 -0.041804455
0.1628329 -0.01832412 -0.17629203 -0.15971236 0.03967416 0.019482853 -0.07166614 -0.17569438
0.18670768 0.07991282 0.06685211 0.020303613 -0.07097149 -0.15327087 -0.013925895 0.1343193
0.04729367 -0.14488973 -0.17156799 0.10458592 0.039053954 0.05750876 0.010794931 -0.17098922
0.17021021 -0.11158078 0.04883177 -0.016298631 0.09706134 -0.002936296 -0.045823492 -0.1503894
-0.022240885 -0.0975173 -0.05856357 0.11584101 -0.047384452 -0.07543225 0.0148202395 0.11820073
0.17286372 -0.027316878 0.045363773 0.064991176 -0.063634224 -0.17293744 -0.00053636567 0.034315113
0.058380745 0.009410863 -0.08063617 -0.03803252 -0.12210691 0.042868987 -0.039392285 0.08638044
-0.17351212 0.041987963 -0.17033514 0.0035880501 -0.037077677 0.17836419 0.038521063 -0.04812597
-0.08881469 -0.121178016 0.1591601 -0.13014477 -0.078517154 -0.10458547 0.0876207 -0.07183037
0.12627864 0.18184064 0.08504853 0.1727957 0.17588943 -0.10538482 0.0734851 0.06383457
-0.11284071 0.12528402 0.11110296 -0.15609351 -0.021610351 -0.07426118 -0.060547445 0.010087905
-0.065114595 0.02556173 -0.07448086 0.013101692 0.0993757 0.0799819 -0.036209665 -0.1233876
-0.12610517 -0.13211276 0.038429406 -0.107183434 0.15575884 -0.009692809 -0.03276829 -0.056251705
0.027573243 -0.13429362 -0.022869216 0.011670264 0.032181896 0.073211044 0.12316465 -0.106145024

layer1.0.bias f4 [128]
00000000: 15dd 27be 98e6 4abd 3a62 eabd 2c0b 253e
00000010: 817c fabd a827 4bbc 1976 3ebe 63b0 2c3e
00000020: e985 adbc 45de 383e 2a9c cbbd d5be 533d
00000030: e4c3 753d 2529 febd 01ae 2f3e ee9b 3a3e
00000040: f3dc 85ba 6d1e aebd 6be5 23be 6aed 87bd
00000050: 3805 dcbd 7bd8 993c e83f d9bd 5709 50bd
00000060: 389f 3ebe 3d64 95bd 7ba5 14be 14dc 3bbe
00000070: 69a1 bd3c 8e47 11be 925f 05bd 947f 163e
00000080: 66cf 773d fe38 ab3d 8851 fc3d 1b55 443e
00000090: a317 e7bd 935d 22be ea05 f63d 620b 3d3e
000000a0: c320 a53c 4498 a73a 401d eb3d b48d 24be
000000b0: b84c 8f3d c791 423e 3aba fa3d 7f81 1a3e
000000c0: 8c8a a73d 4158 143e 4e11 40be 526a d53d
000000d0: 8bde 093c 80ec cfbc 328a 0fbe 26c0 d23d
000000e0: d85d 82bd b971 b1bd 2199 efbd 63d1 d0bc
000000f0: 3a3f b2bd 6ccb 73bd 6e3b b5bd de24 4a3d
00000100: 663b f9bd a510 27be e09d b4bd 4518 e53c
00000110: 2eef 29be f83c c63d 2b25 9d39 28f0 303e
00000120: 8ffe d53d 84b5 083e d4a2 5bbc b32c 473d
00000130: 8fbe 02be 4052 8f3d 387b 2abd a989 75bd
00000140: 2f53 cbbd 123f fdbb 7c3c d53d 0f2e d23d
00000150: e30c cbbd db59 10be 983b a3bc 25cc e73d
00000160: 4fea 28bd c376 173e e299 8c3d db47 16be
00000170: af80 a23d 7100 0c3e d2cb 0c3e 8b71 6bbd
00000180: 30ca 123d c1fd 41be ebda 11be 01f8 133c
00000190: 8dc4 16be 52af 49bd 49c2 323d b7b2 c83d
000001a0: e5d2 3f3d e234 c03c 7725 b23c 4696 293e
000001b0: 5059 93bd b8ad dc3d c748 b13d 9ec6 6abd
000001c0: 01a5 e93d 35f9 213e b1c0 1b3e 71d3 373e
000001d0: 467a 573d 50da 72bd 9665 e43c d390 9bbd
000001e0: f245 f43d aa6d f3bd b9d7 403e 3358 3abe
000001f0: faa0 a9bd 092f 23be 9bdc af3d 87cd 3e3c
-0.1639293 -0.049536318 -0.114445165 0.16117543 -0.122307785 -0.0123995915 -0.18599738 0.16864161
-0.021182017 0.18053539 -0.09941895 0.051695663 0.06000127 -0.124101914 0.17156221 0.18223545
-0.0010212943 -0.08501897 -0.16005485 -0.0663708 -0.10743183 0.018779984 -0.10607892 -0.050790157
-0.18615425 -0.072945096 -0.14516251 -0.18345672 0.023148255 -0.14187452 -0.032561846 0.14697105
0.060500525 0.0836048 0.12320238 0.1917309 -0.11283805 -0.15856008 0.12012847 0.18461373
0.020157224 0.0012786468 0.11480188 -0.1606968 0.06997055 0.19000922 0.12242551 0.15088461
0.081807226 0.14486791 -0.18756601 0.104206696 0.008414875 -0.025381327 -0.14017561 0.10290556
-0.063655555 -0.08664269 -0.11699129 -0.025490468 -0.08703466 -0.05952017 -0.08849226 0.049351566
-0.121695325 -0.16314943 -0.08819175 0.027965674 -0.16595146 0.096795976 0.00029973066 0.17279112
0.10448944 0.13350493 -0.0134055205 0.048626613 -0.12768005 0.0699811 -0.041621417 -0.059945736
-0.099279754 -0.007728466 0.10411927 0.10262691 -0.09914567 -0.14096777 -0.019925877 0.11318234
-0.04123908 0.14791398 0.06865288 -0.14675848 0.07934701 0.13672043 0.13749626 -0.05748133
0.035837352 -0.18944456 -0.14243667 0.009031297 -0.14723416 -0.049239464 0.043642316 0.09799712
0.046831984 0.023462716 0.02174638 0.16561231 -0.071947694 0.10775322 0.08656459 -0.057318322
0.11408425 0.15817721 0.15210225 0.17951752 0.052606843 -0.05929023 0.027880471 -0.075959824
0.119274035 -0.11886151 0.18832292 -0.18197708 -0.08282657 -0.15935911 0.08586999 0.011645681

layer1.1.weight f4 [128]
00000000: a458 0c3f 96d8 6e3f 4080 ed3e f89c 4d3f
00000010: dc9b 503f 310a 7d3f cae2 203f e659 663d
00000020: 8e86 093f 109c 073f 6af2 2f3f 132b 433f
00000030: a091 763f 01b8 3a3f 5194 753d ed16 023f
00000040: e54f 593f d9c2 323f ea57 613f 46e3 423f
00000050: 795f 493f e3c1 813e 7794 743f 7e75 bb3e
00000060: 9aa7 163e 5a60 ee3e dc18 403f b042 c13e
00000070: 64ae 1e3f 14ff f23e 64d2 b73d 8b28 0f3f
00000080: 268c a63e 28bb 763f 025b 5b3f 37cb cc3e
00000090: 83a6 be3e 2553 373d 56d2 1b3f 091c 303f
000000a0: a0f9 193f c3ea 343f 9071 d43d 9f23 5a3f
000000b0: c539 c53e 10dc 5e3f ca3e c33c e89f 3f3f
000000c0: 3627 da3e f7cc 653f 6263 883d 0311 5d3e
000000d0: 9b3a 1c3e 91b7 af3d 8fbb 0d3f 98c2 af3e
000000e0: afcb 7a3e 2776 1b3d 5238 583f d24e 5f3f
000000f0: e159 6d3d e876 283f e415 f93d 8bcd 5a3f
00000100: a032 493e 5764 c03e 46fc 0b3f f506 763e
00000110: df8d 513f edd6 f13c 9afb e93e af71 6f3f
00000120: 4962 323f d976 7d3e ee99 5c3f 8d7a 263e
00000130: 7b23 f93b cd38 6a3e 28a7 873d e2c5 213f
00000140: ca00 143f 2412 093e 39e6 113f d4c0 383f
00000150: d846 613f a7d2 ea3e 7b66 4a3c f46d 083f
00000160: 0c68 de3e 74e8 a03e f7d9 cf3e 009d ea3e
00000170: a5a1 e23c 2283 3b3f 26e7 923e 5e42 9d3e
00000180: 7a38 123f 4ec9 603f 7fef 323f 91f3 3d3f
00000190: 4834 293f 2641 6f3f f315 653f fcde 413f
000001a0: b461 a83d a983 923e 939e 2c3f 8fa8 563f
000001b0: 3714 753f 9802 6d3f 745f dc3e 27e3 e33e
000001c0: 20cd 373f 841f 5c3f b3b2 323e 3edf a03e
000001d0: 6ba2 c23e d285 5c3e b3ed 213e ce36 153f
000001e0: d264 8a3e ceff 943d 20c8 3d3e f9e6 c33e
000001f0: c5a2 fa3e e384 b53d ddd3 f73e ce5a e63e
0.54822755 0.93299234 0.4638691 0.8031764 0.8148782 0.98843676 0.6284605 0.056238078
0.5372094 0.5297251 0.6872927 0.762376 0.96315956 0.7293702 0.0599559 0.5081623
0.84887534 0.69828564 0.8802477 0.7612804 0.78661305 0.25343236 0.9553904 0.36613077
0.14712372 0.46557885 0.7503793 0.3774619 0.6198485 0.47460234 0.08975676 0.5592124
0.325288 0.9637933 0.8568574 0.3999879 0.37236413 0.044757027 0.6086782 0.6879278
0.6014652 0.7067072 0.10373223 0.85210603 0.38520637 0.8705454 0.023833651 0.7485337
0.4260804 0.89765877 0.06659581 0.2158852 0.15256731 0.085799344 0.55364317 0.3432815
0.24491762 0.037954476 0.8446094 0.87229645 0.057947043 0.65806437 0.121623784 0.85469884
0.19648218 0.37576553 0.54681814 0.24026091 0.81857103 0.02952143 0.4569977 0.9353284
0.6968122 0.24752368 0.8617238 0.16257687 0.0076031066 0.2287323 0.066236794 0.6319257
0.57813704 0.13385826 0.56991917 0.7216923 0.87998724 0.4586384 0.012353535 0.53292775
0.43438756 0.31427348 0.4059598 0.45822906 0.027664969 0.7324697 0.28691977 0.30714697
0.57117426 0.87807167 0.6989669 0.7419978 0.660954 0.93458784 0.89486617 0.7573087
0.082217604 0.28616074 0.67429465 0.8385095 0.9573397 0.9258208 0.43041575 0.4450924
0.7179737 0.8598559 0.17450981 0.3142032 0.3801454 0.21535423 0.15813331 0.5828675
0.27030045 0.07275353 0.18533373 0.38262156 0.48952308 0.08863237 0.48403826 0.44991153

layer1.1.bias f4 [128]
00000000: 2cbb 823a 99bd 823a 3c0a 83ba 6408 833a
00000010: 76db 82ba e5c9 82ba d3f4 82ba d905 83ba
00000020: 9003 83ba 64fa 823a 80f0 823a 1807 833a
00000030: f6e8 823a 2ce6 803a 4dee 82ba 89e4 823a
00000040: a677 82ba 65ee 82ba 89f5 82ba a3f6 82ba
00000050: 4401 833a d102 83ba 5730 82ba 77e5 82ba
00000060: 7afe 823a 9aff 823a 0509 833a b0f7 82ba
00000070: aabf 82ba f2f2 82ba 15f5 82ba 768e 823a
00000080: 5003 83ba 3f0b 83ba 91f6 823a 9602 83ba
00000090: 3e86 813a acf8 82ba 85f6 823a e9a3 82ba
000000a0: 14fb 823a b201 833a 0601 83ba d6cd 823a
000000b0: 2d04 83ba f9fd 823a f5d1 823a 86dc 823a
000000c0: b5fa 823a 4809 83ba 2400 83ba 9f00 83ba
000000d0: d5ec 82ba e1ce 823a affd 823a eefe 82ba
000000e0: 2dfd 82ba c4c3 823a 1805 833a 31fa 823a
000000f0: d4fa 82ba fafa 823a d7f5 823a 4102 833a
00000100: 420d 83ba 69f5 823a a9fe 823a 2e02 833a
00000110: 3301 83ba 90df 823a 57fe 82ba 02ff 82ba
00000120: f0a1 82ba cdff 823a 260e 833a 24f3 82ba
00000130: 0da6 823a 4be5 823a e806 83ba 2f56 823a
00000140: 8a00 83ba 8eb8 823a 7f09 83ba fce2 82ba
00000150: 68dc 82ba 3ade 82ba 82a1 82ba 04f2 82ba
00000160: b9df 823a 6df6 82ba 3157 73ba f1e5 82ba
00000170: b807 833a e006 833a 290b 83ba 2dd7 82ba
00000180: b32b 80ba 81c9 82ba f30c 83ba fcf9 82ba
00000190: 85e9 82ba dc00 83ba b3e6 823a f0f8 82ba
000001a0: 29eb 82ba a1bb 81ba 41d0 82ba 9192 823a
000001b0: f0d8 82ba b906 833a b300 833a 5e04 83ba
000001c0: eaab 813a b1ff 82ba 7db9 82ba b1fa 823a
000001d0: 09fe 823a f8f1 82ba 32fb 823a 43ea 823a
000001e0: 3f04 83ba 0d2e 82ba 17f7 823a 2df9 823a
000001f0: 1ecd 82ba 8709 833a 9fdc 82ba 5e08 83ba
0.0009973994 0.0009974717 -0.0009997557 0.0009997007 -0.0009983617 -0.0009978382 -0.0009991176 -0.000999625
-0.0009995569 0.0009992835 0.0009989887 0.0009996621 0.0009987641 0.0009834222 -0.0009989232 0.0009986322
-0.0009953871 -0.000998926 -0.0009991388 -0.0009991716 0.0009994884 -0.0009995346 -0.0009932619 -0.0009986599
0.0009994053 0.0009994388 0.0009997195 -0.000999203 -0.0009975333 -0.0009990616 -0.0009991253 0.000996067
-0.0009995494 -0.0009997858 0.0009991695 -0.0009995278 0.0009881926 -0.0009992323 0.0009991681 -0.0009967062
0.000999304 0.0009995012 -0.0009994812 0.0009979557 -0.0009995751 0.0009993903 0.0009980785 0.0009983934
0.0009992929 -0.0009997273 -0.0009994549 -0.0009994692 -0.0009988794 0.0009979868 0.0009993816 -0.0009994188
-0.0009993665 0.0009976556 0.0009996025 0.0009992776 -0.0009992965 0.000999301 0.0009991479 0.0009995179
-0.0009998458 0.0009991351 0.0009994108 0.0009995156 -0.0009994864 0.000998484 -0.0009994012 -0.0009994211
-0.0009966474 0.0009994447 0.0009998723 -0.0009990674 0.00099677 0.0009986548 -0.0009996565 0.0009943898
-0.0009994667 0.0009973214 -0.0009997337 -0.000998586 -0.0009983899 -0.0009984442 -0.0009966346 -0.0009990339
0.0009984887 -0.0009991653 -0.0009282707 -0.0009986741 0.0009996807 0.0009996556 -0.0009997833 -0.000998234
-0.0009778648 -0.0009978266 -0.0009998366 -0.0009992714 -0.0009987807 -0.0009994763 0.0009986967 -0.0009992402
-0.0009988296 -0.0009897837 -0.0009980277 0.0009961893 -0.0009982865 0.000999651 0.0009994715 -0.0009995808
0.0009893153 -0.0009994415 -0.0009973493 0.0009992925 0.0009993921 -0.0009990325 0.0009993075 0.0009988028
-0.0009995772 -0.0009931937 0.0009991851 0.0009992473 -0.0009979343 0.0009997346 -0.0009983963 -0.0009997

layer1.1.running_mean f4 [128]
00000000: f8ee 1cc0 52b3 0340 439e 7840 63ff 4441
00000010: 6964 b740 aab6 d5c0 ed6d 55bf e3ff 43c1
00000020: 0883 c740 7b6f 0ac0 d030 5541 039d 7b41
00000030: f06f 0a3f 133a 59be 44f8 9b40 f869 7340
00000040: 4ad5 35c0 c826 d83f ad70 b3bf aa59 96c1
00000050: b626 56c1 18b2 75c1 0a71 c541 20ce 1e40
00000060: fb6e d940 a0f6 59c0 aade 4b41 fa70 57c0
00000070: 9a97 fc40 ea36 2140 6db1 2a40 981a c6c0
00000080: 1638 abc0 277b bc40 c36f 17c1 7a94 e2c0
00000090: f83b 75c1 739f d340 b4b9 0741 d53b 4ebf
000000a0: 86a5 07c0 e3e3 5cc0 da35 32c1 d81e d4be
000000b0: 0f18 48c1 798b 99bf debf 0341 23c7 7b41
000000c0: c60e 3840 affb 9040 b285 d7bf de92 68c1
000000d0: e2d9 d1c0 6680 77c0 41de 11c1 6427 3a41
000000e0: 9666 2341 9b1e edc0 c5f3 7640 6022 23c1
000000f0: e21d 48c1 4676 d53e c498 b3c0 9e42 32c1
00000100: 60ce 3441 30bf 8bc1 16c1 4840 6e95 5c40
00000110: 0419 bd40 8867 88c0 f0ce 9340 9b33 6c41
00000120: 8ed5 cfc0 c222 ca40 d5a5 8041 029b acc0
00000130: a192 a5bf cdab 14c0 d4e0 1641 125b c1be
00000140: 32e8 7a40 fc75 3441 a652 3d40 0f64 a4bd
00000150: f053 d7c0 c61b ffbc c51a 6fc1 e550 8240
00000160: 0bdc eb40 131e 71c0 e4fa aec1 4735 b1c0
00000170: a496 a740 73d7 3441 bf46 33c1 db6b f2c0
00000180: 5ab6 d9c0 7627 80c0 9ba1 2e41 017b bb40
00000190: 3890 cd40 52c3 39c1 9024 6240 8e6d 95c0
000001a0: c46d 2a3f a60d 62c0 8eb0 c4c0 06d9 53c1
000001b0: b339 d9c0 932f 3941 2393 a8c0 f289 0441
000001c0: 9ae2 b9c0 3652 a040 1c9f ad40 7f06 0840
000001d0: 4f23 43c1 fcba 943f 6dd6 f6c0 4860 a241
000001e0: e067 fac0 e098 3d41 4121 3940 e02f 5bc1
000001f0: 0fc0 48c0 13d4 3ac1 fe0e c0bf eed9 5140
-2.4520855 2.0578198 3.8846595 12.31235 5.731007 -6.678548 -0.8337086 -12.249972
6.234745 -2.1630542 13.324417 15.725833 0.54077053 -0.2121356 4.874056 3.8033428
-2.8411431 1.6886835 -1.4018761 -18.793781 -13.384451 -15.35598 24.680195 2.4813309
6.7947974 -3.4056778 12.741861 -3.3662705 7.893506 2.5189767 2.6670792 -6.1907463
-5.3505964 5.8900332 -9.464786 -7.0806246 -15.327141 6.613214 8.482838 -0.80560046
-2.1194777 -3.451409 -11.138147 -0.41429782 -12.505874 -1.1995689 8.234343 15.736117
2.8759017 4.530723 -1.6837676 -14.535856 -6.557847 -3.8672118 -9.116761 11.634617
10.212545 -7.409986 3.8586285 -10.195892 -12.507296 0.41691798 -5.612398 -11.141264
11.3003845 -17.468353 3.136785 3.4466205 5.9093037 -4.262638 4.619011 14.762599
-6.4948187 6.316743 16.080973 -5.393922 -1.2935373 -2.322986 9.42989 -0.37764794
3.920422 11.278805 2.9581695 -0.08026897 -6.7289963 -0.031141173 -14.944036 4.072375
7.3706107 -3.7674606 -21.872505 -5.5377536 5.2371387 11.3026 -11.204772 -7.575666
-6.8035097 -4.004817 10.914454 5.858765 6.423855 -11.610186 3.5334816 -4.6696234
0.6657374 -3.532083 -6.146552 -13.240484 -6.7882934 11.574115 -5.267961 8.283678
-5.8089113 5.0100355 5.4256725 2.1253965 -12.19612 1.1619563 -7.713675 20.297012
-7.82518 11.849823 2.8926547 -13.699188 -3.1367223 -11.676776 -1.5004575 3.2789264

layer1.1.running_var f4 [128]
00000000: 4b9e 1243 4162 7042 5b6e bf42 ff87 cd43
00000010: eed1 0b43 e351 f042 07dd 8e41 0810 b743
00000020: 64c5 0343 0ed4 4f42 bfd8 dd43 b173 1144
00000030: 934c 6441 00e9 0642 8563 a042 6976 5d42
00000040: 8212 6d42 e48f 2242 e51f 9442 046d 3b44
00000050: c053 ee43 9892 0944 fab3 b544 b769 8442
00000060: b0e4 4343 736a f042 e123 f943 42f3 aa42
00000070: 45f9 1043 c5ef 7a42 bf20 d342 c753 c642
00000080: 40a0 b142 3ab7 cf42 0ddd 5a43 2087 5d43
00000090: a833 0b44 9b80 3743 449b 7a43 7812 0242
000000a0: e3fe 9542 b4d8 c642 ef9a a243 91a3 2942
000000b0: 6d1a eb43 4bd0 8542 69c2 3443 d5b1 0c44
000000c0: 72b9 9742 2e9e a042 794a 3742 0165 db43
000000d0: 98ba 0343 e45d 9042 e1e0 8a43 2b9f a943
000000e0: 678a 8243 b555 3843 17bc ac42 df71 7b43
000000f0: ece2 a743 a2b8 1043 7c94 0e43 d533 8643
00000100: e816 8843 1b03 1844 af2b ca42 7e82 8e42
00000110: 83fe c042 7cc2 5c42 ad72 a942 62a7 0d44
00000120: a0e0 df42 1d54 2d43 9593 0f44 3eb6 b142
00000130: 6689 ce41 09f7 4142 2e80 5f43 8887 b242
00000140: 0700 f242 fdd6 9243 c3d5 1142 ffd1 4042
00000150: af10 3043 aa35 1342 0ee4 0c44 5601 8542
00000160: 8c18 2443 e239 8f42 5e55 8b44 389d ee42
00000170: 231d e142 79e7 d743 5d4c 8d43 16a0 3d43
00000180: 6af4 4043 7d55 7f42 89fb a043 857d 1d43
00000190: f100 ed42 cdab d943 2c5f 6b42 fcec a242
000001a0: 990e 9b42 a441 3343 fdc6 db42 5df7 c043
000001b0: f07a 1e43 3640 9443 e4e2 2543 9f8d 6a43
000001c0: bfcb b942 f8b0 3743 9a2d b142 6d63 7a42
000001d0: 20de b943 207b 8b42 c46a 5c43 021a 5044
000001e0: 01c6 4643 fd05 b243 dbf4 cb42 daa7 c343
000001f0: 30ee 1042 aa43 9a43 67df 3442 9f36 c942
146.61833 60.09595 95.71554 411.06247 139.82004 120.159935 17.857924 366.12524
131.77106 51.957085 443.69333 581.8077 14.268695 33.72754 80.194374 55.365635
59.268074 40.64052 74.062294 749.70337 476.6543 550.2905 1453.6243 66.206474
195.89331 120.20791 498.2803 85.47511 144.97371 62.73415 105.56396 99.16363
88.81299 103.857864 218.86348 221.52783 556.8071 183.50237 250.6065 32.518036
74.997826 99.42325 325.21042 42.409733 470.20645 66.90682 180.75941 562.7786
75.8622 80.308945 45.822727 438.7891 131.72888 72.18338 277.75687 339.2435
261.08127 184.3348 86.36736 251.44481 335.77283 144.72122 142.58002 268.40494
272.17896 608.0485 101.08532 71.25487 96.49709 55.189926 84.723976 566.61536
111.93872 173.32857 574.30597 88.85594 25.81709 48.491245 223.5007 89.26471
121.00005 293.6796 36.45875 48.205074 176.06517 36.802406 563.56335 66.50261
164.09589 71.61305 1114.6677 119.30707 112.55691 431.80838 282.5966 189.62534
192.95474 63.833485 321.96512 157.49031 118.50184 435.3422 58.84294 81.46286
77.52851 179.25641 109.88865 385.93253 158.48022 296.50165 165.88629 234.5532
92.89794 183.69128 88.589066 62.597095 371.73535 69.74048 220.41705 832.4064
198.77345 356.04678 101.97823 391.31134 36.232605 308.52863 45.218166 100.60668

layer2.0.weight f4 [64, 128, 3, 3]
00000000: 70e6 c0bc 1686 823c 8582 afbb f66e 66bc
00000010: 2b22 95bc 396e 5ebc 1ae1 b1ba 06b5 c9bc
00000020: 9375 97bc 728d b6bb b629 093c a2db d53c
00000030: 57f1 b23c 246c c53c 6178 a1bc b6b7 4a3c
00000040: 27a4 533c cc3d 053b 0301 efba 6481 7c3c
00000050: 1a2d 46bb 48e3 bb3b e486 e2bb 5352 23bb
00000060: 7cb5 b13c a633 d9ba 5b2c d4bc 1c84 763c
00000070: ec7d d43c 7db5 bebb e6f5 a8bc 29f3 23bc
00000080: 0314 023c 1ecd e6bc 8257 ed3c a64b 933c
00000090: 8665 a33c c340 aa3c ce32 07bb 2687 95bc
000000a0: f9c7 c2bb 3855 4cbb aab6 68ba 9763 f33c
000000b0: 5017 6f3c daee 4e3b 2039 26bc 3b67 9d3c
000000c0: f443 98bc 947c 9bbc 3016 dcb9 dbe1 553c
000000d0: d326 a93c ef4c 993c 5040 0cba 5c7e cfbc
000000e0: 497d d5bc 4042 8dbc 18cb 6e3c ed4b c5bb
000000f0: 73eb 53bc 050a 9bbc 4b1a c6bc 05cb 89ba
00000100: d634 86bc 7852 8b3b 6b50 3abc 64f4 413a
00000110: 5421 b5bc a63b 403c 558e 77bb e3a9 aebc
00000120: a535 40bc ea74 923c f864 dfbc 83f4 48bc
00000130: 9a13 1bbb 1a27 27bc 707d 203b 69cf 9abc
00000140: 154e b43c 0ca0 263b 01ec b5bc f7b4 08bb
00000150: fcbf bb3c 483a a93c 42db 923c 38aa a3bb
00000160: e31c a13c b6f1 f53c 14b8 d73b 2a04 0d3c
00000170: ac32 b83c a078 75ba 815c dfbc e81e c43c
00000180: 383e b7bc bdcf 00bc 53c0 da3c 3a47 a5bb
00000190: c2e3 923c d335 4c3c 5de9 a5bb 73d2 b63c
000001a0: 70ac 073c 3512 89bc fa53 4b3c 7047 ad3b
000001b0: c8b4 493c 5020 cbbc cc52 de3c f4d9 6dba
000001c0: 8451 06bc ab39 d53c cbe1 c8bc 18b2 abbb
000001d0: bf33 5e3c 509c 313b 8010 d3bc 1648 b23c
000001e0: 8d50 4c3c 8f01 2bbc c0b8 153c a36c 043c
000001f0: 5b49 dbbb ce1d 073b 0bdc debc 5ae9 3aba
00000200: e5f5 babc 653d 5dbc 212f 4d3c 0b4c 743b
00000210: e0bf 423b 361b 8bbc 5645 813c 42b1 9eb9
00000220: c11c 913c c616 b33c 55dc a63c e86f 78bc
00000230: 6a49 36bc 6073 04bc e2a7 cb3c 8ad8 293c
00000240: 0a75 dbbc 007c 37bc 5585 e2ba e107 ab3c
00000250: 5c3c 3c3c 1253 d93a 77bb d5bc a995 cabc
00000260: 1567 b7bc a9ff a0bc 5634 d2bc ed9b 0e3b
00000270: 8563 69bc f05f e2bc 511c 643c 5f58 063b
00000280: 8668 693c dd65 aebc ec2c 223c 812e 9a3c
00000290: d790 11bc 930c c73b b2aa 613b c2fe 703c
000002a0: 104b 70bc b25d 423c 8024 bb3c 9dcc d73c
000002b0: c216 403b 0afe e1bc 0744 37bc 1adf 7dbb
000002c0: 6269 86bc bd32 d3bc e13c dfba b8f5 c5bc
000002d0: 9be2 e43c 650a 0f3b fc98 f8bc 4c2f abbc
000002e0: 3e40 67bc 6230 463c 42d4 75bc d33e 7d3c
000002f0: c34f b8bc 2d8a e63c ad52 2c3c 84f0 c83b
00000300: 4256 e1bc 1ccf dfbc 6e35 9d3c d412 d23c
00000310: 1c21 d7bc 3ae8 35bb a8f7 75b9 4424 143c
00000320: 89c5 c13c 3a74 e2bc 4c23 e0bc 6388 30bc
00000330: 397d da3b 4093 0b38 2aa1 bfbc a773 69bc
00000340: d9af 833c 80fb a3bc 20c6 4abc 30fa a2bb
00000350: cc1f d6bc bdc0 e7ba ecfe 55bc c85c 4139
00000360: 8561 883c 4371 d2bb 68cd e53c e1a7 4fbc
00000370: 72f5 f23b de27 bd3c 4423 eebc 6aee 8e3c
00000380: 0e1e 833c 1614 093a 4925 893b 1b7d a1bc
00000390: f2ef b0bb c09d 4b3c 9c69 30bc 8716 d9bb
000003a0: b760 2b3c b02e e63c ae2c df3c 14d8 c6ba
000003b0: 436c 593c 6ad4 323c 3037 c63b a1b7 b53c
000003c0: 04ae bfbb b60a 77bc 59c8 8bbc 2dda 353c
000003d0: f251 d5ba f34b d1bb 6381 213c 9e11 59bc
000003e0: b5d6 1dbc f3dc 943c b27b 85bc f041 e63c
000003f0: 016f a6ba 3c8b b23c 0810 a53a a3fe 8e3c
-0.023547381 0.015933078 -0.0053561353 -0.014064541 -0.01820477 -0.013576084 -0.0013571114 -0.024622452
-0.018488681 -0.005571061 0.008371761 0.026105706 0.021843595 0.024099417 -0.019710721 0.012372902
0.012917555 0.0020331023 -0.0018234554 0.0154117085 -0.0030239285 0.005733881 -0.006913053 -0.0024920895
0.021692984 -0.0016571179 -0.025900057 0.015046146 0.02593895 -0.005819975 -0.020625066 -0.010006704
0.0079393415 -0.02817398 0.028972391 0.017980408 0.019945871 0.020782834 -0.0020629647 -0.01825292
-0.0059442488 -0.0031178724 -0.0008877317 0.029710574 0.0145929605 0.0031575472 -0.010145456 0.019214263
-0.01858709 -0.018980302 -0.000419782 0.013054336 0.020648396 0.018713443 -0.00053501595 -0.025328808
-0.026060717 -0.017243505 0.0145747885 -0.006021014 -0.012934553 -0.018925676 -0.02418246 -0.0010512775
-0.016382616 0.0042517744 -0.011371712 0.0007398783 -0.022110619 0.011732971 -0.0037774045 -0.021321243
-0.01173154 0.017878015 -0.027269825 -0.012265327 -0.0023662806 -0.010202194 0.002448883 -0.018897729
0.022009889 0.0025424985 -0.022207262 -0.0020859817 0.022918694 0.020657673 0.017926816 -0.004994657
0.019667095 0.030022483 0.006583223 0.00860695 0.0224851 -0.0009363983 -0.027265789 0.023940518
-0.022368535 -0.007862029 0.026703035 -0.0050438913 0.017930869 0.012464005 -0.0050632195 0.022317147
0.008280858 -0.016732315 0.012410158 0.005288057 0.012311168 -0.024795681 0.02713909 -0.000907331
-0.008198146 0.026028475 -0.024521729 -0.0052397363 0.013562142 0.0027101226 -0.025764704 0.021762889
0.012470377 -0.010437383 0.009138286 0.008082542 -0.0066920943 0.002061713 -0.027204534 -0.0007130109
-0.02282233 -0.013503407 0.012523443 0.003727677 0.0029716417 -0.016980749 0.015780132 -0.00030268176
0.017713906 0.021861445 0.020368734 -0.015163399 -0.011125902 -0.008084148 0.024860326 0.010366568
-0.026789207 -0.0111989975 -0.0017282168 0.02087778 0.011489 0.0016580543 -0.026090367 -0.024729567
-0.02238802 -0.019653158 -0.025659721 0.002176042 -0.014244919 -0.027633637 0.013922767 0.002049945
0.014246112 -0.021288807 0.0098984055 0.018821003 -0.00888463 0.006074497 0.0034434018 0.0147091765
-0.014666334 0.011863159 0.022844553 0.026342684 0.002931044 -0.027586956 -0.011185653 -0.0038737715
-0.016407672 -0.02578103 -0.0017031693 -0.02416502 0.027940085 0.0021826264 -0.030346386 -0.020896576
-0.014114438 0.012096496 -0.0150042195 0.015456873 -0.02249897 0.02814206 0.010517758 0.0061321873
-0.027506951 -0.027320437 0.019190516 0.025643744 -0.026260905 -0.0027756826 -0.0002345728 0.0090418495
0.023653762 -0.027643312 -0.02736058 -0.010774705 0.0066677597 3.327732e-05 -0.023392279 -0.014248765
0.016075062 -0.020017385 -0.012376338 -0.0049736723 -0.026138209 -0.0017681342 -0.013061266 0.00018440478
0.016648063 -0.0064221933 0.028052047 -0.012674303 0.0074145133 0.0230903 -0.02906955 0.017447669
0.016005542 0.00052291283 0.004185353 -0.019712975 -0.0053996975 0.012427747 -0.010767367 -0.006625
0.01046007 0.028098434 0.027242985 -0.0015170597 0.0132704405 0.010914901 0.0060490593 0.022182288
-0.0058496017 -0.015078237 -0.017063307 0.01109938 -0.0016275032 -0.0063872277 0.009857508 -0.013248829
-0.00963371 0.018171763 -0.016294334 0.028107613 -0.0012697877 0.021794908 0.0012593279 0.017455405

layer2.0.bias f4 [64]
00000000: 4a74 9cbc 73b9 a93c 33bd 683c 2bd9 343c
00000010: 7372 87bc bfaf c83c ff17 edbc 2b1b 28bc
00000020: 6da8 b2bc c166 573a ebb2 44bc edc3 fabb
00000030: 5bdd 953c f9e9 873c 799c ea3b 7a4f 0e3c
00000040: 0da2 d23c acfd d5bc 93a9 97bc a5aa 993c
00000050: 5408 d13c 5b02 ecbc b30d 183c 3fe4 81bc
00000060: 37fa 923c 63e9 e63c e718 ac3c 450e 813c
00000070: c297 8fbb 25c7 1abb 9d9a 3abb 2dcc e03c
00000080: e17e e33c d07a e13c d179 60bc 1847 1a3c
00000090: 198f 41bc 0985 2f3c 6e97 6f3c 87f5 843c
000000a0: aab1 533b 0d28 c0bc f7d6 e6bc 01a9 dbbb
000000b0: 866c dc3c 084a 013b b8f6 06bb 8de5 90b9
000000c0: 0c11 a9bb 402d 0fbb 2218 9dbc 3428 05ba
000000d0: bc76 f3bb d0fc 753c 368f c13b 3f7a 50bc
000000e0: 8aab b83c 4faf 09bb cbce a83c 43f3 9fbc
000000f0: 4fbc 953c d4c4 2ebc 83e5 a7bc 76a9 b4bc
-0.01909842 0.020718312 0.014205265 0.011038105 -0.016534066 0.024497865 -0.028942106 -0.010260384
-0.021808827 0.00082169106 -0.012005548 -0.0076527507 0.018294027 0.016591059 0.0071597663 0.008685941
0.025712037 -0.026121937 -0.018513476 0.018758127 0.025516666 -0.028809717 0.00928061 -0.015855907
0.017941577 0.02818746 0.021007968 0.015753875 -0.0043821046 -0.0023617235 -0.0028473504 0.027441109
0.027770462 0.027524382 -0.013700918 0.009416364 -0.011813902 0.01071287 0.014623506 0.016230358
0.003230194 -0.023456598 -0.028178675 -0.0067034964 0.026907217 0.0019727964 -0.0020593833 -0.0002763685
-0.005159503 -0.002184704 -0.019176546 -0.0005079538 -0.0074299257 0.0150138885 0.0059069647 -0.012724458
0.022542734 -0.0021009033 0.02060642 -0.019525176 0.01827827 -0.010667045 -0.020495182 -0.022053462

layer2.1.weight f4 [64]
00000000: aa44 6b3d 1e1f 613f d360 fb3d 5f8c 713f
00000010: f958 7c3e 12a4 693f 79cc 583f 272a 5f3f
00000020: 1007 733f 0dbf 9c3d 12a1 d83d 8037 443e
00000030: 3a40 9d3e a582 133f a2fa 2f3f cea9 dc3c
00000040: 1e2d 013f 7c22 673e ffc4 563f 3f9f 4c3f
00000050: cf82 2b3d 60ba 3f3f 3be0 7f3f 2402 e83e
00000060: 5890 223e a63b 6e3d a282 6e3f a85e c23e
00000070: 8142 d43e 8a15 ca3e 239c dc3e 8cbd e33d
00000080: 4f70 703e dd13 1f3e 6815 573f 29df 323d
00000090: 1965 f43e 2dc7 e73e e72b 563f 7d91 3a3f
000000a0: 8eb2 5f3f 2ff8 253e f57c 6f3f 154e 763f
000000b0: 4c4d 073f 2f24 da3d 9e40 1c3d f248 ec3e
000000c0: e782 cd3d 2cda 473f c8fa 743f 2795 423f
000000d0: c532 6d3f 3225 133f 456f 493f b1ea c13e
000000e0: b701 7e3b 7951 243f 14bd 903e 4547 073d
000000f0: abfc b23e d3c6 fb3e 0dba 863c ef65 743f
0.05743853 0.87938106 0.12274327 0.94354814 0.24643315 0.91265976 0.84687 0.87173694
0.9493265 0.076536275 0.10577597 0.19161797 0.30713063 0.5762122 0.6874181 0.026936438
0.5045947 0.22571748 0.8389434 0.7993049 0.041872796 0.7489376 0.99951524 0.45314133
0.15875375 0.058162354 0.9316808 0.37962842 0.41456988 0.39469558 0.43087873 0.111201376
0.23480342 0.15534921 0.8401704 0.043669853 0.4773338 0.45269147 0.8366074 0.7287825
0.8738183 0.16207956 0.93550044 0.96212894 0.5285232 0.10651433 0.03814756 0.46149403
0.10034733 0.7806728 0.9569516 0.7600884 0.92655593 0.5747863 0.7868541 0.37874368
0.0038758346 0.6418682 0.28269255 0.033026952 0.34958395 0.49175128 0.016446138 0.9546804

layer2.1.bias f4 [64]
00000000: f0fb 823a a1d5 823a 9f00 83ba 6200 83ba
00000010: 9df6 823a e9dd 823a dc02 833a 18da 82ba
00000020: b0c3 813a e040 823a 55f8 82ba ee9b 823a
00000030: 6504 83ba 79fa 823a 8def 823a b3f9 82ba
00000040: 8e87 823a 50c1 82ba 96ee 82ba 0f08 833a
00000050: 4893 82ba 74fd 82ba 07ff 823a e0d6 823a
00000060: 28f3 82ba b503 833a a500 83ba 9cca 82ba
00000070: be0b 83ba b30d 7eba 0abf 82ba f7fa 82ba
00000080: 03ee 82ba 0e01 833a d9f8 823a d2ef 80ba
00000090: 3c01 83ba d4e3 823a 11fe 823a 87eb 823a
000000a0: d4c0 82ba 6bfd 823a d441 823a 8c89 823a
000000b0: 74f1 82ba cfa8 823a c6f6 823a 6165 82ba
000000c0: 33e9 82ba cdee 823a b8c8 823a 2bff 82ba
000000d0: f1f0 82ba f403 83ba 54d6 823a 2d76 82ba
000000e0: edeb 823a c10a 833a 45fb 82ba 56f7 82ba
000000f0: 26b2 823a d1fb 82ba 0b0a 833a e8cf 823a
0.0009993296 0.0009981879 -0.0009994692 -0.0009994621 0.0009991709 0.0009984347 0.0009995359 -0.000998321
0.0009900238 0.0009937547 -0.0009992222 0.0009964684 -0.0009995817 0.000999286 0.0009989605 -0.0009992629
0.0009958611 -0.0009975825 -0.0009989317 0.0009996908 -0.0009962106 -0.0009993748 0.0009994217 0.0009982251
-0.0009990679 0.0009995612 -0.0009994699 -0.0009978595 -0.0009998006 -0.00096913724 -0.0009975147 -0.0009993006
-0.0009989146 0.0009994821 0.0009992375 -0.0009837097 -0.0009994875 0.0009986111 0.000999393 0.0009988406
-0.000997568 0.0009993737 0.0009937831 0.0009959205 -0.0009990172 0.0009968522 0.0009991757 -0.0009948426
-0.0009987712 0.0009989381 0.0009978032 -0.0009994259 -0.0009990019 -0.0009995685 0.0009982088 -0.0009953432
0.0009988524 0.0009997712 -0.0009993097 -0.0009991925 0.0009971305 -0.000999326 0.00099975 0.0009980174

layer2.1.running_mean f4 [64]
00000000: a4b1 823c 83d1 e6bb d390 0c3c da1d 293b
00000010: 95b8 a03c 7694 a2bc 32c2 ca3c 6253 3dbc
00000020: f665 efbc 9233 2e3c aaca e6ba 2582 be3a
00000030: ecf8 a8bb aa6c 293c cd04 933b d755 0ebc
00000040: d343 ec3c 86f5 02bd ba62 5c3b 72ed 9abc
00000050: 1d1d 86bc feb5 6dbb 5730 c03a c152 a93b
00000060: 8287 103c 70be 2d3c 9bea 8a3c e019 debb
00000070: fc2f 033d 6612 68bb 3b7d 943c 7d32 bebc
00000080: 8838 1a3c 6da3 dd3b d673 e23b 8793 173d
00000090: 165d c23c accb c3bb 7683 f9b9 af57 c5bc
000000a0: a5f5 023c 3b65 583c e417 9bbc da68 1e3d
000000b0: 2a8c afbb eded 0f3c 5a19 833b e4b4 b9bb
000000c0: 9867 053d 5261 97bc 1784 a4bc a784 bb3b
000000d0: faee 29bc b24e 663c 3346 99bc 764a 33bc
000000e0: c08a ce3b 508f 30bd 0125 0f3d 9baf a2bc
000000f0: bf37 ac3c 8ef5 0d3c ac17 b0bc 8256 cc3c
0.015953846 -0.0070440187 0.008579451 0.0025805146 0.019619266 -0.019846182 0.024750803 -0.011555525
-0.029223423 0.0106324125 -0.0017608006 0.0014534636 -0.005156627 0.010340849 0.0044866563 -0.008687458
0.028840935 -0.03197243 0.0033628182 -0.01891205 -0.016371304 -0.0036271806 0.0014662844 0.0051673357
0.00882137 0.010604486 0.016957572 -0.006777987 0.032028183 -0.0035411357 0.01812612 -0.023217434
0.009412892 0.0067638666 0.0069107814 0.037005927 0.023726027 -0.0059752073 -0.00047590927 -0.024089662
0.0079931365 0.013207729 -0.01893229 0.038674213 -0.005357285 0.008784753 0.004000825 -0.005667316
0.032569498 -0.018479023 -0.020082517 0.0057226005 -0.010371918 0.014056848 -0.018710231 -0.010943046
0.0063031614 -0.043105423 0.0349474 -0.019859126 0.021022676 0.008664502 -0.021495663 0.024943594

layer2.1.running_var f4 [64]
00000000: d8f5 663f f553 673f 047f 673f b252 673f
00000010: 5f80 683f 44e5 673f f13d 6a3f 3929 673f
00000020: be50 673f afeb 663f 9c2d 673f 9132 673f
00000030: 4d5d 673f 870d 673f 4c92 673f 1c1d 673f
00000040: 7ff9 683f 7b7d 673f 4953 673f 6a38 683f
00000050: 25b0 673f a09f 673f 44a2 673f 9d8c 673f
00000060: 3a77 673f 1673 673f 890e 673f 531b 673f
00000070: 2939 683f 595f 673f ffac 683f 6695 673f
00000080: afad 673f 3c2e 673f 4a05 673f 2bd5 673f
00000090: 3944 683f d203 683f 8b38 673f fa62 673f
000000a0: 31e3 673f 8e20 673f 717b 673f e61e 693f
000000b0: 8aa1 673f a3ae 673f 2c0c 673f eb69 673f
000000c0: b7e4 683f 7a6a 673f f039 673f 704f 673f
000000d0: f59d 683f c072 683f 4ef5 673f 0322 673f
000000e0: cd66 673f 70e6 6b3f 253a 683f bd48 6a3f
000000f0: 7478 673f f43b 683f e9f9 673f e9d1 673f
0.9021888 0.90362483 0.90428185 0.9036056 0.9082088 0.90584207 0.91500765 0.90297276
0.9035758 0.90203375 0.9030397 0.90311533 0.9037674 0.90255016 0.90457606 0.9027879
0.910057 0.90425843 0.9036146 0.9071108 0.9050315 0.90477943 0.9048197 0.90448934
0.904163 0.9040998 0.90256554 0.9027607 0.9071222 0.90379864 0.9088897 0.9046234
0.90499395 0.90304923 0.90242445 0.90559644 0.907291 0.9063083 0.9032065 0.903854
0.9058104 0.9028405 0.9042273 0.9106277 0.90480864 0.9050085 0.9025295 0.90395993
0.9097399 0.90396845 0.9032278 0.90355587 0.90866023 0.90800095 0.9060868 0.9028627
0.90391237 0.92148495 0.9071372 0.9151724 0.9041817 0.9071648 0.9061571 0.9055467

layer3.0.weight f4 [32, 64, 3, 3]
00000000: 19f2 153c d4b6 363b 678b 63bc ec48 183b
00000010: 68cc 0dbd 22c9 23bd b76f 91bc 16b4 283a
00000020: f0f8 acbb 6630 9e3b ada6 ebbc 5300 253c
00000030: 4d7e 1a3d 582e 113d fc9a 823b 2d9b 0bbc
00000040: 0924 60bc 3e26 eebc af3c b33c 7a36 efbc
00000050: 4f3b eabb 5f26 c53b 77b7 a63c ea63 24bc
00000060: 0afc b2bb 93c3 e7bc dc17 8e39 654f a3bc
00000070: e942 15bc 9eb8 c2bb 9adf cebc c285 923c
00000080: c8e6 253d 332a 883c 0f78 8e3a 0e4c ecbc
00000090: 45ef 92bb c46f 6b3c 01f0 2b3d 341b 1f3b
000000a0: 8a7f 9b3c 6660 22bc 35f8 cabb c661 8b3c
000000b0: 9716 22bb 0010 22b8 9306 e9bc 20da 7d3b
000000c0: 3583 b9bc 86e0 b93c 93f2 70bc 7859 23bd
000000d0: 17cc 07bc 020d 2c3c 901d f3bc 1717 d1bc
000000e0: 6ef9 e8bc 5f89 3d3c cda9 0c3d cc44 033d
000000f0: 7bee 223d 7296 f4bb cbf6 103d 7808 c0bb
00000100: 052e cb3c 23fd 24bd cfbb a13c e4cc a6bc
00000110: 4048 163d dae2 2c3c 5c45 1b3d 518c f83c
00000120: df18 19bc 6882 11bd 6227 40bc 169e 633c
00000130: 8c3e 343c ecec 1d3d 957a 0cbd 4174 02bd
00000140: cae9 09bd 7423 cebc 8e7f 363c 9c5e 163c
00000150: f99e fabc 314f 0abd fd45 6ebc a835 2a3c
00000160: be10 8fbc aeb3 d43b e2ff 24bb 2bc7 1f3d
00000170: 3c6d bcbc 8ea9 1cbd c3d2 e13c 9c01 0dbd
00000180: 8ebc c1bc f732 e73c f563 fcbc 1ae2 03bd
00000190: 4b7f 0e3d 2d4d 843c ec23 28bd 2a01 e5bb
000001a0: 2263 18bd 8031 c8bc 7362 ba3c d700 11bd
000001b0: 1b73 1e3c b2c8 2cbc e41b c6bc 1ebc fdbc
000001c0: ae8a 4bbb edb0 8abc d568 173d 477d 80bc
000001d0: 83fb 05bd 62c8 f53c 5231 b53b 334b 413b
000001e0: aad1 c83c 59d9 fcbc 1922 2abd 731d 113d
000001f0: 81ea c3bc b407 03bd 07a2 98bc 4f1e a33c
00000200: e1a0 223d d4b8 80bc c29d 843c 4a11 143b
00000210: d5e0 aa3c d92d 58bc f1ba c23c a53b cc3c
00000220: b150 b4bc 342f f3bb df00 193d dc0a b93c
00000230: f8cd 153d de63 8f3c b318 d5bb cf7f fa3c
00000240: 945c 6f3c 894f f53c be4a 48ba ff99 00bd
00000250: 11b2 86bc e95c 9dbc 16ea 253d 0891 1b3d
00000260: 212d 463c 98ee 253d 4b99 9b3c b8fe ebbc
00000270: a0f7 d63c 5a7a 05ba 876c c53a be7f 65bb
00000280: 44d5 21bd 3f8f bb3b a098 c6bc 9b96 5ebc
00000290: 1085 073c 3902 e83c 0a1e aabc 5405 c3bc
000002a0: b10d 1c3d d693 74bc 5c5c 773c 9406 cdbc
000002b0: a0cf 8a3c c1ee acbc 2e4d 0fbd bccb db3b
000002c0: 921c 3c3c 8273 39bc 39a4 8a3c 82ad b9bc
000002d0: 09e2 e0bb 6c35 433c 5dfe d23c 17a0 27bb
000002e0: 400f 1d3d b334 20bd 0a55 383c 6837 f03a
000002f0: a05e bb39 c47a 143d 5329 18bc dc9a 73bb
00000300: 63a1 1d3d 54cb 053d 21d9 0f3c e526 e03b
00000310: 50cf b0bc 1413 823c 9735 2dbd c5a5 a3bc
00000320: 659a 06bd 0925 0dbc d2e5 0ebd b01b 2c3b
00000330: a4f4 c9bc 7ce6 1fbb eaee 6f3b d4a0 bebc
00000340: 363f c3bc ad3a 023d 3c57 183d 7ee7 0bba
00000350: ee14 f2bb 9f76 0fbd 4ce2 da3c 3b2a 4abc
00000360: 2473 09bd 1846 adbc b4ca 153d 5532 20bd
00000370: c421 fcbc 8daa 243c f68f 94bb 1e2c 4e3b
00000380: 6e8c 123d ee2f c1bc a0ed 04bb fde6 b03c
00000390: 3c62 a3bc 98c8 59bc fb21 f8bc 114e f7bc
000003a0: 6fd9 ddbc 4091 d63b fc7c 2b3c badd 773c
000003b0: 4c46 dbbc ed8d 0a3d ee3f 8dbc 5ba1 133d
000003c0: 8c85 253d a498 06bd 8063 203c 222a 96bc
000003d0: f026 71bc 96b9 493a 7566 b23c 62b6 e33c
000003e0: 030c 0d3d 9fef a73b f4c4 afbc 5f7f 57bb
000003f0: 4319 2cbc 132f 143d fa33 723c 30b3 25bd
0.009151959 0.002787997 -0.013888217 0.0023236824 -0.034618765 -0.039986737 -0.017753465 0.00064355263
-0.005278699 0.004827547 -0.028766 0.010070878 0.037718106 0.035444587 0.0039857607 -0.0085208835
-0.013680466 -0.02907097 0.021879522 -0.029200781 -0.0071481834 0.006016537 0.020351155 -0.010033587
-0.0054621743 -0.0282915 0.00027102127 -0.01993532 -0.009110191 -0.0059424182 -0.025253106 0.017886046
0.040503293 0.016621685 0.001086952 -0.02884486 -0.0044840896 0.014369909 0.041976932 0.002427769
0.018981714 -0.0099106785 -0.0061941394 0.017014395 -0.0024732703 -3.863871e-05 -0.028445518 0.003873475
-0.022645572 0.022690069 -0.014706272 -0.039880246 -0.008288405 0.010501148 -0.029677182 -0.025523705
-0.02843925 0.011568396 0.034341622 0.03204803 0.039778214 -0.0074642235 0.03539161 -0.0058603846
0.024802217 -0.040280472 0.019742874 -0.020361371 0.036689997 0.0105521325 0.037907943 0.030340346
-0.009344309 -0.035524756 -0.01172814 0.013892671 0.01100124 0.038556024 -0.03429659 -0.03184915
-0.033670224 -0.02516339 0.01113881 0.00917783 -0.030593382 -0.03376693 -0.014543054 0.010388769
-0.017464038 0.006491146 -0.0025176932 0.0390083 -0.023001306 -0.038247637 0.02756632 -0.034425363
-0.02364948 0.028222544 -0.030809382 -0.03219805 0.034789365 0.016150082 -0.041049883 -0.006988664
-0.037203915 -0.024437666 0.022752022 -0.03540119 0.009670998 -0.010545896 -0.024183221 -0.03097349
-0.0031058001 -0.016930068 0.03696521 -0.015684737 -0.032710563 0.030002777 0.005529561 0.0029494285
0.024514038 -0.030865358 -0.041536424 0.035428476 -0.023915531 -0.03198977 -0.018631948 0.019911913
0.039704207 -0.015713133 0.016188506 0.0022593313 0.020859161 -0.013194525 0.023770781 0.024930784
-0.022011133 -0.0074213985 0.037354346 0.022588186 0.03657338 0.017503675 -0.0065031885 0.030578522
0.014609475 0.029945152 -0.0007640532 -0.031396862 -0.01644233 -0.019209342 0.040506445 0.03798011
0.0120957205 0.040510744 0.018993994 -0.028807983 0.026241124 -0.0005091779 0.0015062251 -0.0035018767
-0.039510027 0.0057238634 -0.0242427 -0.013585712 0.008271471 0.028321372 -0.020766277 -0.023806252
0.038098995 -0.014927825 0.015097704 -0.02502755 0.016944706 -0.02110994 -0.034985714 0.0067076366
0.011481421 -0.011319043 0.01692401 -0.022665743 -0.006862883 0.011914592 0.025756055 -0.0025577599
0.03834462 -0.039112758 0.011250744 0.0018327059 0.0003573792 0.03624989 -0.009287196 -0.003717116
0.03848399 0.032664612 0.008779795 0.006840574 -0.02158323 0.015878238 -0.042287435 -0.019976506
-0.032862086 -0.008614787 -0.034887142 0.002626162 -0.024652787 -0.0024398854 0.003661091 -0.023270048
-0.023833852 0.03179424 0.03719257 -0.0005336924 -0.007387749 -0.035025235 0.026719235 -0.01233917
-0.033557072 -0.021151587 0.036570266 -0.0391105 -0.03077782 0.010050428 -0.004533763 0.0031459401
0.035778455 -0.023582425 -0.0020283237 0.021594519 -0.019944303 -0.013292454 -0.03028964 -0.030188592
-0.02708122 0.006548077 0.01046681 0.015128547 -0.026766919 0.033826757 -0.017242398 0.036042552
0.040410563 -0.032860413 0.009789348 -0.018330637 -0.014718756 0.0007695196 0.021777371 0.027796928
0.034435283 0.0051250006 -0.02145622 -0.0032882316 -0.01050407 0.036177706 0.0147829 -0.04045409

layer3.0.bias f4 [32]
00000000: 1d91 f7bb db6d 15bd 7722 d0bc fe82 1bbd
00000010: 2b82 f8bc ed60 0dbd 602e 13bd 4f0e 26bd
00000020: 49c9 13bc 57ec 1bbd a3fe 6f3c 3f37 bfbb
00000030: 61f1 f8bc 2527 f5bc 4951 f0bb 1b99 a4bc
00000040: bf80 073c 6133 e43c a1cc 323c b7f4 82bc
00000050: 3643 2b3a 458e c53b 6923 b7bc 7439 8abc
00000060: 9dfc d13c 7aba b43c 6a24 38bb 6940 c93b
00000070: 149c de3c 0ede 18bd 0fef 2fbc d293 46bc
-0.0075551406 -0.03648172 -0.02540706 -0.03796672 -0.030335506 -0.034516264 -0.0359329 -0.04054099
-0.009020158 -0.038067188 0.0146481125 -0.0058354433 -0.030388536 -0.029925892 -0.0073339087 -0.020092538
0.008270442 0.02785653 0.010913045 -0.01598583 0.00065331475 0.0060289227 -0.022355752 -0.016873099
0.02563315 0.022061575 -0.0028097876 0.0061417115 0.027174033 -0.037321143 -0.010738148 -0.012120204

layer3.1.weight f4 [32]
00000000: bca5 283f c2d1 083d 2f7a 3c3f 5321 1d3f
00000010: 4eec 603f 6699 5c3d 6cc2 183f 70e4 4e3e
00000020: 5fe1 663f 368e 093f 3ee9 a13e c63b fe3e
00000030: fa68 253f 366b cb3d 6c4d 033f c0a4 353e
00000040: 9f38 943e e94d 273f 0011 443f bd71 0e3f
00000050: dc6d 713f 1748 203f d13e 9d3e 23c4 0a3f
00000060: 8fbc 5c3f cec4 403f b6b6 b83e 936c 943e
00000070: 2c44 a63e 5e69 803e 4436 263f b075 ae3d
0.6587789 0.033403166 0.7362394 0.61378974 0.8786057 0.05385723 0.59671664 0.2020433
0.9018764 0.5373262 0.31623262 0.4965498 0.64613307 0.09932558 0.5129001 0.17738628
0.28949448 0.65353256 0.7658844 0.556423 0.9430826 0.6261 0.30711988 0.5420553
0.8622522 0.753003 0.36076897 0.28989086 0.32473886 0.2508039 0.6492655 0.08518541

layer3.1.bias f4 [32]
00000000: afa5 81ba 25ed 823a f6df 823a f607 83ba
00000010: b60b 83ba c1c6 82ba 8406 83ba 529e 813a
00000020: 1ff7 823a 46e6 823a 3f08 83ba e37d 81ba
00000030: e101 83ba 8c02 833a 4bf4 823a d24c 823a
00000040: b5f7 823a 9cff 823a 5ff2 823a 9a06 833a
00000050: aad2 82ba b150 823a 7dfc 82ba cb05 833a
00000060: 40fb 823a 87f2 823a 4afb 823a c4fa 823a
00000070: bbb0 82ba de5e 823a 95f3 823a 8f92 823a
-0.0009891297 0.0009988887 0.0009984958 -0.0009996879 -0.0009997997 -0.0009977446 -0.0009996449 0.0009889102
0.0009991861 0.000998684 -0.0009996964 -0.0009879436 -0.0009995067 0.0009995266 0.0009991018 0.0009941107
0.0009992035 0.000999439 0.0009990445 0.0009996474 -0.0009980996 0.0009942261 -0.000999346 0.0009996233
0.0009993091 0.0009990492 0.0009993103 0.0009992947 -0.0009970883 0.0009946486 0.0009990806 0.0009961891

layer3.1.running_mean f4 [32]
00000000: a016 67bc 6e54 d93b b41f 163b cb54 ecbc
00000010: f0f2 d1bb ab8e a9bc a8e2 7e3c a835 06bd
00000020: ae4a 573d ce9c 24bd 15db 8e3d aadd ec3b
00000030: cde7 1c3c 8861 a93c 364b 17bd a132 1fbd
00000040: b279 ee3b f220 373c 4d55 803c 4215 55bc
00000050: 6ad7 2c3c ff95 2cbc d0d1 50bd 2b03 7d3c
00000060: 867b 2d3d 5e27 84bc d645 623c 66d3 e13c
00000070: 3661 b2bc e66e ee3c 151c 7ebc 76cc 42bd
-0.014104515 0.0066323793 0.002290708 -0.028849026 -0.0064071342 -0.020697912 0.015556969 -0.032766014
0.052561454 -0.040188603 0.0697538 0.007228573 0.00957675 0.02067639 -0.03693696 -0.038866643
0.007277691 0.011177288 0.015665675 -0.013005557 0.010549406 -0.010533809 -0.050981343 0.01544265
0.04235413 -0.016132053 0.0138105955 0.027566623 -0.02177487 0.029105615 -0.015509625 -0.04755827

layer3.1.running_var f4 [32]
00000000: 27fe 673f 0186 673f d050 673f c298 683f
00000010: ef77 673f 4b5f 673f e52d 683f c79d 673f
00000020: 8086 683f a966 673f b300 6d3f 3bcb 673f
00000030: 64bc 673f 19a0 683f 02c3 683f 383b 673f
00000040: e4a4 673f 9d29 683f b864 673f e989 673f
00000050: 97fb 683f 98ae 673f c5f1 683f 7405 693f
00000060: a761 693f 9496 693f 3a49 673f 8ace 673f
00000070: e8ba 683f 6c88 693f d0f1 673f faa5 673f
0.9062218 0.9043885 0.90357685 0.9085809 0.9041738 0.9037978 0.9069503 0.90475124
0.9083023 0.9039102 0.9257919 0.9054448 0.90521836 0.9086929 0.9092256 0.90324736
0.9048598 0.90688497 0.9038806 0.9044481 0.91008896 0.90500784 0.9099391 0.91023946
0.9116463 0.9124539 0.9034611 0.9054953 0.90910196 0.9122379 0.9060335 0.90487635
