5312317.b16e4.model (torch_old, 820387 bytes, 32 tensors)

layer1.0.weight f4 [128, 3, 3, 3]
-0.110806346 0.066944 -0.088422574 -0.13914819 0.16585201 -0.11592078 -0.18375155 0.12827797
0.04850745 -0.021599332 -0.07656518 0.10764902 0.14685696 -0.079441644 0.17376104 0.09576355
-0.08865085 0.055483773 0.15322787 0.003982894 0.034212295 0.18728457 0.1865265 -0.013625504
0.12049996 0.070200294 -0.027062535 -0.12938613 -0.038317237 0.006321478 -0.15579467 0.0045911716
0.10868606 -0.06754882 0.04283867 0.05624913 -0.029291375 -0.020331731 -0.1845619 -0.17375411
0.06498312 0.15408407 0.16228199 0.07495161 -0.05490612 0.1211694 0.08928383 0.09850475
-0.0975493 0.05887471 -0.023230782 -0.0839029 0.07246697 0.049615618 0.17359516 -0.078755565
0.160848 0.18317565 -0.15045026 0.06392252 -0.09633051 -0.039423756 0.03499755 -0.06266742
-0.18229006 0.086430244 0.0038027733 0.17841381 0.17458475 0.11414125 0.093801424 -0.04470709
-0.03891497 0.15413576 0.11127825 0.1168939 0.12067319 -0.13329257 0.14065515 0.09445753
-0.17415132 0.11558494 -0.16152047 -0.012348637 0.11404256 -0.086392105 -0.17778495 -0.16338588
0.14567947 -0.11580064 -0.0336854 -0.118666954 0.15452 -0.107962735 -0.08161587 -0.16510832
-0.028721746 0.10870341 -0.14164892 0.1242429 -0.17988664 -0.0033343812 -0.10414068 0.09139104
0.0060247234 -0.028641807 -0.01390296 -0.1401262 0.08043518 0.023183977 -0.08160642 0.13278523
-0.058061257 -0.15149973 -0.011648857 0.11811875 -0.16519758 0.013298152 -0.08106429 0.18277362
0.14602683 0.1591303 0.12965287 -0.17831504 -0.01788687 0.140788 -0.08659659 0.12725239
0.082440935 -0.07388002 0.1278441 0.12890038 -0.12041926 0.07738462 -0.1504817 -0.17243001
0.0014166441 -0.11964008 0.05680836 -0.0056734155 -0.032977823 0.1897637 0.020922443 -0.0849157
-0.122165754 0.14627771 0.00294939 -0.008142856 0.05734833 0.1151672 0.052502375 0.1046054
0.018549656 0.13154204 -0.02977338 0.18485916 -0.11157708 0.06280698 0.14101073 0.04050684
0.16716696 -0.02417986 -0.16243729 -0.14263654 0.010007662 0.06471938 0.17822798 0.17987005
0.050237752 -0.118423596 -0.118395105 0.1738004 -0.14362432 0.032904223 -0.04720849 0.10868733
-0.10433506 0.082890674 -0.14057261 0.029315703 -0.04946713 -0.019826481 0.1857579 0.120857
-0.08187904 0.068155184 0.04480379 0.015368483 -0.17770602 0.05771241 -0.10091077 0.0910727
-0.08905659 -0.008307004 -0.097165234 0.06485915 -0.1418244 0.041184083 0.17493722 -0.036143173
-0.032992873 0.18020776 -0.08638036 -0.0008503264 -0.10495013 0.04983237 0.00570835 0.090205684
0.18360046 -0.02557658 -0.09905562 0.07170423 0.13039713 0.15647142 -0.042130783 0.121522576
0.11474821 0.104703136 0.045329407 0.03316431 0.04227841 -0.14459804 -0.11579138 0.18425605
-0.18084317 -0.12242948 0.058889944 -0.047824793 -0.08941682 0.15197897 -0.17892343 0.12177656
0.08149275 0.18031769 -0.12750581 0.015901485 0.15903385 0.13754843 0.027211191 0.08730049
-0.10483496 0.0064233304 0.1581321 -0.021713372 -0.12797458 0.036049325 -0.18327987 -0.008269941
0.09895565 0.03614229 -0.120437294 0.026755583 0.07721108 -0.109680355 0.14316489 0.09104369
00000000: 70ee e2bd f019 893d e516 b5bd dd7c 0ebe
00000010: 1cd5 293e e067 edbd 5e29 3cbe 4d5b 033e
00000020: bfaf 463d 15f1 b0bc 35ce 9cbd 1777 dc3d
00000030: ac61 163e 4db2 a2bd 6aee 313e ae1f c43d
00000040: 948e b5bd f442 633d c4e7 1c3e f082 823b
00000050: 3122 0c3d 87c7 3f3e ce00 3f3e 823d 5fbc
00000060: afc8 f63d 2cc5 8f3d 40b2 ddbc cc7d 04be
00000070: 89f2 1cbd 6724 cf3b a388 1fbe 8a71 963b
00000080: cc96 de3d 0957 8abd 9a77 2f3d 7d65 663d
00000090: 77f4 efbc bb8e a6bc cbfd 3cbe 99ec 31be
000000a0: df15 853d 37c8 1d3e 402d 263e 3b80 993d
000000b0: 3de5 60bd aa27 f83d 71da b63d dcbc c93d
000000c0: edc7 c7bd 9c26 713d 7b4e bebc 49d5 abbd
000000d0: 9069 943d bf39 4b3d eec2 313e 994a a1bd
000000e0: 57b5 243e 6692 3b3e a20f 1abe cfe9 823d
000000f0: ee48 c5bd ce7a 21bd 9759 0f3d c757 80bd
00000100: 3faa 3abe 5702 b13d f337 793b 1cb2 363e
00000110: 58c6 323e e3c2 e93d f61a c03d c81e 37bd
00000120: 4e65 1fbd c4d5 1d3e dae5 e33d 1266 ef3d
00000130: 8123 f73d d97d 08be e707 103e f372 c13d
00000140: b954 32be ccb7 ec3d 9f65 25be f051 4abc
00000150: 258f e93d 58ee b0bd 420d 36be a14e 27be
00000160: 002d 153e e328 edbd b4f9 09bd a907 f3bd
00000170: 7e3a 1e3e 911b ddbd 3926 a7bd 2812 29be
00000180: de49 ebbc e59f de3d 6a0c 11be 1073 fe3d
00000190: 3434 38be a285 5abb b547 d5bd 3a2b bb3d
000001a0: 0b6b c53b 39a2 eabc 3ec9 63bc 3e7d 0fbe
000001b0: 33bb a43d 53ec bd3c 4421 a7bd daf8 073e
000001c0: a4d1 6dbd bf22 1bbe d9da 3ebc 3ee8 f13d
000001d0: 8e29 29be 7ee0 593c 0905 a6bd 0229 3b3e
000001e0: 0f88 153e 0ef3 223e b9c3 043e 3898 36be
000001f0: 7c87 92bc bb2a 103e 8e59 b1bd 734e 023e
00000200: cbd6 a83d 684e 97bd 90e9 023e 76fe 033e
00000210: 5f9e f6bd d47b 9e3d e017 1abe 7e91 30be
00000220: b0ae b93a dc05 f5bd e2af 683d 0fe8 b9bb
00000230: c113 07bd 6a51 423e 8b65 ab3c 48e8 adbd
00000240: 0a32 fabd d3c9 153e 8e4a 413b 9d69 05bc
00000250: 15e6 6a3d c8dc eb3d bb0c 573d 5b3b d63d
00000260: 73f5 973c f5b2 063e 4ee7 f3bc b84b 3d3e
00000270: 8682 e4bd f2a0 803d 1e65 103e 80ea 253d
00000280: d12d 2b3e d714 c6bc f655 26be 500f 12be
00000290: 2df7 233c 988b 843d 6581 363e db2f 383e
000002a0: 1ac6 4d3d 1288 f2bd 2279 f2bd bbf8 313e
000002b0: 4112 13be 94c6 063d b15d 41bd 7697 de3d
000002c0: 9fad d5bd 96c2 a93d 44f2 0fbe 7c27 f03c
000002d0: 0c9e 4abd 256b a2bc 5237 3e3e e083 f73d
000002e0: 33b0 a7bd f294 8b3d 2e84 373d 17cc 7b3c
000002f0: 91f8 35be d963 6c3d 4eaa cebd 5384 ba3d
00000300: 4d63 b6bd 1a1a 08bc 91fe c6bd e0d4 843d
00000310: 6a3a 11be a4b0 283d be22 333e dd0a 14bd
00000320: 8923 07bd 6288 383e 30e8 b0bd 70e8 5eba
00000330: 18f0 d6bd 071d 4c3d 1c0d bb3b c2bd b83d
00000340: c201 3c3e fa85 d1bc acdd cabd abd9 923d
00000350: d386 053e 0b3a 203e 5491 2cbd d4e0 f83d
00000360: 1c01 eb3d 996e d63d 54ab 393d 4dd7 073d
00000370: 202c 2d3d 8211 14be 0824 edbd 9ead 3c3e
00000380: f42e 39be 4fbc fabd 9536 713d eee3 43bd
00000390: 2a20 b7bd 60a0 1b3e b437 37be fd65 f93d
000003a0: ace5 a63d 33a5 383e e290 02be d543 823c
000003b0: c5d9 223e 7fd9 0c3e 01ea de3c 99ca b23d
000003c0: b6b3 d6bd cd7a d23b 62ed 213e 3ee0 b1bc
000003d0: c50b 03be 75a8 133d b8ad 3bbe a67e 07bc
000003e0: 43a9 ca3d f009 143d d4a7 f6bd 862e db3c
000003f0: d820 9e3d 18a0 e0bd d199 123e 1d75 ba3d

layer1.0.bias f4 [128]
0.094424516 0.12835942 -0.14907402 0.06256536 0.17791599 0.0910056 0.08512662 -0.13075149
0.12920934 -0.05630489 0.005061222 -0.13938081 -0.118832566 -0.10126297 0.18522152 0.07804324
-0.017265681 -0.13469014 0.07803807 -0.020889442 -0.051310036 -0.1324439 -0.072377466 -0.063097715
0.110585645 -0.06900685 0.050000872 -0.16920166 -0.08362126 0.13474646 0.13164894 -0.10023177
-0.11798404 0.06308864 0.09575199 -0.18444267 0.05251761 -0.14129503 -0.02222851 0.036662553
-0.1709035 0.10609491 0.085466 -0.09741607 0.015264145 -0.04626409 0.11056568 0.11180892
0.12565479 0.015925348 -0.101868644 0.005105541 -0.13155423 -0.09836322 0.080318674 -0.062273294
-0.16189916 -0.18881012 -0.06132901 0.091486216 0.0851997 0.0057121534 -0.09025643 0.044481225
0.07846569 0.15913196 0.1702464 -0.10819516 0.07889128 0.17730738 0.08655002 -0.002414048
-0.09838998 0.17211868 0.047585234 0.056288388 0.17980666 -0.12729463 -0.1674515 -0.07994754
0.08164797 0.15996788 -0.06288492 0.17183058 0.14762338 0.08844518 0.14718336 -0.07563147
0.14591664 -0.021261446 0.17631602 0.011509137 -0.1569677 0.04950524 0.020313598 -0.19048673
-0.086934224 0.08195991 0.0069292095 -0.19078892 0.18291318 0.0782048 0.1449756 -0.12405934
0.18279997 0.040123112 -0.09338637 -0.16724162 0.05088 0.16981098 -0.16701844 -0.16730839
-0.07902224 0.1303672 0.16192186 -0.012370362 -0.010412482 0.16750197 -0.08459601 0.1856687
-0.088867575 0.020984616 -0.19246168 0.16119249 -0.19147046 0.18637522 -0.11294741 0.012191073
00000000: a461 c13d a770 033e dca6 18be 4422 803d
00000010: 9c2f 363e 2561 ba3d de56 ae3d b8e3 05be
00000020: 744f 043e f59f 66bd 9bd8 a53b d8b9 0ebe
00000030: 7d5e f3bd f662 cfbd b6aa 3d3e 22d5 9f3d
00000040: c270 8dbc 36ec 09be 6cd2 9f3d 5620 abbc
00000050: 792a 52bd 609f 07be a33a 94bd 6039 81bd
00000060: ba7a e23d 7753 8dbd b7cd 4c3d 3343 2dbe
00000070: a041 abbd fafa 093e fbce 063e 5046 cdbd
00000080: 9ea1 f1bd 9e34 813d 9f19 c43d 8ade 3cbe
00000090: b51c 573d a5af 10be 9018 b6bc 792b 163d
000000a0: 5401 2fbe 4a48 d93d cc08 af3d 1482 c7bd
000000b0: 7716 7a3c 6a7f 3dbd 4270 e23d 13fc e43d
000000c0: a6ab 003e e075 823c 82a0 d0bd 624c a73b
000000d0: 27b6 06be a872 c9bd 1e7e a43d 4812 7fbd
000000e0: e5c8 25be 7157 41be 2134 7bbd 205d bb3d
000000f0: 2e7d ae3d 042d bb3b 5dd8 b8bd f231 363d
00000100: 9fb2 a03d 7df3 223e 1355 2e3e 6d95 ddbd
00000110: c091 a13d 1190 353e 2341 b13d 0135 1ebb
00000120: b080 c9bd e13f 303e bce8 423d a78e 663d
00000130: 3d1f 383e 8659 02be 6878 2bbe 89bb a3bd
00000140: 0d37 a73d 9fce 233e cfc9 80bd 5bf4 2f3e
00000150: 952a 173e bf22 b53d 3cb7 163e ace4 9abd
00000160: 2c6b 153e 7c2c aebc 308c 343e d290 3c3c
00000170: 24bc 20be 02c6 4a3d b468 a63c f40e 43be
00000180: 920a b2bd 99da a73d 6c0e e33b 2c5e 43be
00000190: 984d 3b3e d729 a03d 7c74 143e d312 febd
000001a0: ea2f 3b3e 2258 243d 5a41 bfbd 6341 2bbe
000001b0: 8c67 503d eee2 2d3e e206 2bbe e452 2bbe
000001c0: 6ad6 a1bd fb7e 053e d8ce 253e 0fad 4abc
000001d0: 1d99 2abc a385 2b3e ac40 adbd f01f 3e3e
000001e0: 3400 b6bd eee7 ab3c ad14 45be a50f 253e
000001f0: d510 44be 25d9 3e3e f950 e7bd 11bd 473c

layer1.1.weight f4 [128]
0.97394484 0.9217607 0.4826354 0.18074459 0.73535234 0.75265795 0.045883004 0.07201086
0.41649413 0.72280425 0.23619191 0.5311663 0.4074583 0.55886984 0.11553806 0.1686594
0.439879 0.38009447 0.72904974 0.64403355 0.5827028 0.39512226 0.7689568 0.54260623
0.9940011 0.43690255 0.7083208 0.8343148 0.27064037 0.8540224 0.27311766 0.3966836
0.7760786 0.40157464 0.6010634 0.44925365 0.9109686 0.3861238 0.9009605 0.12249364
0.021645524 0.9517039 0.2670527 0.72436833 0.07354692 0.881662 0.4994505 0.029937712
0.3727492 0.87587726 0.5766204 0.5410641 0.34847295 0.47283575 0.8020632 0.52263486
0.31731313 0.95305085 0.6871208 0.5856447 0.033614084 0.08588991 0.9076823 0.41813976
0.9028629 0.36400837 0.64899397 0.46482164 0.028247781 0.36948967 0.08165773 0.2646985
0.21884136 0.55401456 0.7950256 0.9079952 0.5804032 0.81307524 0.4093118 0.8403258
0.7010083 0.09318958 0.27171424 0.08999801 0.3230658 0.699937 0.3295284 0.7527083
0.7116857 0.1402662 0.29408878 0.2097028 0.1626453 0.7268544 0.45720577 0.3330387
0.9264201 0.7130767 0.45039394 0.54043865 0.14011253 0.5195607 0.022768201 0.18571177
0.61919814 0.620664 0.9888018 0.5309909 0.18533915 0.75544256 0.7307962 0.0045673037
0.15647204 0.36293766 0.085190564 0.5094471 0.8775971 0.14367777 0.20344159 0.39153367
0.9321831 0.18840608 0.7063968 0.15965356 0.5199327 0.43166497 0.58508056 0.64751756
00000000: 7354 793f 82f8 6b3f fd1b f73e 1c15 393e
00000010: 0d40 3c3f 31ae 403f d1ef 3b3d 6e7a 933d
00000020: b83e d53e b309 393f 4bdc 713e 84fa 073f
00000030: 609e d03e 1812 0f3f 389f ec3d 0db5 2c3e
00000040: d237 e13e be9b c23e 01a3 3a3f 62df 243f
00000050: 032c 153f 774d ca3e 5ada 443f 3ee8 0a3f
00000060: db76 7e3f b1b1 df3e 8354 353f a895 553f
00000070: 6091 8a3e 36a1 5a3f 14d6 8b3e 1d1a cb3e
00000080: 16ad 463f 319b cd3e 4adf 193f 9304 e63e
00000090: 3d35 693f 05b2 c53e 59a5 663f f2dd fa3d
000000a0: f451 b13c dea2 733f 22bb 883e 3470 393f
000000b0: c59f 963d 9ab4 613f fab7 ff3e ef3f f53c
000000c0: fcd8 be3e 7e39 603f 659d 133f 2d83 0a3f
000000d0: 0c6b b23e 8717 f23e 0454 4d3f 66cb 053f
000000e0: de76 a23e 24fb 733f 26e7 2f3f d0ec 153f
000000f0: ecae 093d 0de7 af3d de5d 683f 6a16 d63e
00000100: 0622 673f 4e5f ba3e 7824 263f 1afd ed3e
00000110: e467 e73c c02d bd3e 2b3c a73d 9086 873e
00000120: f317 603e e6d3 0d3f cc86 4b3f 6072 683f
00000130: 4e95 143f b325 503f 5191 d13e 971f 573f
00000140: 4875 333f 2eda be3d 211e 8b3e e050 b83d
00000150: e168 a53e 122f 333f f2b7 a83e 7eb1 403f
00000160: 0931 363f f1a1 0f3e ce92 963e 55bc 563e
00000170: 7d8c 263e 2113 3a3f e016 ea3e 0c84 aa3e
00000180: de29 6d3f 328c 363f 099a e63e 305a 0a3f
00000190: a979 0f3e ee01 053f 6184 ba3c 3a2b 3e3e
000001a0: c583 1e3f d6e3 1e3f 1d22 7d3f 05ef 073f
000001b0: 8cc9 3d3e af64 413f 7615 3b3f 52a9 953b
000001c0: 353a 203e f7d2 b93e 6478 ae3d 206b 023f
000001d0: 34aa 603f 4420 133e fe52 503e 1a77 c83e
000001e0: 8da3 6e3f 86ed 403e 6cd6 343f 397c 233e
000001f0: 4f1a 053f 3103 dd3e d7c7 153f b6c3 253f

layer1.1.bias f4 [128]
-0.0034176423 -0.0018038987 -0.0011319453 -0.0013983694 -0.00096480607 -3.5257413e-05 -0.0034022261 0.001075352
-0.00012689456 -7.804869e-05 0.000404122 0.003629769 -0.0037356413 -0.003830635 -0.0035731615 -0.0011380943
0.0018184346 -0.0028889636 0.00018211667 -0.00018976035 0.0017975795 0.00037875373 -0.0004660323 0.0023515457
0.0034368425 -5.810242e-05 -0.0011973528 -0.0013135262 0.0034618236 0.0026008938 0.0012830428 -0.0016380162
0.00077251915 0.0009858296 -0.0005066295 -0.0012943535 9.469874e-05 0.00013717594 -0.0036616507 0.0017053804
0.00018757969 0.002167236 -0.0025248867 0.0034287889 0.003312917 -0.0017764873 0.0035201749 -0.00011111653
-0.0031225411 0.0027709838 -0.0034504856 0.0019832742 0.0016211884 -0.0027667482 -0.003321003 0.0028358581
0.001199654 -0.00011166035 0.001204154 -0.0029280214 0.0029188548 0.0013733335 0.0008857167 0.0009746818
0.00050728896 -0.0029963623 -0.0028319056 0.0024860604 -0.003293028 -0.0008111757 -0.0010549283 0.0012314745
-0.003374432 0.0012475626 -0.0022844858 -0.001413885 -0.0013869295 0.0031301572 -0.003666999 0.0021830457
0.00020244974 -0.0005082511 0.0017031071 0.00088251324 -0.00088628114 0.0010922021 -0.0035236375 -0.0004413071
0.0007524839 0.00075648323 -0.0036519945 0.0007478687 0.0022580847 0.002896321 -0.0016703894 0.001961895
-0.0038595381 -0.003345008 0.0002975225 -0.0027254832 -0.003909584 -0.0006365545 -0.0029990724 -0.003419604
-0.00033297332 -0.0020118144 -0.0011132964 -0.0032592567 -0.0034377663 0.0021274688 -0.003370156 0.0009869473
-0.0009150717 -0.0021643117 -0.0010864716 0.00042686425 -0.000842161 0.0018973795 0.00093004305 -0.001816818
0.0011113185 0.00029019127 0.00069960824 -0.0026569972 -0.00035318782 0.0036497475 0.0002807828 0.003903195
00000000: 86fa 5fbb cc70 ecba c85d 94ba 7e49 b7ba
00000010: 0aeb 7cba 5ce1 13b8 e2f7 5ebb d3f2 8c3a
00000020: 000f 05b9 12ae a3b8 56e0 d339 6be1 6d3b
00000030: a9d1 74bb 640b 7bbb b42b 6abb 1c2c 95ba
00000040: 8a58 ee3a c454 3dbb 92f6 3e39 68fa 46b9
00000050: c29c eb3a 7793 c639 cc55 f4b9 641c 1a3b
00000060: a63c 613b 00b3 73b8 7ef0 9cba a02a acba
00000070: c3df 623b c273 2a3b c62b a83a b4b2 d6ba
00000080: e282 4a3a f436 813a 55cf 04ba 4ca7 a9ba
00000090: 0099 c638 e3d6 0f39 4ef8 6fbb 1287 df3a
000000a0: 0ab1 4439 3008 0e3b 9278 25bb 88b5 603b
000000b0: 861d 593b 06d9 e8ba bcb2 663b 3c07 e9b8
000000c0: 8ca3 4cbb 6599 353b 8b21 62bb d2f9 013b
000000d0: 0e7e d43a 5552 35bb 2fa5 59bb ced9 393b
000000e0: b53d 9d3a 322b eab8 b4d4 9d3a 0ce4 3fbb
000000f0: 424a 3f3b 6d01 b43a 712f 683a ca81 7f3a
00000100: 96fb 043a 9e5e 44bb 7e97 39bb 2ced 223b
00000110: d8cf 57bb 14a5 54ba 8545 8aba 6d69 a13a
00000120: 9325 5dbb 4185 a33a 50b7 15bb 1c52 b9ba
00000130: a2c9 b5ba 5323 4d3b 0952 70bb 6e11 0f3b
00000140: b048 5439 273c 05ba cb3a df3a 7658 673a
00000150: 5255 68ba 3928 8f3a d4ec 66bb 3c5f e7b9
00000160: 5742 453a bb4e 463a 4d56 6fbb 9e0c 443a
00000170: 60fc 133b 34d0 3d3b f8f0 daba 2393 003b
00000180: 4ef0 7cbb ec37 5bbb cbfc 9b39 059e 32bb
00000190: f81b 80bb 73de 26ba 168c 44bb 6f1b 60bb
000001a0: ec92 aeb9 a5d8 03bb 07ec 91ba 4199 55bb
000001b0: 264c 61bb 016d 0b3b d6dd 5cbb 755c 813a
000001c0: 6ce1 6fba 20d7 0dbb f067 8eba c0cc df39
000001d0: 78c4 5cba 7eb1 f83a 22ce 733a 4c22 eeba
000001e0: a9a9 913a d024 9839 ea65 373a 0421 2ebb
000001f0: 112c b9b9 9a30 6f3b 0836 9339 bfcc 7f3b

layer1.1.running_mean f4 [128]
39.400425 4.6208544 55.483215 -55.82155 26.118834 39.68828 1.5983964 27.413158
33.021233 3.3138757 3.4330885 31.102219 -5.754518 58.01655 -19.12809 -35.1544
31.702806 15.62003 24.219854 13.433179 20.055283 1.8192085 3.8355176 4.0374174
-11.373173 -16.350077 -23.771519 -26.119282 17.396793 42.268414 -19.214231 24.432087
17.505304 -28.550173 22.438072 -6.4368453 59.34255 -1.084263 -32.475647 -19.616463
-27.5325 43.364952 -36.864887 11.324551 -12.421679 13.79648 -26.661867 12.776657
34.090084 1.2833468 5.451437 -10.278943 91.176796 13.682783 -25.238258 35.766224
36.10238 -21.32805 5.9994607 21.009315 45.96147 6.9444866 -13.775207 -9.218406
-26.750782 18.964233 16.833094 16.369179 -8.120881 -30.52999 -11.611176 -10.222763
-5.90669 -42.501575 67.72105 -15.862039 -17.783909 56.71504 -64.753494 -39.359447
-39.886406 -60.881367 -15.792726 -16.968775 -19.545177 -6.766031 -46.72068 5.247031
36.913822 -27.113487 -10.229605 -6.656292 11.478209 -18.269615 94.56066 -50.37247
-63.474854 23.017395 -28.663517 2.0986233 26.990906 -0.76760894 -29.015223 20.132261
-12.50031 41.452015 17.808569 -10.11149 0.5073577 -32.331913 42.15401 63.95823
6.8271713 30.327314 49.060356 31.17177 47.199345 52.19099 -44.989227 64.86266
39.607975 -26.780003 -19.130886 -7.6191015 3.8747168 -10.848243 7.344492 66.48283
00000000: 099a 1d42 0ade 9340 d0ee 5d42 4449 5fc2
00000010: 5ff3 d041 ccc0 1e42 4198 cc3f 264e db41
00000020: be15 0442 8a16 5440 b9b7 5b40 58d1 f841
00000030: 0325 b8c0 f210 6842 5406 99c1 1b9e 0cc2
00000040: 599f fd41 a5eb 7941 43c2 c141 4dee 5641
00000050: 3871 a041 d3db e83f 1f79 7540 8632 8140
00000060: 84f8 35c1 f5cc 82c1 122c bec1 4af4 d0c1
00000070: a22c 8b41 db12 2942 bfb6 99c1 ea74 c341
00000080: dd0a 8c41 c166 e4c1 2c81 b341 a3fa cdc0
00000090: c55e 6d42 21c9 8abf 10e7 01c2 84ee 9cc1
000000a0: 8f42 dcc1 b675 2d42 a575 13c2 5c31 3541
000000b0: 32bf 46c1 62be 5c41 814b d5c1 306d 4c41
000000c0: 3f5c 0842 b544 a43f 2c72 ae40 8d76 24c1
000000d0: 855a b642 aeec 5a41 f4e7 c9c1 9d10 0f42
000000e0: d668 1042 d99f aac1 95fb bf40 1413 a841
000000f0: 8cd8 3742 3c39 de40 3f67 5cc1 977e 13c1
00000100: 9a01 d6c1 c0b6 9741 2daa 8641 14f4 8241
00000110: 21ef 01c1 6b3d f4c1 60c7 39c1 7090 23c1
00000120: 9b03 bdc0 9d01 2ac2 2d71 8742 e9ca 7dc1
00000130: 7245 8ec1 33dc 6242 ca81 81c2 1370 1dc2
00000140: ae8b 1fc2 8586 73c2 01af 7cc1 0dc0 87c1
00000150: 865c 9cc1 5383 d8c0 fae1 3ac2 aee7 a740
00000160: c1a7 1342 6ce8 d8c1 76ac 23c1 5800 d5c0
00000170: bea6 3741 2c28 92c1 0f1f bd42 697d 49c2
00000180: 40e6 7dc2 a023 b841 e24e e5c1 d84f 0640
00000190: 60ed d741 0582 44bf 2d1f e8c1 df0e a141
000001a0: 4501 48c1 ddce 2542 f377 8e41 aac8 21c1
000001b0: 32e2 013f e153 01c2 b59d 2842 3ad5 7f42
000001c0: 3078 da40 579e f241 ce3d 4442 c95f f941
000001d0: 21cc 3c42 93c3 5042 f8f4 33c2 afb9 8142
000001e0: 916e 1e42 723d d6c1 0e0c 99c1 aecf f3c0
000001f0: 5cfb 7740 6792 2dc1 1406 eb40 35f7 8442

layer1.1.running_var f4 [128]
1322.7107 215.52237 2058.7769 2098.8376 631.4289 1299.3579 172.82593 713.7777
836.4126 130.7386 206.7085 819.1399 313.10904 2116.0544 316.78787 912.1207
888.3253 263.10757 588.3616 215.86864 287.01297 258.17972 184.78835 446.0752
332.37732 341.62286 609.7024 592.7396 570.64813 1296.8412 352.31927 374.56128
275.5396 649.6728 779.6739 286.09692 2417.6882 135.6664 692.0855 374.36563
610.81647 1181.4426 927.7026 121.28176 269.15555 356.07596 665.0245 273.03363
1286.2542 98.61634 120.912285 115.23404 5388.7837 198.37177 589.7103 970.33795
968.4996 308.40564 321.40506 434.75934 1678.0271 388.21936 258.66208 278.9319
524.09607 373.64774 367.2252 468.07382 241.04924 962.0888 222.24141 295.36642
237.26723 1198.1145 3371.243 208.83182 353.26865 2069.646 2696.3335 1377.8186
1082.9524 2168.3735 273.0005 182.63553 373.8321 300.1031 1710.0985 137.08609
852.36334 657.9978 165.07512 171.49371 281.33813 247.57967 5459.5957 1648.3054
2553.1985 412.6167 707.4099 145.94579 541.2874 163.01851 585.13257 417.5415
325.24826 1425.0022 378.89856 163.05492 117.52411 711.1345 1175.9015 2819.555
211.30344 911.8391 1571.3464 659.06335 1629.7877 1670.6985 1968.8384 3467.538
1015.8398 550.8785 384.542 296.70575 116.71813 254.55872 212.86656 2884.737
00000000: be56 a544 ba85 5743 6eac 0045 672d 0345
00000010: 73db 1d44 746b a244 70d3 2c43 c671 3244
00000020: 681a 5144 15bd 0243 60b5 4e43 f4c8 4c44
00000030: f58d 9c43 df40 0445 d964 9e43 ba07 6444
00000040: d214 5e44 c58d 8343 2417 1344 5fde 5743
00000050: a981 8f43 0117 8143 d1c9 3843 a009 df43
00000060: 4c30 a643 bacf aa43 f46c 1844 562f 1444
00000070: 7ba9 0e44 eb1a a244 de28 b043 d847 bb43
00000080: 12c5 8943 0f6b 2244 21eb 4244 680c 8f43
00000090: 031b 1745 99aa 0743 7905 2d44 cd2e bb43
000000a0: 41b4 1844 2aae 9344 f7ec 6744 4390 f242
000000b0: e993 8643 b909 b243 9141 2644 4e84 8843
000000c0: 22c8 a044 913b c542 17d3 f142 d477 e642
000000d0: 4566 a845 2c5f 4643 766d 1344 a195 7244
000000e0: f91f 7244 ec33 9a43 d9b3 a043 3261 d943
000000f0: dec0 d144 141c c243 bf54 8143 4877 8b43
00000100: 2606 0344 e9d2 ba43 d39c b743 7309 ea43
00000110: 9b0c 7143 af85 7044 cd3d 5e43 e7ae 9343
00000120: 6944 6d43 aac3 9544 e3b3 5245 f2d4 5043
00000130: 63a2 b043 565a 0145 5685 2845 323a ac44
00000140: 7a5e 8744 fa85 0745 1080 8843 b2a2 3643
00000150: 82ea ba43 320d 9643 27c3 d544 0a16 0943
00000160: 4117 5544 dc7f 2444 3b13 2543 647e 2b43
00000170: 48ab 8c43 6594 7743 c49c aa45 c609 ce44
00000180: 2d93 1f45 f04e ce43 3cda 3044 1ff2 1143
00000190: 6552 0744 bd04 2343 7c48 1244 50c5 d043
000001a0: c79f a243 1220 b244 0473 bd43 0f0e 2343
000001b0: 580c eb42 9cc8 3144 d9fc 9244 e138 3045
000001c0: ae4d 5343 b4f5 6344 166b c444 0ec4 2444
000001d0: 35b9 cb44 5ad6 d044 d41a f644 9cb8 5845
000001e0: bff5 7d44 39b8 0944 6045 c043 565a 9443
000001f0: af6f e942 088f 7e43 d7dd 5443 cb4b 3445

layer2.0.weight f4 [64, 128, 3, 3]
0.0046478556 0.024519362 -0.018038146 0.024642576 0.008716536 0.014300461 0.014402463 -0.023211075
-0.028795278 0.012864369 0.002219372 -0.0076435446 0.0011257718 -0.008613497 0.0064703333 -0.0038756104
-0.021585008 0.00018436636 -0.018226465 0.02319532 -0.0045205634 -0.010030649 -0.02506523 -0.0021451467
-0.0013665621 0.028700914 -0.010695698 0.025824659 -0.025001915 -0.019602107 -0.022862341 -0.008328065
0.018503945 0.016158434 -0.018972797 -0.027222343 0.016356178 0.02862506 -0.005934378 -0.023871107
-0.027524497 -0.0050851423 0.030418701 -0.026070092 0.014065793 -0.0010245263 0.01815674 -0.008394264
-0.017218608 0.014215003 -0.015417957 -0.026728932 -0.025139084 -0.014919521 0.018379042 0.016221818
0.004094138 0.011970979 -0.01604191 -0.014233079 0.0066149663 -0.023409646 0.010314398 0.0050202017
0.010611 0.025539532 -0.029195525 -0.0031669308 -0.021618238 0.030439336 -0.013241771 -0.004052207
0.0283414 0.026593428 0.009643555 0.0024899908 -0.011719264 -0.017676892 0.027649404 -0.023199556
0.0045580706 0.018474985 0.009597234 -0.003366478 0.016474124 0.015439682 0.022559253 0.015975278
-0.0058022323 -0.01171932 0.022082806 0.031519018 0.0043339236 -0.017209083 -0.0076474743 0.027423102
-0.0033544758 0.0125533175 0.016836992 -0.011426738 0.005489898 -0.005346326 -0.022462036 0.031602215
-0.018761449 0.018228931 -0.026840242 0.010292326 -0.007460607 -0.009841509 0.030014174 -0.0233444
0.023761056 -0.002946985 -0.025195252 -0.022219654 0.027868126 0.021869648 0.012552127 -0.030170823
0.00806009 -0.014459332 -0.0284377 0.017450022 0.008228999 -0.005761984 -0.019387193 -0.0016304136
-0.004225961 0.0034717722 0.027413286 0.013875064 0.024194071 0.011498213 0.019793859 -0.015141232
-0.024093127 0.013988249 0.023507776 -0.024728237 -0.0030422914 0.004416066 -0.008448815 -0.018545715
-0.02306983 0.014096924 -0.008333443 -0.029933725 -0.018080233 0.015712671 -0.012385269 -0.009859997
0.0025360838 -0.025581913 0.0054900255 -0.0017910276 0.004874197 0.01808543 0.028407387 0.005334913
0.0031546883 -0.0037250381 0.01681942 -0.021802926 0.014570749 0.00699727 0.0091842795 0.00018658984
-0.02274549 -0.014592777 -0.024296986 0.012197575 0.023263361 -0.0047804858 0.02443171 0.026112728
0.02353063 -0.018100126 -0.008555295 -0.016163193 -0.023134952 -0.005753846 -0.019378813 0.01692106
-0.0071537206 -0.015027539 -0.0055161603 -0.024837108 -0.011629853 -0.014381724 -0.015304495 -0.014502187
0.0235751 0.0054071196 -0.0071164607 -0.018187018 0.004780969 -0.0074101975 0.019220464 -0.016010629
0.02205773 -0.01205067 -0.025205515 -0.023606835 -0.01430204 0.0078117684 0.0069919266 0.012606565
0.01903683 0.020109305 -0.0063302284 0.012595031 0.017892718 0.014990044 -0.015979849 -0.0107487235
0.011384913 -0.013913014 -0.0019136823 -0.0038625228 -0.0011100975 -0.0029491098 -0.027137619 0.027332045
-0.0005949445 0.02024064 -0.018726235 0.02288927 0.009199413 0.022264972 0.011094274 -0.026107566
0.0019090468 0.003072982 -0.0017546524 -0.004506399 0.029850274 0.0053816 0.010654309 -0.026152946
-0.0189414 0.018543579 0.0028162044 -0.01089486 0.0191064 0.027775418 -0.022040674 -0.019293146
-0.005776449 -0.028323904 0.015812134 -0.022244232 0.00034770818 -0.01934781 -0.009305271 0.030444385
00000000: 0a4d 983b d4dc c83c bcc4 93bc 3adf c93c
00000010: cdcf 0e3c 7b4c 6a3c 4ff8 6b3c 2725 bebc
00000020: 13e4 ebbc 13c5 523c e272 113b b376 fabb
00000030: a28e 933a a01f 0dbc 1705 d43b f4fd 7dbb
00000040: 0bd3 b0bc 7852 4139 ab4f 95bc 1d04 be3c
00000050: 3c21 94bb 9757 24bc 9955 cdbc 9795 0cbb
00000060: 371e b3ba 2e1e eb3c 023d 2fbc 3c8e d33c
00000070: d1d0 ccbc 9994 a0bc ce49 bbbc 7072 08bc
00000080: 9695 973c b15e 843c d76c 9bbc 6401 dfbc
00000090: 64fd 853c 1a7f ea3c 2c75 c2bb 578d c3bc
000000a0: 0e7b e1bc 44a1 a6bb a430 f93c f290 d5bc
000000b0: 3674 663c 6649 86ba 72bd 943c 1888 09bc
000000c0: 0a0e 8dbc 0be6 683c 999b 7cbc a2f6 dabc
000000d0: 7bf0 cdbc 0271 74bc a58f 963c 9ee3 843c
000000e0: 1e28 863b ed21 443c 536a 83bc dc31 69bc
000000f0: 5cc2 d83b 96c5 bfbc b9fd 283c 8180 a43b
00000100: c2d9 2d3c 4838 d13c 742b efbc 488c 4fbb
00000110: bb18 b1bc ea5b f93c 03f4 58bc 60c8 84bb
00000120: 392c e83c 76da d93c 0000 1e3c 1d2f 233b
00000130: 2802 40bc 21cf 90bc 0181 e23c ff0c bebc
00000140: de5b 953b da58 973c b83d 1d3c 21a0 5cbb
00000150: bef4 863c b8f6 7c3c 2fce b83c 96de 823c
00000160: a720 bebb 6402 40bc 00e7 b43c 161a 013d
00000170: 9603 8e3b 10fa 8cbc aa97 fabb 6aa6 e03c
00000180: c4d6 5bbb 6eac 4d3c bbed 893c 3737 3bbc
00000190: 9ae4 b33b 3c30 afbb 4e02 b8bc 5371 013d
000001a0: 9cb1 99bc d754 953c 11e0 dbbc 25a1 283c
000001b0: 1c78 f4bb 483e 21bc 49e0 f53c c13c bfbc
000001c0: 8ca6 c23c 3422 41bb 4666 cebc fe05 b6bc
000001d0: b24b e43c fa27 b33c 70a7 4d3c cd28 f7bc
000001e0: 780e 043c d6e6 6cbc 2ef6 e8bc 59f3 8e3c
000001f0: ecd2 063c 06cf bcbb e4d1 9ebc 9ab3 d5ba
00000200: ee79 8abb ac86 633b d491 e03c 3d54 633c
00000210: a532 c63c 0063 3c3c bb26 a23c ee12 78bc
00000220: f35e c5bc f82e 653c 6193 c03c df92 cabc
00000230: 2e61 47bb a6b4 903b e66c 0abc 2fed 97bc
00000240: f1fc bcbc c9f6 663c fe88 08bc 9237 f5bc
00000250: ff1c 94bc dcb7 803c 95eb 4abc d38b 21bc
00000260: 6d34 263b 2991 d1bc ace5 b33b eac0 eaba
00000270: bab7 9f3b e527 943c 9cb6 e83c 7ed0 ae3b
00000280: e3be 4e3b c51f 74bb e1c8 893c 0d9c b2bc
00000290: 27ba 6e3c 5b49 e53b a979 163c 54a7 4339
000002a0: c054 babc 8b16 6fbc 790a c7bc 56d8 473c
000002b0: ce92 be3c 9fa5 9cbb 0225 c83c 5cea d53c
000002c0: 4fc3 c03c b746 94bc 822b 0cbc ac68 84bc
000002d0: 8385 bdbc c28a bcbb 51c0 9ebc 099e 8a3c
000002e0: c269 eabb 1136 76bc e8c0 b4bb 3177 cbbc
000002f0: 248b 3ebc 53a1 6bbc b4bf 7abc 959a 6dbc
00000300: 9120 c13c 352e b13b 3331 e9bb f1fc 94bc
00000310: ada9 9c3b 3ed1 f2bb 3c74 9d3c b928 83bc
00000320: 6ab2 b43c 2c70 45bc cc7b cebc 1f63 c1bc
00000330: 1b53 6abc ddf9 ff3b 881c e53b c48b 4e3c
00000340: 20f3 9b3c 45bc a43c ce6d cfbb 645b 4e3c
00000350: c093 923c cd98 753c 2ce8 82bc 6a1b 30bc
00000360: c987 3a3c 69f3 63bc 86d4 faba 6122 7dbb
00000370: b180 91ba da45 41bb b64f debc 74e7 df3c
00000380: 0df6 1bba b3cf a53c c367 99bc 4782 bb3c
00000390: 22b9 163c 0865 b63c c2c4 353c 89df d5bc
000003a0: fb38 fa3a 1564 493b 5dfc e5ba 6aaa 93bb
000003b0: 9088 f43c 2258 b03b 698f 2e3c b43e d6bc
000003c0: ff2a 9bbc b4e8 973c 1290 383b 5b80 32bc
000003d0: 0685 9c3c 4689 e33c a58e b4bc a90c 9ebc
000003e0: 5e48 bdbb 8807 e8bc 7388 813c 8939 b6bc
000003f0: 9a4c b639 4c7f 9ebc 2375 18bc 8166 f93c

layer2.0.bias f4 [64]
-0.0068426607 -0.019094113 -0.011291731 -0.017676927 -0.020210698 0.018702049 0.0125883855 0.008767067
-0.009158378 -3.4316756e-05 0.018229105 0.016175736 -0.024754813 -0.0011805888 -0.028792212 0.00017898962
-0.018989502 0.02610899 0.023039522 -0.018044984 0.027263852 -0.018844308 0.025632134 -0.014902952
-0.0022483738 -0.018664174 0.024423087 0.005719579 0.016422955 -0.017661657 0.028320277 0.017876238
0.0049300073 0.025843013 -0.010311913 -0.0034216146 0.021167433 0.02377317 0.014758204 0.028523609
0.010371754 0.026561292 0.019034777 -0.003641968 -0.024063554 -0.0006092781 0.0275174 0.009359478
0.007004476 -0.016658017 -0.017464895 -0.024767593 -0.0021255095 -0.0066962424 -0.019920899 -0.021105384
0.005611192 0.00948387 -0.022017682 0.018724602 0.014844299 0.026392194 0.026345342 -0.0007129379
00000000: 6638 e0bb 426b 9cbc f400 39bc 34cf 90bc
00000010: e890 a5bc 0a35 993c 843f 4e3c bfa3 0f3c
00000020: 050d 16bc 56ef 0fb8 3455 953c fa82 843c
00000030: 9bca cabc fdbd 9aba a5dd ebbc 29af 3b39
00000040: df8f 9bbc 85e2 d53c 61bd bc3c 13d3 93bc
00000050: 7158 df3c 615f 9abc 7bfa d13c 832b 74bc
00000060: 7459 13bb 9ce5 98bc ed12 c83c 4e6b bb3b
00000070: 6f89 863c 2eaf 90bc edff e73c 3071 923c
00000080: e68b a13b bab4 d33c 4cf3 28bc 2b3d 60bb
00000090: 5367 ad3c f3bf c23c 65cc 713c 58aa e93c
000000a0: 4aee 293c 1197 d93c d2ee 9b3c 15ae 6ebb
000000b0: ee20 c5bc f6b7 1fba 2c6c e13c 7f58 193c
000000c0: ce85 e53b 6576 88bc 8a12 8fbc 68e5 cabc
000000d0: 224c 0bbb 276c dbbb 2731 a3bc 33e5 acbc
000000e0: 17de b73b 3c62 1b3c 6d5e b4bc 5664 993c
000000f0: 8135 733c 7134 d83c 30d2 d73c 74e4 3aba

layer2.1.weight f4 [64]
0.6363086 0.2716168 0.20653717 0.94802016 0.39215448 0.5476062 0.5661528 0.6882804
0.013550986 0.34510985 0.3348574 0.3057253 0.11876617 0.80868155 0.73218054 0.7983785
0.85944486 0.42592323 0.34827965 0.8478146 0.019881906 0.3674915 0.40356427 0.9984184
0.22600195 0.5624595 0.18539318 0.017026128 0.6420771 0.92915845 0.26272294 0.16878903
0.09631075 0.6801996 0.4546701 0.79615396 0.2643897 0.044419106 0.049164895 0.9325023
0.17920838 0.4099003 0.77128816 0.45979476 0.9675667 0.97889185 0.5521949 0.72446233
0.35200736 0.30290237 0.6748012 0.9007822 0.28943676 0.7384334 0.05114672 0.87412024
0.009916372 0.6632718 0.508897 0.67253053 0.9450256 0.45725992 0.5875169 0.14315446
00000000: 1fe5 223f 5b11 8b3e 7b7e 533e 73b1 723f
00000010: 79c8 c83e ec2f 0c3f 64ef 103f 2533 303f
00000020: f404 5e3c 3db2 b03e 6e72 ab3e 0788 9c3e
00000030: ae3b f33d c105 4f3f 2f70 3b3f 8962 4c3f
00000040: 9404 5c3f 9c12 da3e b651 b23e 610a 593f
00000050: 61df a23c d927 bc3e fa9f ce3e 5998 7f3f
00000060: 0e6d 673e 59fd 0f3f b6d7 3d3e 617a 8b3c
00000070: 2a5f 243f 54dd 6d3f 9f83 863e 08d7 2c3e
00000080: 923e c53d 9021 2e3f 85ca e83e bfd0 4b3f
00000090: 165e 873e cff0 353d 2161 493d 79b8 6e3f
000000a0: 6782 373e 74de d13e 2473 453f 386a eb3e
000000b0: 74b2 773f a898 7a3f a55c 0d3f 5d76 393f
000000c0: 4f3a b43e 0516 9b3e c5bf 2c3f aa99 663f
000000d0: 0e31 943e f909 3d3f 397f 513d 58c6 5f3f
000000e0: 4778 223c 2ecc 293f 1347 023f f62a 2c3f
000000f0: 33ed 713f f91d ea3e 8267 163f 1597 123e

layer2.1.bias f4 [64]
-0.00052214786 -0.00333735 0.0036115258 0.0014119719 0.00094251626 -0.0029465621 -0.001022035 -0.0009104122
1.35689625e-05 -0.0032119502 0.003688941 0.003944086 0.003071157 0.0029237082 -0.0037445587 0.0011600208
8.114943e-05 0.0038360297 0.0037283355 -0.0031747664 0.0026608123 -0.0016840295 -0.0031577824 -0.0036859424
0.0004730826 -0.0037989723 0.001587177 0.00029498735 -0.0011424366 0.00041971932 -0.002833511 -0.003580131
0.0039545144 0.0025890623 -4.828567e-05 -0.0006079804 0.0038003977 0.0023237942 -0.00023054448 0.0033850977
0.0033967071 -0.0033309378 -0.0034087854 -0.0031704518 -0.0009830839 0.0033371735 -0.0029119675 0.0018235445
-0.0012480883 -0.0014560309 -0.0010802627 -0.0009206516 -0.0010392198 0.0009463437 -0.0037815238 -0.00011322781
0.0012648804 -0.0025364412 0.0018041928 -0.001410529 0.0018870237 0.00034324074 -0.0036598956 -0.00010586917
00000000: c0e0 08ba 71b7 5abb 59af 6c3b ea11 b93a
00000010: 3213 773a 1c1b 41bb cef5 85ba baa8 6eba
00000020: 40a6 6337 957f 52bb 29c2 713b 643d 813b
00000030: 7745 493b af9b 3f3b 4567 75bb d70b 983a
00000040: c52e aa38 e665 7b3b 1757 743b be0f 50bb
00000050: 0661 2e3b a7ba dcba ccf2 4ebb da8f 71bb
00000060: 1208 f839 2ef8 78bb d308 d03a 88a8 9a39
00000070: d0bd 95ba c60d dc39 6db2 39bb a2a0 6abb
00000080: df94 813b 42ad 293b 5886 4ab8 e060 1fba
00000090: 1810 793b cc4a 183b 50be 71b9 84d8 5d3b
000000a0: 4a9b 5e3b dd4b 5abb ee65 5fbb 5bc7 4fbb
000000b0: d2da 80ba 7bb4 5a3b b5d6 3ebb 0004 ef3a
000000c0: e596 a3ba 4ad8 beba 9a97 8dba e257 71ba
000000d0: 6e36 88ba 0d14 783a 71d3 77bb b874 edb8
000000e0: 58ca a53a 6c3a 26bb aa7a ec3a 80e1 b8ba
000000f0: 0256 f73a fef4 b339 dcda 6fbb 1406 deb8

layer2.1.running_mean f4 [64]
-0.027698042 0.05543726 0.07112896 -0.2503504 -0.14406244 0.09140254 -0.056050844 0.029902149
-0.10917401 0.15539655 -0.08421934 -0.01568723 -0.17034592 0.023541695 -0.054270513 0.062677495
-0.073550984 0.11779529 -0.0012155124 -0.055306718 0.06353176 0.054795284 -0.09423366 -0.1403529
0.18522319 -0.11083932 0.106090814 0.019112887 0.09264167 0.008856955 -0.0014239514 -0.017006634
0.042339478 -0.055479124 0.020773573 0.06803133 0.098604396 -0.1566119 -0.018378349 0.09371958
0.05074156 0.055323437 0.078800105 -0.11519517 0.031734407 0.08998436 0.049060386 0.05826283
-0.079315364 0.043903396 0.054713383 -0.11489154 0.04726254 -0.022869015 0.0472948 0.13528778
0.06713055 0.02077182 0.013491515 0.0362003 0.04722812 -0.028688906 -0.06515141 -0.076628394
00000000: 01e7 e2bc 2e12 633d 0fac 913d ed2d 80be
00000010: 1b85 13be 4131 bb3d 9295 65bd 5af5 f43c
00000020: a096 dfbd 4620 1f3e 307b acbd 8182 80bc
00000030: 296f 2ebe 83da c03c c24a 5ebd 0f5d 803d
00000040: e6a1 96bd a83e f13d d451 9fba 4c89 62bd
00000050: f01c 823d 0571 603d 94fd c0bd acb8 0fbe
00000060: 26ab 3d3e baff e2bd 2446 d93d a192 9c3c
00000070: eaba bd3d c31c 113c e1a3 baba 7f51 8bbc
00000080: 296c 2d3d 143e 63bd 572d aa3c 0354 8b3d
00000090: 1af1 c93d df5e 20be 318e 96bc 0df0 bf3d
000000a0: 62d6 4f3d d49a 623d f361 a13d 72eb ebbd
000000b0: f0fb 013d b849 b83d 8bf3 483d 01a5 6e3d
000000c0: 1870 a2bd 0cd4 333d 241b 603d 414c ebbd
000000d0: 5d96 413d cd57 bbbc 31b8 413d e188 0a3e
000000e0: be7b 893d aa29 aa3c 840b 5d3c c446 143d
000000f0: 4672 413d ff04 ebbc 1a6e 85bd 59ef 9cbd

layer2.1.running_var f4 [64]
0.6663357 0.7128794 0.6952114 0.708383 0.68346435 0.67492485 0.67507446 0.7872204
0.6770543 0.6905217 0.68516487 0.66937774 0.72664493 0.76619387 0.6876585 0.7607658
0.7452585 0.6994773 0.70243067 0.68941957 0.6764159 0.6926939 0.6883647 0.7289724
0.6913921 0.67660445 0.6983681 0.6763569 0.675828 0.68340516 0.6802922 0.67982787
0.66816366 0.69839007 0.6795502 0.71499103 0.67497855 0.70572215 0.67981905 0.67890304
0.67579865 0.6706937 0.67651635 0.67818695 0.6703447 0.6808755 0.66776353 0.66727185
0.69149727 0.6738867 0.7136316 0.6843186 0.70190626 0.68312395 0.68527323 0.7940963
0.6681886 0.68076986 0.68751484 0.6725048 0.674383 0.68135846 0.6987131 0.6977815
00000000: fa94 2a3f 447f 363f 60f9 313f 9758 353f
00000010: 85f7 2e3f e0c7 2c3f aed1 2c3f 4787 493f
00000020: 6e53 2d3f 08c6 303f f766 2f3f 575c 2b3f
00000030: 6705 3a3f 4825 443f 630a 303f 8cc1 423f
00000040: 43c9 3e3f f210 333f 7fd2 333f cd7d 303f
00000050: 9829 2d3f 6354 313f ab38 303f ef9d 3a3f
00000060: 13ff 303f f335 2d3f 40c8 323f ba25 2d3f
00000070: 1003 2d3f a4f3 2e3f a127 2e3f 3309 2e3f
00000080: c60c 2b3f b1c9 323f 00f7 2d3f a709 373f
00000090: 65cb 2c3f 35aa 343f 9f08 2e3f 97cc 2d3f
000000a0: 2401 2d3f 95b2 2b3f 2d30 2d3f a99d 2d3f
000000b0: b69b 2b3f db4d 2e3f 8df2 2a3f 54d2 2a3f
000000c0: f705 313f d783 2c3f 8fb0 363f 812f 2f3f
000000d0: 21b0 333f 36e1 2e3f 116e 2f3f e549 4b3f
000000e0: 680e 2b3f ef46 2e3f f900 303f 4629 2c3f
000000f0: 5da4 2c3f 826d 2e3f ddde 323f cfa1 323f

layer3.0.weight f4 [32, 64, 3, 3]
0.04217388 -0.023074487 0.026799113 0.008486645 0.03869079 0.03920131 0.020315131 -0.0039293463
-0.026703343 0.02028877 -0.0017885484 0.015459304 0.02930984 0.025192443 0.0074148783 -0.0029050878
-0.0047795326 -0.014441823 -0.0128477765 0.039203733 -0.03599354 0.01230388 -0.030167293 0.017376106
-0.03196342 -0.008978057 -0.037807073 0.013124737 -0.029462008 0.038000215 -0.038109653 -0.027463773
-0.019934915 -0.04248726 -0.03046854 -0.025916353 -0.016771415 0.030325867 -0.015557659 -0.025897045
-0.025489809 0.029978894 -0.0013617752 -0.028687362 -0.036286984 -0.017968513 -0.005309007 0.02242562
0.041734092 0.010235051 -0.04349612 -0.014675197 -0.0017487147 0.018728316 0.009482635 0.009350169
-0.0008989109 -0.003808055 0.009198515 0.013181014 0.006164945 -0.011644559 0.01855271 0.019086722
0.026733678 0.01126955 0.023683567 0.02558283 0.03557651 0.008661759 -0.036767427 0.013505203
0.017941263 0.04041753 -0.03402833 -0.022818709 -0.0060154344 0.008019903 -0.017673282 0.0018277768
-0.02638767 -0.0007647656 -0.004948414 -0.02441791 0.033806182 0.003955439 0.022960791 -0.027924811
0.012010478 0.002939323 0.0010842173 -0.022358777 0.01851643 -0.021974348 0.023508897 -0.040228087
-0.0096357735 0.025526207 -0.041840333 0.0020938807 -0.013605143 0.02255932 0.03816304 0.02228412
0.021570994 -0.03515014 0.041722525 -0.020647198 0.03683419 -0.013290131 -0.008706776 -0.02534838
0.028765809 -0.0049033617 -0.042167418 0.026112847 -0.0045017684 0.004310513 0.0022566603 -0.0030131242
-0.03211468 0.030405583 -0.022152476 -0.0020020246 -0.034056228 0.024473973 -0.01950945 -0.026682984
0.005190966 -0.03363767 -0.017570056 0.02501673 -0.036162857 -0.013601321 -0.020974945 -0.008877427
-0.032275673 0.001979273 -0.0022207382 0.024394114 -0.01025789 -0.029598122 -0.016262114 0.03505732
-0.021803044 -0.03564096 -0.027264174 0.034041326 0.0023880946 -0.039836362 -0.007086267 -0.029589983
-0.021623177 -0.029405916 0.037030447 -0.020904643 0.009367832 -0.026210856 -0.013735731 0.005534724
0.019417316 -0.008233118 -0.005816254 0.03871932 0.031331502 0.0144847855 0.004721892 0.022560112
-0.016730262 -0.02810957 0.026498953 0.0014411468 0.0010542953 -0.032953266 -0.006094326 0.026934149
-0.0025920505 -0.02527605 0.029994648 -0.012126393 -0.0018680273 -0.04046435 0.040691487 0.021168346
-0.0388782 -0.018302739 -0.008106648 -0.033159096 -0.03571001 0.019411065 -0.0133473985 -0.03299321
0.004198817 0.013454239 0.036640726 0.0036230555 -0.04186394 0.011595093 -0.019624561 0.015175051
0.00901554 -0.029761018 0.014780114 -0.0041387994 -0.04338493 -0.033895854 0.014095943 -0.031322468
-0.028418476 -0.03180348 0.017177664 0.0064510414 -0.039545983 -0.029347917 0.00034812646 -0.014571655
0.006225208 -0.036347546 0.024890453 0.031930156 -0.028029487 -0.017569778 -0.025686383 0.020563528
0.038723305 -0.0105794 0.0073168473 -0.018530736 -0.039569795 -0.025418654 0.009053121 0.029390804
0.024604905 0.03721281 0.01677715 -0.02926311 0.008025841 0.0014908805 0.020064931 -0.017797846
-0.03306903 -0.017706508 0.026667321 -0.017235968 0.011912407 0.032089762 -0.04111757 -0.021269962
0.039110173 -0.017303882 0.0056737857 -0.027371611 -0.020555675 -0.026205603 0.022437839 0.016055647
00000000: 85be 2c3d b506 bdbc d089 db3c 920b 0b3c
00000010: 3c7a 1e3d 8e91 203d eb6b a63c bfc1 80bb
00000020: f8c0 dabc a234 a63c ba6d eaba 0549 7d3c
00000030: 311b f03c 6260 ce3c 82f8 f23b 4963 3ebb
00000040: a09d 9cbb 659d 6cbc 7b7f 52bc 1894 203d
00000050: f66d 13bd 3796 493c 6621 f7bc 5658 8e3c
00000060: 13ec 02bd b318 13bc 97db 1abd 2309 573c
00000070: 4f5a f1bc 1da6 1b3d de18 1cbd b5fb e0bc
00000080: 8c4e a3bc 1f07 2ebd 2999 f9bc 884e d4bc
00000090: 3564 89bc f46d f83c 8de5 7ebc 0a26 d4bc
000000a0: 01d0 d0bc 4c96 f53c 987d b2ba c201 ebbc
000000b0: a9a1 14bd b432 93bc 2ef7 adbb efb5 b73c
000000c0: 5ef1 2a3d eab0 273c fd28 32bd 3d70 70bc
000000d0: 2135 e5ba 206c 993c 0e5d 1b3c 7431 193c
000000e0: e4a4 6bba 9090 79bb 5eb5 163c 2ef5 573c
000000f0: 4f03 ca3b d2c8 3ebc dafb 973c c25b 9c3c
00000100: 9600 db3c eba3 383c 0a04 c23c 1593 d13c
00000110: adb8 113d 0dea 0d3c 7199 16bd ed44 5d3c
00000120: 8ef9 923c da8c 253d 4a61 0bbd 4dee babc
00000130: 1f1d c5bb e965 033c 8fc7 90bc 0392 ef3a
00000140: f42a d8bc 8d7a 48ba 4e26 a2bb 1208 c8bc
00000150: 5a78 0a3d a19c 813b 4518 bc3c 93c2 e4bc
00000160: 99c7 443c a8a1 403b 4c1c 8e3a c129 b7bc
00000170: c5af 973c 8c03 b4bc bb95 c03c 35c6 24bd
00000180: 5ddf 1dbc 561c d13c c560 2bbd 7d39 093b
00000190: 1be8 5ebc 53ce b83c d950 1c3d 308d b63c
000001a0: a7b5 b03c 98f9 0fbd 3de5 2a3d 5024 a9bc
000001b0: 73df 163d dabe 59bc dea6 0ebc 68a7 cfbc
000001c0: 46a6 eb3c 61ac a0bb beb7 2cbd 9cea d53c
000001d0: 9283 93bb 343f 8d3b 7ae4 133b d677 45bb
000001e0: af8a 03bd 2115 f93c 1c79 b5bc 6634 03bb
000001f0: 8b7e 0bbd a47d c83c 48d2 9fbc 4696 dabc
00000200: fb18 aa3b a7c7 09bd 14ef 8fbc e3ef cc3c
00000210: 811f 14bd 13d8 5ebc a6d3 abbc a172 11bc
00000220: 7f33 04bd b1b6 013b ce89 11bb 2ad6 c73c
00000230: b610 28bc c377 f2bc 2038 85bc 4498 0f3d
00000240: 4c9c b2bc 41fc 11bd 1e59 dfbc eb6e 0b3d
00000250: 9481 1c3b 742b 23bd eb33 e8bb b166 f2bc
00000260: 1723 b1bc ade4 f0bc 3dad 173d 3740 abbc
00000270: 897b 193c 26b8 d6bc d50b 61bc a15c b53b
00000280: 1011 9f3c 33e4 06bc 4696 bebb 2698 1e3d
00000290: 7655 003d 9851 6d3c 1aba 9a3b fccf b83c
000002a0: e70d 89bc 0a46 e6bc 5514 d93c dde4 bc3a
000002b0: 4830 8a3a 01fa 06bd e9b2 c7bb 01a5 dc3c
000002c0: 64df 29bb b80f cfbc 56b7 f53c c7ad 46bc
000002d0: 98d8 f4ba f2bd 25bd 1eac 263d 3d69 ad3c
000002e0: bf3e 1fbd a0ef 95bc bfd1 04bc d5d1 07bd
000002f0: a944 12bd f403 9f3c 0caf 5abc e323 07bd
00000300: 3b96 893b 2b6f 5c3c 9614 163d c970 6d3b
00000310: 8679 2bbd 58f9 3d3c b0c3 a0bc c7a0 783c
00000320: eab5 133c 61cd f3bc 4b28 723c c49e 87bb
00000330: 65b4 31bd 61d6 0abd acf2 663c fd4b 00bd
00000340: ddcd e8bc 5e44 02bd 2cb8 8c3c 4263 d33b
00000350: f8fa 21bd 0b6b f0bc be84 b639 f3bd 6ebc
00000360: d4fc cb3b 2ae1 14bd 10e7 cb3c 32c9 023d
00000370: 189e e5bc 7fee 8fbc 406c d2bc d874 a83c
00000380: 549c 1e3d 3855 2dbc 2ac2 ef3b c5cd 97bc
00000390: f013 22bd c83a d0bc 8b53 143c fcc4 f03c
000003a0: 3a90 c93c 766c 183d 3c70 893c 31b9 efbc
000003b0: d17e 033c a669 c33a 365f a43c cacc 91bc
000003c0: 6473 07bd 3d0d 91bc 6d75 da3c 7232 8dbc
000003d0: 422c 433c 8e70 033d e66a 28bd 583e aebc
000003e0: fd31 203d dfc0 8dbc 2aeb b93b 6e3a e0bc
000003f0: 6064 a8bc 22ad d6bc 8fcf b73c 2287 833c

layer3.0.bias f4 [32]
0.0140263885 -0.008006563 0.033885296 -0.009363256 0.019996129 0.008373644 0.040438194 0.024392229
-0.01679843 -0.019082751 0.030889262 -0.0042329496 0.0319878 0.028257715 -0.022413174 -0.039993
-0.010083407 -0.023489181 0.034449153 -0.03362634 0.04133135 -0.036257572 0.018002667 -0.031161183
0.034671094 -0.04162481 -0.017908571 -0.037033938 0.0015374065 0.0067547746 0.03209276 -0.0018034007
00000000: f0ce 653c f62d 03bc 4fcb 0a3d 5868 19bc
00000010: ecce a33c 9c31 093c 85a2 253d 36d2 c73c
00000020: dc9c 89bc 6e53 9cbc 7a0b fd3c 8eb4 8abb
00000030: a405 033d b97c e73c d59b b7bc b3cf 23bd
00000040: e034 25bc 626c c0bc 8e1a 0d3d c6bb 09bd
00000050: 104b 293d d282 14bd 547a 933c bd45 ffbc
00000060: 4703 0e3d c77e 2abd ffb4 92bc e6b0 17bd
00000070: cd82 c93a 2857 dd3b b373 033d 1660 ecba

layer3.1.weight f4 [32]
0.48855063 0.17759022 0.045776483 0.47064477 0.93866646 0.04430791 0.6459649 0.5914242
0.21308406 0.13432683 0.9828632 0.7555311 0.477005 0.6510713 0.30672073 0.3083711
0.3383515 0.5956034 0.611628 0.9166155 0.029583758 0.74324524 0.28576326 0.6215658
0.9750906 0.6198526 0.1158348 0.6261781 0.81837374 0.5557231 0.9542189 0.21953532
00000000: 4f23 fa3e 36da 353e 1f80 3b3d 5af8 f03e
00000010: 724c 703f 367c 353d f55d 253f 9467 173f
00000020: b532 5a3e f98c 093e ec9c 7b3f 7c6a 413f
00000030: 003a f43e 9cac 263f 800a 9d3e d1e2 9d3e
00000040: 683c ad3e 7779 183f a793 1c3f 50a7 6a3f
00000050: a359 f23c 5245 3e3f 904f 923e f01e 1f3f
00000060: 8a9f 793f a9ae 1e3f cc3a ed3d 354d 203f
00000070: f180 513f de43 0e3f b147 743f decd 603e

layer3.1.bias f4 [32]
-0.0033368233 -0.00010194903 0.0036388962 0.0005453274 -0.0011302219 -0.0017747363 -0.0034415843 -0.0036760396
-0.003339545 -0.0012287258 -0.0035269842 0.003610767 -0.003682423 -0.0032071937 -0.0032275943 0.003552442
0.0036990426 0.00094542553 0.00075643527 0.0035668574 0.00021493409 0.0013947727 -0.001298785 0.0019288932
-3.567568e-05 -0.0010436005 0.002106159 -0.0036850814 0.0010046185 -0.0030644718 0.0035105995 -0.0035034884
00000000: 9bae 5abb 78cd d5b8 8c7a 6e3b 4df4 0e3a
00000010: f423 94ba 459e e8ba 348c 61bb b6e9 70bb
00000020: 45dc 5abb 320d a1ba fa24 67bb 9ea2 6c3b
00000030: ce54 71bb c82f 52bb 0c86 53bb 16d0 683b
00000040: a36b 723b 6fd6 773a 834b 463a f0c1 693b
00000050: ee5f 6139 ced0 b63a fe3b aaba ead2 fc3a
00000060: 78a2 15b8 6cc9 88ba 7c07 0a3b 6881 71bb
00000070: 67ad 833a 4ed5 48bb 1612 663b c89a 65bb

layer3.1.running_mean f4 [32]
-0.14873393 -0.057961073 0.017431587 -0.07438685 0.012577371 -0.097533755 -0.07273958 -0.057607356
0.059082896 0.12030617 -0.10546941 0.18160133 -0.02587368 -0.01841669 0.12330343 0.13072369
0.015517738 0.055110373 0.1921844 0.037576444 -0.0031518098 0.11601179 0.014753461 0.02324536
-0.022265544 -0.1398097 0.020385072 -0.019332258 0.012314802 0.0063893553 -0.022241412 0.016756041
00000000: b54d 18be 9768 6dbd b0cc 8e3c 2258 98bd
00000010: 5111 4e3c c7bf c7bd 7df8 94bd b1f5 6bbd
00000020: e800 723d 1563 f63d 5900 d8bd b3f5 393e
00000030: 0af5 d3bc 99de 96bc 8286 fc3d 6edc 053e
00000040: 1c3e 7e3c 6abb 613d fdcb 443e c2e9 193d
00000050: 988e 4ebb 9797 ed3d 80b8 713c 0e6d be3c
00000060: 3b66 b6bc 462a 0fbe 98fe a63c af5e 9ebc
00000070: 06c4 493c cc5d d13b 9f33 b6bc f743 893c

layer3.1.running_var f4 [32]
0.6837908 0.67186755 0.69571906 0.67673 0.67707694 0.6850934 0.6905698 0.6961315
0.69089645 0.6806756 0.6813137 0.7138475 0.66930336 0.77478456 0.6812973 0.6834559
0.70244783 0.68294644 0.6905841 0.71582806 0.700462 0.68973505 0.6734363 0.69566023
0.68560034 0.71627814 0.68912184 0.6754127 0.7463808 0.67176336 0.69424623 0.69105375
00000000: ea0c 2f3f 83ff 2b3f a51a 323f 2d3e 2d3f
00000010: ea54 2d3f 4862 2f3f 2fc9 303f ad35 323f
00000020: 97de 303f c240 2e3f 936a 2e3f b6be 363f
00000030: 7757 2b3f 4858 463f 8069 2e3f f7f6 2e3f
00000040: 9fd3 333f 94d5 2e3f 1fca 303f 8240 373f
00000050: 7a51 333f 7a92 303f 5266 2c3f ca16 323f
00000060: 8183 2f3f 015e 373f 4a6a 303f d9e7 2c3f
00000070: d012 3f3f aff8 2b3f 1fba 313f e6e8 303f
