5312322.b2e4.model (torch_old, 820387 bytes, 32 tensors)

layer1.0.weight f4 [128, 3, 3, 3]
000000 68 14 64 3c 78 a5 2e be f4 b1 33 3e a2 dd 8e 3d
       0.013920881 -0.17055309 0.17548352 0.06975867
000010 58 f2 43 be 90 93 d6 3d 62 b5 c2 3d b1 fc 43 3d
       -0.19135416 0.10477364 0.09507252 0.047848407
000020 54 84 2b 3d 6f 4c 78 3d 45 53 b4 3d e5 02 5b bd
       0.041874245 0.060619768 0.08804945 -0.053469557
000030 c0 76 32 bb a7 0b fd bd 6c a9 dd bd 03 06 07 be
       -0.0027231425 -0.12355738 -0.1082333 -0.13185887
000040 34 0e d5 3d 67 30 da bd ee 7e 58 bd 55 e2 1a be
       0.104031 -0.10653763 -0.052855425 -0.15125401
000050 4d 48 24 3e 0d 10 89 bb b8 03 24 bd e9 7f 96 3d
       0.16043206 -0.0041828216 -0.04004261 0.07348616
000060 a8 a0 c8 3d a5 3d 09 bb 6b 65 da 3d 5c f9 46 bd
       0.09796268 -0.0020941284 0.10663875 -0.04857765
000070 1c 99 39 be 43 de a8 3d 1e f1 24 be 8f c7 eb bc
       -0.18124813 0.08245518 -0.16107604 -0.02878168
000080 10 b6 06 be ee 3a 6f 3c 22 6c 0f bc 73 d6 28 bd
       -0.13155389 0.014601452 -0.008753808 -0.04122014
000090 05 79 b9 3c da 8f d7 3d 6a be bb 3d 6d 50 41 3e
       0.022640714 0.105254844 0.09167178 0.18878336
0000a0 c5 f0 2c 3e 16 71 58 bd 84 76 d4 bd 9b e5 35 bd
       0.16888721 -0.052842222 -0.103741676 -0.044408422
0000b0 67 18 6f 3d 33 fd 29 3d a1 50 39 be 27 13 32 be
       0.05837288 0.041501235 -0.18097164 -0.17390119
0000c0 ae 60 7f bc 87 9d 3f be ef f5 b4 bd b3 44 26 3e
       -0.015587015 -0.18712436 -0.088359706 0.16237144
0000d0 8e 0c 3a 3e 55 17 cd bd 11 b5 11 3e 66 48 b7 bb
       0.18168852 -0.10014216 0.14229228 -0.0055933474
0000e0 95 f4 40 3e f1 0a 15 3e 2d 44 32 bd 3e e5 24 be
       0.188433 0.14554955 -0.04352205 -0.16103074
0000f0 07 11 d0 bc 8b e6 4e bd 45 91 96 bd a6 09 09 be
       -0.025398744 -0.05051283 -0.07351927 -0.13382587
000100 60 df 38 bd 5f ed ba 3d 81 b4 23 be a7 03 a7 bd
       -0.045134902 0.09127306 -0.15986826 -0.081549935
000110 aa f4 7b bd 5a 29 29 be 4c fc 79 3d 3b 65 07 be
       -0.061512627 -0.1651968 0.061031625 -0.1322221
000120 bb 90 46 3e 7c 89 92 3d 79 29 19 3e 2e 2d e0 3d
       0.19391148 0.07155129 0.14957227 0.10946117
000130 1d 65 96 3d dc ef 19 ba 02 6e ef bd 7f da 38 bd
       0.073435046 -0.00058722286 -0.11690904 -0.04513025
000140 17 7e 69 bd 17 ae 38 be 71 d4 7b bd af 0f 32 be
       -0.057005014 -0.1803516 -0.061481897 -0.17388795
000150 bc 46 8b 3d 11 0a 23 3e 9a a1 27 3e dd 3f a1 3d
       0.06800601 0.15921809 0.1637024 0.07873509
000160 2d 4f 0b 3e c2 58 f3 bc 00 25 2a bc 7e e0 c9 3d
       0.13604422 -0.029705409 -0.010384798 0.098572716
000170 da c7 8f 3d 37 b0 0d be d0 8b ab bd 6f dd 22 3e
       0.070205405 -0.13836752 -0.083762765 0.15904783
000180 b0 af 6c 3d 59 6f a2 bc d3 13 c4 bc c0 eb 7b 3d
       0.057784736 -0.019828485 -0.023935234 0.061504126
000190 07 93 44 3d 1e 11 d8 3d 96 45 3e 3e 26 39 e3 bb
       0.04799178 0.1055014 0.18581232 -0.006934303
0001a0 5a 9e 40 3d bc c5 23 be 98 fc 14 be 1d 2f d1 bd
       0.047026016 -0.15993398 -0.14549482 -0.10214064
0001b0 ef 72 e1 3d 0b d8 04 3e 93 43 28 be 38 ea 41 bd
       0.1100825 0.12973039 -0.16432028 -0.04734251
0001c0 1d a5 36 3d ae 26 64 bc 09 84 ca 3d 93 00 4f 3c
       0.044591058 -0.013925238 0.09888465 0.012634414
0001d0 3e 06 20 3d 1e 2b 1b be 33 25 ec 3d 86 08 9d bd
       0.039068453 -0.15153167 0.11530533 -0.07667641
0001e0 93 6d be 3d 19 4e 03 be 04 f2 01 be d2 7c f9 3c
       0.092982434 -0.1282276 -0.12689978 0.030455027
0001f0 d2 06 1a 3e f8 a1 b4 bd e3 9b 4b 3b 9f 86 2c bc
       0.15041664 -0.088199556 0.0031068258 -0.010530143
000200 9d 29 09 be eb 42 e9 3c ea 4b e3 bc fc 3b 81 3d
       -0.1339478 0.028474292 -0.02774616 0.06310269
000210 dd fa 64 3d 0f d5 1b be d2 b0 33 be 87 f1 33 3e
       0.055903304 -0.15217994 -0.1754792 0.17572604
000220 51 30 d9 3d f1 31 c5 3d 96 9e 4e bd b3 14 04 be
       0.10604919 0.09628666 -0.050444208 -0.12898521
000230 c0 c7 3d 3e 5c e5 97 3d 23 7f 28 be 82 47 c3 bd
       0.1853323 0.07416794 -0.16454749 -0.095351234
000240 ec e9 97 3d 44 63 31 3d fe 62 4f 3d ed 26 f6 bd
       0.07417664 0.043307558 0.050631516 -0.12019143
000250 57 82 06 be 98 06 25 be a0 ab 5e bc 40 bb 0b be
       -0.13135658 -0.16115797 -0.013590723 -0.13645649
000260 4c ea e9 3d bc 73 74 3d 8d d9 8f 3c f4 7c a7 3d
       0.11421642 0.059680685 0.017559791 0.0817813
000270 0d bd 2e 3e 6a e6 2a 3e 36 fa 2e be 65 20 04 3e
       0.17064305 0.16689458 -0.17087635 0.12902983
000280 34 7a 09 3d d4 e4 93 3c fb 80 3d 3e d5 e7 f9 bd
       0.033563808 0.01805345 0.18506233 -0.122024216
000290 f1 78 28 3e 28 f2 11 bb 07 d7 04 be be d5 d8 3d
       0.16452385 -0.002226958 -0.12972651 0.10587643
0002a0 8b ff 44 bd 07 bf 13 bd ee 12 97 3d 46 69 ee 3d
       -0.048095267 -0.03607085 0.073766574 0.11641173
0002b0 da c6 58 3c b6 6f 49 be 60 07 33 be ac 77 16 be
       0.013231004 -0.1967152 -0.17483282 -0.14694089
0002c0 3c 32 64 bc 6d a3 40 be 9a 48 37 3d 26 ce c7 3d
       -0.013927992 -0.18812342 0.044746973 0.097561166
0002d0 f1 cf a8 bd 18 6c d4 3d 50 11 bf bd 9d a2 85 3d
       -0.08242787 0.1037218 -0.09329474 0.06525157
0002e0 b8 2e 04 be 5b b1 38 bd 6c 50 44 3e 53 f8 7e 3d
       -0.12908447 -0.045091014 0.19171304 0.06224854
0002f0 b6 4d 24 be e2 46 d3 bd 46 55 b1 3d 85 3c 6f 3d
       -0.1604527 -0.10316254 0.08658843 0.058407325
000300 aa 16 31 bd e8 6d e0 bc 37 d3 c5 bd 1e 72 c4 bd
       -0.043234505 -0.027396157 -0.09659427 -0.095920786
000310 2c 25 9b 3c a8 04 bb 3c 77 3c 8c bb 15 b4 8e 3d
       0.018938623 0.022829369 -0.004279669 0.06967942
000320 e1 48 b5 3d c8 fc a0 3d 8e 8d 43 3e 85 f1 46 be
       0.08851791 0.07860714 0.19096968 -0.1942807
000330 3a ae a0 3b 1c 41 6b 3c b5 0b ce bd 98 2a a3 3d
       0.004903582 0.014358785 -0.10060827 0.079671085
000340 10 7d e2 3c 70 8a 08 3e 19 a7 3d be de 79 04 be
       0.027647525 0.1333406 -0.18520774 -0.12937114
000350 9c 6c 9a 3d c8 f2 0e 3e d8 4f 2e be 12 b2 1f 3e
       0.07540247 0.13959801 -0.17022645 0.15595272
000360 7f b8 73 3d 44 7b cc bd f5 b4 2c be 03 d7 b5 3d
       0.05950212 -0.099844486 -0.16865905 0.08878901
000370 59 43 03 be 5c c4 db 3d e3 1a 6c bd a3 81 b5 3d
       -0.1281866 0.10730812 -0.05764283 0.08862617
000380 bc 43 2f 3d 68 41 03 3e 5e c8 f4 bd 7c 52 be bc
       0.042789206 0.12817919 -0.119522795 -0.023232691
000390 5b ee 0b 3e 2d da 01 3e 81 49 38 be 46 43 85 3c
       0.13665144 0.12680884 -0.1799679 0.01626743
0003a0 7d a3 28 be b9 a8 d9 bb 58 40 94 bc eb 07 29 be
       -0.16468616 -0.0066424278 -0.018097088 -0.16506927
0003b0 ea 60 8c 3d 77 42 11 3d d5 16 10 be ec 74 10 3c
       0.068544224 0.035463776 -0.1407121 0.008816939
0003c0 bc 6a 27 3d 3b 73 bb 3d 8f 41 e7 bc e6 3f 07 be
       0.040873274 0.09152838 -0.028229503 -0.13207969
0003d0 f9 5c 0d be 09 d7 e4 bd a2 47 41 be 0f 86 53 bd
       -0.13804998 -0.11173827 -0.18874982 -0.05164152
0003e0 15 fd 3d be ed 27 0c be fa 72 a9 3d 78 f3 3b be
       -0.18553574 -0.13687105 0.08273883 -0.18354595
0003f0 dc d8 22 3e 2f bb d0 3d 63 e8 c8 3d 96 56 c6 bd
       0.15903038 0.101919524 0.09809949 -0.09684484

layer1.0.bias f4 [128]
000000 f1 d8 d7 3c 2b f3 50 bd 5f 4d ff 3b 47 11 a1 3c
       0.026348563 -0.051013153 0.007791206 0.019661559
000010 5a 7b 1d be 14 54 13 be 74 b7 9a bd 9a be fe bd
       -0.15379086 -0.14387542 -0.07554522 -0.12438698
000020 ec 40 b7 bd 79 ea 37 3e 7a a0 75 3d 7b 14 e9 bd
       -0.0894793 0.17960538 0.059967496 -0.113808595
000030 73 06 10 be 52 cf 3c be b1 fe db 3c 16 14 7e bb
       -0.1406496 -0.18438461 0.026854845 -0.0038769296
000040 20 48 41 3e c9 f8 0d 3e 11 36 ad bc 7f df 06 be
       0.1887517 0.13864435 -0.021143945 -0.13171194
000050 3d d2 ab 3c d9 1a 05 3e 0f 52 32 3e 16 cb 27 be
       0.020974273 0.12998523 0.17414115 -0.16386065
000060 23 e1 19 be 76 e4 5c 3d 14 a1 1e 3e 5a 24 eb 3d
       -0.15027289 0.053928815 0.15491134 0.11481543
000070 a1 b9 0b be 50 9b 43 3e 28 c8 43 be ba 16 35 be
       -0.1364503 0.19102216 -0.19119322 -0.17684451
000080 55 5f ae 3d 61 9c 93 bc a3 6c a9 3d e8 db 63 bd
       0.08514277 -0.018018903 0.08272674 -0.05562964
000090 5e 84 e7 bb aa 49 53 bd 13 52 94 bb f9 57 28 be
       -0.00706534 -0.051583923 -0.0045263856 -0.16439809
0000a0 91 44 28 3e ab 69 b3 3c f4 5e 33 be 8a 25 b0 3c
       0.16432406 0.021900972 -0.1751669 0.021502275
0000b0 01 67 54 bd 45 51 df 3d a8 9a 29 3d 60 b1 f5 3c
       -0.051856045 0.10904173 0.041407257 0.029991806
0000c0 e8 a5 ad 3d bc 0e 62 bd 8e 8f 36 3e 4d 6b 2d 3e
       0.0847891 -0.055189833 0.178282 0.16935463
0000d0 26 c9 ef bc 60 5c ba bd 76 4e 04 be 22 2d 61 bc
       -0.02927072 -0.090996504 -0.12920555 -0.013743671
0000e0 76 ed 60 3d 4c 17 0b 3e 30 41 44 3d 8d b6 b0 3c
       0.05491396 0.13583106 0.04791373 0.021571422
0000f0 aa 2e c3 3d 2a ea 62 bd 9d e1 36 bd 08 7b 9a bd
       0.09530385 -0.055399098 -0.044648755 -0.075429976
000100 40 52 c8 bd e2 1e b3 3d 48 27 2e 3e 7f 44 1d 3e
       -0.09781313 0.08746125 0.17007172 0.1535816
000110 5c 72 d1 bd 0e 79 4e bd 6c 31 36 3e 76 69 39 3e
       -0.102268904 -0.050408415 0.1779229 0.18106636
000120 7a 24 01 be 67 a5 2a be 82 1c 75 3d 76 ba 16 be
       -0.12611571 -0.16664658 0.05984164 -0.14719567
000130 11 7b 4f 3d 66 59 03 be 60 37 0f 3d 8b 19 aa 3d
       0.050654475 -0.12827072 0.03496492 0.08305653
000140 65 2b 32 3e d3 b4 00 3e be 4a 36 be c9 54 93 bb
       0.17399366 0.12568979 -0.1780195 -0.004496191
000150 b0 f8 20 be 53 41 1b be ed 22 d3 3d 12 0f 8a 3d
       -0.15719867 -0.15161638 0.10309396 0.06741156
000160 b4 91 eb bd 3e f2 fa 3d 6e a5 4f bd 32 48 0b 3e
       -0.115024 0.12253235 -0.050694875 0.13601759
000170 f8 1d cd 3d 21 02 d5 bd 91 34 1a 3e b2 b6 33 3e
       0.10015482 -0.10400797 0.15059115 0.17550161
000180 1c 22 09 be e2 36 2f 3e 70 37 32 3e ce 17 0c be
       -0.13391918 0.1711078 0.1740396 -0.13680956
000190 b0 94 f2 3d 83 46 12 3e fb de e6 bd 1b ec 87 3b
       0.11844766 0.1428471 -0.11272999 0.004148019
0001a0 49 0e fa bd d2 78 c5 3d d7 b2 07 3e b8 e3 b5 3d
       -0.12209756 0.09642185 0.13251816 0.088813245
0001b0 38 2f ad bd d9 9c 6e bd 8a 61 2d 3d c6 82 1d 3e
       -0.08456272 -0.05825505 0.04232935 0.15381917
0001c0 22 e5 20 be 40 31 ef bd 87 6e ea 3d 5f 3f ca 3d
       -0.15712407 -0.116793156 0.11446863 0.09875368
0001d0 3d 2d 86 bd 01 25 30 be 2f ce eb bd 22 85 da bc
       -0.06551597 -0.17201616 -0.11513936 -0.02667481
0001e0 ee 73 aa bc c7 34 e8 bc 0d 68 a6 bc 7b a4 40 3e
       -0.020807233 -0.028345479 -0.020313287 0.18812744
0001f0 1a bb 1a 3e 66 e2 4a 3d 6f 73 e3 3d 3b e0 f0 bd
       0.15110436 0.049532317 0.111060016 -0.117615186

layer1.1.weight f4 [128]
000000 ce f8 18 3f d2 8a 62 3f ad 1e 21 3e 82 18 4e 3f
       0.59754646 0.88493073 0.15734358 0.80506146
000010 08 87 c2 3e 4c 91 55 3e 5d 83 fa 3e a3 05 2d 3f
       0.37993646 0.20856208 0.48928347 0.67586726
000020 ff 5e 27 3f a3 1e 72 3e 6f db 05 3f 82 38 2c 3f
       0.6537933 0.236445 0.52287954 0.67273724
000030 32 b8 68 3e 5c ff 03 3e 1b b5 d9 3e 99 cd ff 3e
       0.22726515 0.1289038 0.42520985 0.49961546
000040 5a 29 a1 3d d8 7a 9c 3d b7 65 6a 3f 27 d4 81 3e
       0.07869215 0.07640618 0.91561455 0.25357172
000050 70 e3 76 3f c0 14 7f 3f 4e 46 10 3e 2c ea 16 3f
       0.9644079 0.99641037 0.14089319 0.5895107
000060 44 cc 3a 3f 9a 99 21 3f c6 4e 5e 3f 48 35 b2 3e
       0.72967935 0.63125 0.8683895 0.34806275
000070 c9 7a f6 3d 61 26 3e 3f 30 38 ed 3e 80 a8 3f 3f
       0.12035138 0.7427731 0.4633193 0.74866486
000080 74 e5 6b 3f 63 60 84 3e 51 f8 18 3e cd 40 57 3f
       0.9214699 0.25854787 0.14938475 0.84083253
000090 03 55 dc 3e dc 81 46 3f fb 40 90 3e 4d 92 09 3e
       0.4303361 0.775419 0.28174576 0.13434716
0000a0 27 f8 33 3f 42 cf 71 3f f3 f1 74 3d cd 43 f1 3d
       0.70300525 0.94456875 0.059801053 0.1178051
0000b0 f7 77 cc 3e b5 91 5b 3f a1 30 03 3f 27 9e 00 3f
       0.39935276 0.85769206 0.51246077 0.5024132
0000c0 7c 40 31 3f dd d2 b3 3d 8b 38 28 3f b6 85 bf 3e
       0.6923902 0.08780453 0.6571128 0.374067
0000d0 66 16 fb 3d 9a 80 3d 3e e0 a5 18 3f 41 16 37 3f
       0.122601315 0.18506089 0.59628105 0.7151833
0000e0 eb 36 b8 3e 06 3a 77 3f f2 a5 ef 3e 4b 8b a5 3e
       0.359794 0.9657291 0.46806294 0.32332835
0000f0 f7 2b 8c 3e 73 4d 38 3f 88 9e 15 3f 85 8f 0f 3f
       0.27377293 0.7199318 0.58445024 0.5607837
000100 e8 3b 36 3f 71 54 ab 3e e1 f2 64 3d f8 20 74 3d
       0.7118516 0.3346286 0.05589569 0.059601754
000110 c0 62 74 3f a7 14 04 3f 16 19 cf 3e 73 10 99 3e
       0.9546318 0.5159401 0.40448827 0.29895362
000120 39 9b e4 3c 87 9e f7 3d 7e 22 42 3f 62 c7 24 3f
       0.027906047 0.120907836 0.7583388 0.64366734
000130 2c 1b 76 3f f4 7f 24 3f c9 be 75 3f 6e e7 34 3f
       0.9613521 0.6425774 0.9599424 0.70665634
000140 27 e0 23 3f 3e b8 38 3f 7a c5 01 3f 7f 94 0c 3f
       0.64013904 0.7215613 0.5069195 0.5491409
000150 78 a1 25 3f 71 2b 42 3f ee 80 23 3f b8 34 27 3e
       0.64699507 0.75847536 0.63868606 0.16328704
000160 14 e2 6b 3f a9 1b a9 3c 8c ce df 3e 79 95 33 3e
       0.9214184 0.020643072 0.4371227 0.17537488
000170 3b ef c9 3d e0 8c 1e 3f c5 b5 d5 3e 7a 44 47 3f
       0.09860083 0.6193371 0.41740242 0.7783886
000180 53 77 26 3f 51 e3 60 3f 51 bf 33 3f 73 92 2c 3e
       0.65025824 0.8784686 0.702138 0.16852741
000190 ac 29 54 3f b4 70 6e 3d bb a1 0a 3f 9f da 33 3f
       0.82876086 0.05821295 0.5415303 0.70255464
0001a0 94 b5 a3 3e 61 4a 5c 3e f7 4f 5d 3f d7 29 cc 3b
       0.3197447 0.21512748 0.8645014 0.0062305736
0001b0 e3 0c ba 3e 8c d9 29 3f 8a 52 08 3f ad 8a 6e 3e
       0.36337957 0.66347575 0.53250945 0.23295088
0001c0 a5 de a3 3d f4 cd da 3d 43 5a b8 3e b5 db 2e 3e
       0.080014504 0.10683814 0.36006364 0.17075999
0001d0 be 35 8a 3e b6 3c c0 3e 54 6e fa 3e cb f5 74 3f
       0.26994127 0.3754632 0.489123 0.9568755
0001e0 81 6b 1a 3f 70 2f 68 3e f7 3d 2f 3f 78 92 0c 3f
       0.6032029 0.22674346 0.68453926 0.54910994
0001f0 c9 d9 6d 3e d9 9d 52 3f ed 03 19 3f 5d 9a 11 3f
       0.2322761 0.82272106 0.59771615 0.56876165

layer1.1.bias f4 [128]
000000 23 16 dd ba 4a a3 7f bb 39 c6 ae b9 4a ff d0 3b
       -0.0016867559 -0.003900724 -0.00033335554 0.006378089
000010 c8 e8 57 bb bf 92 d0 3b 9d b0 05 bc 49 7b fd 3b
       -0.0032945145 0.0063651497 -0.008159784 0.007735644
000020 97 44 ec ba 11 5e b3 ba 68 15 cc bb 9c 99 07 3c
       -0.0018025812 -0.001368465 -0.0062281378 0.008276369
000030 e8 43 f5 3b bc 96 77 3a cd a9 8b ba 97 be c9 bb
       0.0074849017 0.00094447634 -0.0010655463 -0.0061567533
000040 04 b6 66 3b aa 22 87 3b 8d 5d 36 bb 06 1f 92 3b
       0.0035203705 0.0041240053 -0.0027826757 0.0044592647
000050 7d 72 9a ba c6 93 c3 3b ac 1a 84 ba 40 31 40 bb
       -0.0011783388 0.0059685437 -0.001007875 -0.002932623
000060 ee 27 d5 bb f0 5d 0e 3c f3 2b ed 3b ae d9 34 bb
       -0.006505004 0.008689389 0.007237905 -0.0027595568
000070 d4 bb 07 3b 1b cc d5 3a af 79 83 bb 80 c8 6a 3a
       0.002071132 0.0016311439 -0.0040123085 0.00089562684
000080 3c d8 c0 bb e9 f9 98 3b ea d2 07 39 3f 52 aa bb
       -0.005885152 0.0046684635 0.00012953175 -0.005197793
000090 86 01 14 39 92 5c eb 37 36 dc ee 3b 41 3e d5 ba
       0.00014114947 2.805729e-05 0.007289435 -0.0016269163
0000a0 65 5a aa 39 a3 db 9f ba 91 0e f8 3b 1f f0 fc 3b
       0.00032492276 -0.0012196194 0.007570096 0.0077190544
0000b0 f2 f0 78 ba 28 e8 8f ba ec 9e 44 3b aa c4 ea ba
       -0.0009496353 -0.0010979222 0.0030001951 -0.0017911394
0000c0 c6 d8 8c 3b f2 e8 30 bb d8 06 de 3b ad ef 0e 3c
       0.0042983023 -0.0026994315 0.006775718 0.008724135
0000d0 3a f3 5c bb 6e 91 8d 3b 45 5a 14 3c ab 46 f5 3b
       -0.003371431 0.004320315 0.009054725 0.007485231
0000e0 ed be 83 bb 61 76 49 3b a0 3d 90 3b fa dd 3c bb
       -0.004020563 0.0030740725 0.0044018775 -0.0028818832
0000f0 f1 68 e3 3a b4 96 90 3b 19 de 90 3a 36 ab 19 bb
       0.001735 0.0044124965 0.0011052518 -0.0023447997
000100 81 41 a7 bb 56 32 3b bb 4c 86 ca bb ce 2e 0b ba
       -0.005104244 -0.0028563938 -0.00618056 -0.00053094036
000110 da 55 e6 3a d5 c8 c1 3b 06 24 08 bb 7a c9 a7 bb
       0.0017573193 0.0059138336 -0.0020773425 -0.0051204534
000120 b2 1a 05 bc 67 e7 bf 3b 7b 28 bc 3b 15 0e 96 bb
       -0.00812404 0.0058564427 0.0057421303 -0.0045793154
000130 f3 f3 d6 bb a8 28 4d ba 0a 50 b4 3b 3e 4d a3 3b
       -0.0065598427 -0.00078261876 0.0055027055 0.004983573
000140 c1 89 4b bb f0 0e 89 bb ea 28 e8 3a 65 01 34 3b
       -0.003105745 -0.004182689 0.0017712389 0.0027466652
000150 0c cd 60 bb e7 5f 37 bb 6d 95 8b bb 92 df d1 3a
       -0.0034301905 -0.0027980746 -0.0042597563 0.0016012064
000160 7e 2b 7c bb b1 57 8d 3a e9 fe ab bb 20 fa 89 bb
       -0.0038478072 0.001078358 -0.0052488935 -0.0042107254
000170 ee b0 e3 3b e1 c9 dd ba ed 44 80 bb 4f 29 eb bb
       0.006948582 -0.0016921127 -0.0039144666 -0.007176555
000180 e2 87 fb 3b a3 8b af ba 14 67 a7 ba 60 9d 8d 3a
       0.0076761106 -0.0013393055 -0.0012771809 0.0010804348
000190 2f 98 1e 3c 2c 95 24 3c 57 24 dd 3a 68 ab bd bb
       0.009679838 0.010045331 0.0016871792 -0.0057882555
0001a0 13 97 ba bb b4 ce 52 3b 1c 7c 04 3b 86 3d d8 bb
       -0.005694279 0.0032166662 0.0020215577 -0.006599131
0001b0 11 b4 89 bb 5c c4 73 ba db bc 36 bb d4 3f 0b 3b
       -0.004202374 -0.0009298974 -0.0027883563 0.0021247761
0001c0 cb da 5a 3b cb 95 81 3b fc 31 5a 3b a6 77 12 bb
       0.003339457 0.0039546243 0.0033293953 -0.0022349148
0001d0 c0 8e ef 3b 1f 24 f5 b9 88 1d c0 bb f9 39 52 bb
       0.0073107183 -0.00046756954 -0.0058628954 -0.0032078011
0001e0 d5 08 33 3b b9 57 81 bb e0 4b b9 bb 12 98 a9 bb
       0.0027318497 -0.003947225 -0.005654797 -0.005175599
0001f0 1a d6 2d 3b ae d5 71 bb 63 ef 13 bb 7a a2 f8 3b
       0.002652532 -0.0036901045 -0.0022573106 0.007587728

layer1.1.running_mean f4 [128]
000000 1c b3 09 41 94 93 5b c2 ee bf c1 c1 b4 ef 1b 42
       8.606228 -54.89412 -24.218716 38.984085
000010 87 86 11 c2 7d 0e 4c 42 18 50 04 c2 34 f3 21 41
       -36.381374 51.01415 -33.078217 10.121876
000020 ec 1b d8 c1 ea f9 89 c2 bd c2 ee c2 6e 3e 56 41
       -27.013634 -68.98811 -119.38035 13.390242
000030 2b 3c b7 42 18 be 8f 41 8a fe 25 c2 b1 33 34 c2
       91.617516 17.96782 -41.498573 -45.05048
000040 70 b7 15 43 7a a6 ad 42 fb b3 cd c2 7f 56 94 42
       149.71655 86.82515 -102.851524 74.16894
000050 b5 3d b2 40 ec 0b e7 c0 53 17 12 c2 58 23 94 c2
       5.5700326 -7.2202053 -36.522778 -74.06903
000060 83 80 45 c2 18 57 62 41 b2 f1 b0 41 dc 5a 4c c2
       -49.3755 14.146263 22.118015 -51.08873
000070 44 ca 0f 42 f0 c9 b9 c2 20 bd a2 40 9b f8 44 c0
       35.947525 -92.89441 5.0855865 -3.0776737
000080 25 b8 70 c2 df a4 13 42 bc da 67 c2 6a f7 06 c2
       -60.17983 36.911007 -57.963608 -33.741615
000090 59 2a 26 c3 4b 7e 4c 42 2a 40 b5 41 e5 e4 d8 c2
       -166.16542 51.123333 22.65633 -108.44706
0000a0 c4 1b 2b 42 4a d0 3e c2 e4 fb c9 42 cc 53 82 42
       42.777115 -47.703407 100.991974 65.163666
0000b0 b9 bf 42 43 6f 02 c1 c1 a2 54 f5 41 25 f8 99 42
       194.74892 -24.126188 30.666325 76.98466
0000c0 9c ad 26 43 17 03 35 42 3b ea f4 42 fc 45 df 41
       166.67816 45.253017 122.45748 27.909172
0000d0 20 39 38 c2 10 d9 65 42 b8 58 90 42 41 1d a1 41
       -46.055786 57.461975 72.17328 20.139284
0000e0 9a 50 a0 c2 76 c1 cb 41 c0 dc 93 41 d0 6a 40 c2
       -80.157425 25.469463 18.482788 -48.10431
0000f0 84 92 06 42 51 a2 6a 41 7d 9c b9 41 c9 c4 32 43
       33.64308 14.664628 23.20141 178.76869
000100 6d 29 07 c2 e8 63 16 c3 98 a8 3a c2 43 eb 1b 43
       -33.790455 -150.39026 -46.664642 155.91899
000110 50 5d 45 42 2d 2f 4f c2 a0 1d c1 c2 45 89 b0 40
       49.341125 -51.79607 -96.55786 5.5167565
000120 fc 1f 1b c2 99 e6 46 41 a2 c4 56 42 6c 17 df 41
       -38.781235 12.431298 53.692024 27.886436
000130 7a d3 77 c0 0f 9e 3d c2 0f 77 e9 c1 bc fb 95 41
       -3.8722825 -47.404354 -29.183134 18.747917
000140 eb ed 5c c2 95 53 63 42 aa 73 83 c0 fe a4 5c 42
       -55.23234 56.831623 -4.107869 55.161125
000150 af 85 58 c2 c4 e3 9d c2 35 93 71 c2 78 d1 b6 42
       -54.13055 -78.944855 -60.393757 91.40912
000160 70 80 c7 c2 86 c1 00 c3 1a cc af c1 ae 8f c6 42
       -99.750854 -128.75595 -21.974659 99.280624
000170 ea e5 13 42 40 43 d6 c2 51 c6 4e c2 f5 5e 81 c1
       36.974525 -107.13135 -51.69367 -16.171366
000180 9a 23 7d 41 47 77 df 41 7d 45 fd c2 a0 e7 88 c1
       15.821192 27.93324 -126.63572 -17.113098
000190 0c 6e ab 3f 46 a7 8d 40 fb df 93 bf 3a d8 20 c2
       1.3392959 4.426669 -1.1552728 -40.21116
0001a0 e4 06 d0 42 bb 22 59 c0 a5 35 f8 bf 41 fb 82 c2
       104.01346 -3.3927448 -1.9391371 -65.49073
0001b0 94 ac fb c0 52 7a a0 c2 d8 f7 81 bf f3 a0 a8 c0
       -7.8648167 -80.23891 -1.0153761 -5.269647
0001c0 ca e9 07 42 b9 73 5b c1 34 e3 64 41 f5 7e 21 42
       33.97831 -13.715753 14.3054695 40.37398
0001d0 0e 75 3e 42 14 55 ae 42 19 9d f3 c0 6f ca b6 c2
       47.61431 87.16617 -7.612927 -91.39538
0001e0 65 c0 a2 c1 84 19 d3 c2 09 c4 20 c2 41 59 ac c0
       -20.343943 -105.549835 -40.19144 -5.3858953
0001f0 5b 61 cb 41 6c d7 35 c0 67 67 e2 42 ac b2 26 42
       25.422537 -2.8412733 113.20196 41.674484

layer1.1.running_var f4 [128]
000000 18 0f 98 43 22 b5 68 44 d8 06 6d 44 22 06 11 44
       304.11792 930.8302 948.10693 580.0958
000010 84 76 4a 44 d5 b1 95 44 a9 36 0a 44 cb 65 90 43
       809.8518 1197.5573 552.85406 288.79526
000020 52 11 07 44 c3 5f a4 44 0f f8 6e 45 eb d5 91 43
       540.2706 1314.9926 3823.5037 291.67123
000030 c2 2e 03 45 ba 97 94 43 2f fd 9a 44 14 74 4b 44
       2098.9224 297.18536 1239.912 813.8137
000040 34 22 b8 45 e8 54 fb 44 8e 5d 3f 45 2f cf e8 44
       5892.2754 2010.6533 3061.8472 1862.4745
000050 48 43 4b 43 c5 d6 de 43 a5 2b 3c 44 0a 44 ad 44
       203.26282 445.6779 752.68195 1386.1262
000060 3f 84 a4 44 2b 65 4b 44 04 eb f6 43 37 5c 95 44
       1316.1327 813.58075 493.83606 1194.8817
000070 a3 fc 0e 44 c2 56 0c 45 f0 20 05 44 e6 28 3a 43
       571.94745 2245.4224 532.51465 186.15976
000080 5f fa aa 44 43 9b fd 43 dc d2 89 44 3a 1d 3a 44
       1367.8241 507.21298 1102.5894 744.45667
000090 c4 d1 e3 45 68 9a 87 44 32 12 ca 43 81 6c 6a 45
       7290.2207 1084.8252 404.14215 3750.7815
0000a0 a4 5f 24 44 52 f9 48 44 9f 34 43 45 75 af c0 44
       657.4944 803.8956 3123.2888 1541.483
0000b0 5a 90 18 46 68 18 40 44 4c 19 1f 44 3f 65 d1 44
       9764.088 768.38135 636.39526 1675.164
0000c0 40 69 d5 45 35 86 64 44 6a d0 7e 45 3a 17 09 44
       6829.1562 914.097 4077.026 548.3629
0000d0 8d 0f 68 44 3e d0 ce 44 8e 7c fd 44 93 83 0e 44
       928.243 1654.5076 2027.8923 570.05585
0000e0 8f 21 1d 45 f6 fc d3 43 db e8 c9 43 85 1d 89 44
       2514.0974 423.97626 403.81918 1096.9225
0000f0 70 7d 23 44 11 e6 72 43 30 d9 05 44 11 4e fc 45
       653.95996 242.8987 535.39355 8073.7583
000100 e3 60 4e 44 a2 05 c6 45 45 01 6d 44 64 a8 c4 45
       825.51385 6336.704 948.01984 6293.049
000110 01 26 2e 44 8d d0 86 44 77 18 26 45 81 e8 3c 43
       696.5938 1078.5172 2657.529 188.90822
000120 1a 78 5a 44 92 29 d7 43 c8 db 88 44 64 2e 21 44
       873.8766 430.32477 1094.8682 644.72485
000130 69 e7 21 44 30 da 6f 44 9a ae 6b 44 4f 2a fb 43
       647.6158 959.4092 942.72815 502.33054
000140 a3 92 59 44 7e 82 91 44 89 33 b8 43 f7 51 85 44
       870.2912 1164.0779 368.40262 1066.5614
000150 42 c2 a0 44 95 01 de 44 f4 9d a2 44 c3 ca 1b 45
       1286.0706 1776.0494 1300.936 2492.6726
000160 60 4d 30 45 71 9b 91 45 73 3b 1c 44 fd 16 16 45
       2820.836 4659.43 624.9289 2401.4368
000170 3d 9d 28 44 cd da 48 45 fe fc 63 44 c3 51 8c 43
       674.45685 3213.675 911.953 280.63876
000180 22 52 db 43 78 ed 11 44 b7 df 95 45 7b 5a 6d 43
       438.64166 583.71045 4795.9644 237.35344
000190 5f 86 05 44 84 b7 e1 42 7b a9 b1 42 d8 55 70 44
       534.09955 112.85843 88.83102 961.3413
0001a0 c3 ad 4a 45 9d c8 8e 44 0e bf 31 43 e5 0d fb 44
       3242.86 1142.2692 177.7463 2008.4342
0001b0 34 1a d2 43 fc 9a cd 44 3c d7 e5 43 74 42 f5 43
       420.2047 1644.8433 459.68152 490.51917
0001c0 b0 10 14 44 ee 34 d8 43 cc e2 dd 43 43 35 c7 44
       592.26074 432.4135 443.77185 1593.6644
0001d0 1e 66 3b 44 73 b7 03 45 6e 2b 0d 44 2f 04 28 45
       749.5956 2107.4656 564.6786 2688.2615
0001e0 e0 fa 02 44 ab af 34 45 a1 3e 52 44 9f 94 5a 44
       523.9199 2890.9792 840.9786 874.3222
0001f0 f1 92 5e 44 3b de 46 44 6d ec 62 45 18 99 2f 44
       890.29596 795.47235 3630.7766 702.3921

layer2.0.weight f4 [64, 128, 3, 3]
000000 52 52 91 bc 62 90 57 bb 10 4f 04 3c 3f 37 ca 3b
       -0.017739449 -0.0032892455 0.008075491 0.0061711366
000010 c7 bf 84 bc 3d 7d 2e 3c 72 4c 58 bc 18 cf e7 bc
       -0.016204728 0.010649976 -0.01320182 -0.028296992
000020 4d a7 da bb 08 88 b7 bc 94 cd 2a 3c ee fa 7c 3c
       -0.006672776 -0.022403732 0.01042499 0.015440686
000030 d0 b4 f5 3b b0 dc ca 3c ad 92 b7 3c ec 12 19 bc
       0.007498361 0.024763435 0.022408808 -0.00934289
000040 f2 f3 8e 3c d1 c5 b2 bc 18 41 a9 bc 4a 22 e2 3c
       0.017450307 -0.021822842 -0.020660922 0.02760424
000050 b2 33 a4 bc 36 25 06 3d c3 99 e2 bb 76 94 8b 3b
       -0.020044181 0.03275033 -0.0069153025 0.0042596413
000060 3c 9b e9 3c 00 64 15 34 09 17 ef 3b ac 47 6a 3b
       0.028516404 1.3913086e-07 0.007296447 0.0035748286
000070 c9 ed ce 3c e8 84 ca bb f5 a2 d9 3b 2b 45 db bc
       0.02525987 -0.0061803944 0.0066417404 -0.02676638
000080 5c 74 de bc a7 ac ba 3c 8e 1f c3 bc 6f 3c c4 bc
       -0.027155094 0.022787405 -0.023818757 -0.023954598
000090 a7 24 d8 bb 3a 63 61 3c 6f 3b d4 bc d6 22 f4 39
       -0.006596166 0.013756568 -0.025907246 0.0004656526
0000a0 88 00 8f bc 41 da 87 bc 28 e6 be 3c fe 51 d6 bc
       -0.017456308 -0.016583564 0.023303106 -0.026162144
0000b0 41 51 a4 bc a0 86 99 bc 9e f1 98 3c 20 65 89 3c
       -0.020058276 -0.018740952 0.0186699 0.016771853
0000c0 e7 67 4c bc 4a c4 da 3c 51 a3 d9 3a fb 37 4e 3c
       -0.012475944 0.026704926 0.0016604458 0.012586589
0000d0 70 43 37 3a cc 68 95 bc d4 b9 ab 3b 62 9a e4 bc
       0.0006990945 -0.018238448 0.0052406583 -0.027905647
0000e0 3a f5 65 3c a1 7b d7 3b ac e0 8d bc 3f 2f 9a 3a
       0.014035517 0.006576017 -0.017319046 0.0011763348
0000f0 61 bc 06 bc a2 ec eb bc fa 9c fd bc c4 3e 9f 3c
       -0.008223624 -0.028799359 -0.030958641 0.019439109
000100 13 e0 90 bc a8 b0 03 3d ac c7 eb 3b 22 3e bb bc
       -0.017684972 0.032150894 0.0071954336 -0.022856776
000110 ed ff 49 3c e3 16 ab 3c e8 b8 dc bc 31 ea 67 3c
       0.012329084 0.020884937 -0.026943639 0.014154957
000120 56 25 d6 bc 18 2f f8 bb b4 da a5 ba 7c 2b 6b 3c
       -0.02614085 -0.0075739734 -0.001265368 0.014353629
000130 d4 ad b2 bc ef 9c cc 3c 5c 64 03 3d 5a a7 60 3a
       -0.021811403 0.024977176 0.032078132 0.0008569859
000140 fc 2f d7 3c 17 42 b0 3c 7a 86 af 3c 19 0e be 3c
       0.026267998 0.02151589 0.021426428 0.023200082
000150 4f 91 42 3c ab d0 35 3c 9d 6b b9 3c 35 cd 6d 3c
       0.011875465 0.011097114 0.022634322 0.014514257
000160 d9 ba db 3c 71 7b 6e 3b ad 5e c6 3c e3 cb 96 ba
       0.026822494 0.0036389495 0.024215067 -0.0011504855
000170 be e4 67 3c 1d cf 87 bc 59 44 47 3c 94 88 27 bc
       0.0141536575 -0.016578251 0.012162291 -0.010225434
000180 4a 6e 43 3c 57 85 d0 bc ab 76 b0 bb bf c5 b3 3c
       0.01192815 -0.025454206 -0.00538524 0.021944879
000190 40 0e 0c 39 7d 86 7c 3c 6f 19 ff 3c 8e 36 3d bc
       0.00013356749 0.015412924 0.031140057 -0.011548651
0001a0 79 93 cd 3c b8 50 44 3b 4d c6 ad 3c d8 e5 ff 3b
       0.025094735 0.0029955339 0.021212721 0.007809382
0001b0 a8 34 32 bc b0 eb 86 bc 1a 48 8e bc 99 89 b0 3c
       -0.010876812 -0.016469806 -0.017368365 0.021549987
0001c0 cc f0 bf 3c 85 5a a8 bc c0 63 2c bc 5e 01 1b 3b
       0.02343025 -0.020550976 -0.010521829 0.0023651938
0001d0 a5 c9 c6 3c 28 44 a9 3b e0 fd ad 3b 4b a3 93 39
       0.024266073 0.0051655956 0.0053098053 0.00028159688
0001e0 ba 02 e3 bc 47 a1 5c 3c 02 1b 29 3a 2a b5 f2 3b
       -0.027711261 0.013466186 0.0006450863 0.0074068503
0001f0 d4 f4 d9 bc 2e 29 84 3a 7b 7e 9d 3a 28 ef a6 3b
       -0.026606001 0.0010083073 0.0012015844 0.0050944276
000200 bf 2b d6 3b 03 3e b9 3a c4 f7 ac ba 1a 73 69 ba
       0.0065359767 0.0014132861 -0.0013196399 -0.0008905396
000210 82 04 a6 3b bb 9a e0 3b a1 0a 3a 3b 6b cf e1 3c
       0.0050664553 0.006854383 0.0028387683 0.027564725
000220 17 a3 7d bc 48 81 c1 b7 d2 99 6f 3c 72 bd d4 3b
       -0.015480778 -2.3067594e-05 0.014624076 0.00649231
000230 6e 40 25 3c 31 0b 6d 3b 47 73 d6 3a 5f 18 ae bc
       0.010086162 0.003617 0.001636126 -0.021251855
000240 05 c3 b6 bc 05 67 a2 3b b0 dc 62 bb 91 f4 a1 3c
       -0.02230979 0.0049561285 -0.0034616403 0.019769939
000250 a3 65 e0 3b 9c 1d 82 3c 65 88 d0 bc 44 f0 1a 3c
       0.0068480535 0.01588326 -0.025455663 0.009456698
000260 8b 77 8b bc ec 6f af 3c 8b 1b fd 3c ca 36 71 3c
       -0.017024776 0.021415673 0.030896923 0.014722535
000270 3a 01 dc bc 95 17 8c 3c d6 b8 84 3c 02 2b 9a bc
       -0.026856054 0.017101089 0.016201418 -0.018819336
000280 dd 13 39 3c 87 48 fa 3c 93 be 25 3c 54 8d ac bc
       0.01129624 0.030552162 0.010116237 -0.021063484
000290 b6 93 aa bc e4 c5 12 39 2c a8 c0 3c 83 67 7b 3c
       -0.020822387 0.00013997365 0.02351769 0.015344503
0002a0 f0 6c c6 3b 86 19 d4 3b 0c 69 ff ba 50 60 e5 3b
       0.006055467 0.006472769 -0.0019486262 0.0070000067
0002b0 4b ad 74 bb bb 8c 76 bc 23 9a 8c bc 7e c2 b9 bc
       -0.0037334736 -0.015048201 -0.017163342 -0.022675749
0002c0 17 f8 ef bb c9 66 ab bc 1c 8b fe ba ad 9b db bc
       -0.007323276 -0.020923035 -0.001942012 -0.02680763
0002d0 9c c7 55 ba 96 d4 8a bc ba cb 6b bc aa dd cc 3b
       -0.0008155049 -0.016947072 -0.014391834 0.0062520104
0002e0 bf 00 e0 3c 10 42 11 3c 93 51 75 bc ac 32 31 3c
       0.027344106 0.008865848 -0.014973062 0.010815304
0002f0 7c 7e 44 bc ac 8a da bc 37 5c 87 3a c0 80 18 bc
       -0.011993047 -0.026677452 0.0010327165 -0.00930804
000300 e2 f9 68 bb 9a 1f 05 3d 92 58 87 bc 07 09 81 bc
       -0.0035549332 0.03250084 -0.016521726 -0.015751375
000310 e1 1e 22 3d af 7c 17 3d a0 a4 84 39 03 4c 3c bc
       0.03958023 0.036984142 0.00025299657 -0.011492732
000320 de 6c 73 bc 46 69 de bc d0 8f 39 bb 31 f9 24 3a
       -0.014857499 -0.027149808 -0.0028314479 0.0006293236
000330 39 ea 06 bb 2d 84 87 bc f5 89 85 3c 4a 35 2f 3b
       -0.0020586385 -0.016542519 0.016301135 0.0026734644
000340 8b 09 ad bc a1 c2 be bc 34 55 ef 3b 54 2e 5f ba
       -0.021122715 -0.023286166 0.007303858 -0.00085136783
000350 13 62 7e 3c 62 b9 83 3c 6a 1c f0 3b 3c 81 40 3c
       0.015526312 0.016079608 0.007327606 0.011749562
000360 d2 12 e2 3c 50 0a 93 b7 69 05 10 bc c6 12 3d bc
       0.027596865 -1.7528568e-05 -0.008790352 -0.0115401205
000370 0e c1 dc bc f8 29 fa 3b fd 27 4c bc c6 0c 56 3c
       -0.026947524 0.0076343976 -0.012460706 0.013064569
000380 2e 96 82 3c 7f 37 df ba f2 f9 f8 bb 47 c9 d2 3c
       0.015940752 -0.0017030089 -0.007598155 0.025730742
000390 17 3b 8f bc 21 15 1a 3c af 1c 89 3c c1 c1 a5 3c
       -0.01748423 0.009404452 0.01673731 0.02023399
0003a0 82 56 10 bc 86 86 b7 bb be 04 4e bb fc 3f cb 3c
       -0.008809688 -0.0056007532 -0.0031435932 0.024810784
0003b0 11 47 87 bb 36 07 04 bd c1 8b d7 bc da 9d 73 3c
       -0.004128345 -0.03223344 -0.026311757 0.014869178
0003c0 6a 97 c7 bc df 48 24 bc 4d e7 6a bc e0 9b 66 3c
       -0.024364192 -0.010027139 -0.014337373 0.014075249
0003d0 10 c6 ab 3c c4 7d 42 bc f2 53 b1 3a f5 91 81 bc
       0.020968467 -0.011870805 0.0013529046 -0.015816668
0003e0 c2 85 20 bb 16 59 22 bc f2 71 0b bb 49 e5 91 3c
       -0.0024493788 -0.009908935 -0.0021277633 0.017809527
0003f0 09 ad 5c 3b e6 1d da 3a 10 49 d5 bc fc 22 d0 3b
       0.0033672473 0.001664099 -0.026035815 0.0063518267

layer2.0.bias f4 [64]
000000 5e 82 95 3c e9 53 11 3c ca 1c af 3a 9b 0b ab bc
       0.01825064 0.008870103 0.001336002 -0.020879557
000010 f5 90 ac bc 08 4d 37 bc 4c 15 0e 3c d1 ef 80 bc
       -0.021065215 -0.011187799 0.00867207 -0.015739353
000020 66 26 98 3b e5 78 3f bc 81 1b ad 3c f1 05 08 3c
       0.0046432493 -0.011686538 0.021131279 0.008302198
000030 a4 8c 13 bc 9c e6 0d bc e9 49 a5 bb 27 49 f3 3b
       -0.009005699 -0.008660939 -0.005044211 0.007424492
000040 8e 4b ca bc 25 fb e9 bc e1 7f eb bc 90 cf 9a ba
       -0.02469423 -0.028562138 -0.0287475 -0.0011811126
000050 2f 4b da bc 72 8f 92 3c 07 ac eb 3c 3e 1f c8 bc
       -0.026647178 0.017890666 0.028768552 -0.02442896
000060 8d d0 e6 3c bd 11 dd 3c b6 d4 ed 3a 6a 04 53 3c
       0.028175617 0.026985997 0.0018145058 0.01287947
000070 a6 98 14 3c 3f 0e 19 3c 9a 22 cf bc da b6 9d 3c
       0.009069597 0.009341775 -0.025285054 0.01925223
000080 14 82 12 3c 7f 0f c0 bb c5 35 0e bc 3d 66 eb bb
       0.008942146 -0.0058612223 -0.008679812 -0.0071838186
000090 5c bc ac 3b 32 2b d5 bc 8f ea 8d bc 8b 8c f1 bb
       0.0052714776 -0.026021574 -0.01732376 -0.0073714904
0000a0 0c 88 a3 b9 82 ee 5d bb 57 f9 00 3c 67 16 69 3c
       -0.00031191146 -0.0033864086 0.007871947 0.014226533
0000b0 1a 6b 95 3c 2a 64 10 bb c0 a8 5d 3c 23 a5 be bc
       0.018239547 -0.0022032359 0.013529003 -0.023272103
0000c0 3c b7 df 3c 95 42 73 bb 52 dc d3 3b 66 b0 9b 3c
       0.027309053 -0.0037118543 0.006465473 0.019005012
0000d0 ed b0 67 bc 00 3e a4 3b 1c ee 9a 3c 07 4a d7 3c
       -0.0141413035 0.005012274 0.018912368 0.026280416
0000e0 43 4a 2c bb ed 2c c1 bb 61 95 15 3c 90 df 25 3c
       -0.002628938 -0.005895248 0.009129853 0.010124102
0000f0 d9 22 9a 3c 07 6b b1 3b f2 01 41 bc bf 9e 9a ba
       0.018815445 0.00541437 -0.011780249 -0.0011796578

layer2.1.weight f4 [64]
000000 08 d6 23 3f 61 f3 cf 3c 4e ef 9b 3e f3 7b 04 3f
       0.6399846 0.025384607 0.30456012 0.5175163
000010 a7 6a 51 3f 5b 8f c8 3e 07 9e b9 3e b7 6e 42 3f
       0.81803364 0.39171872 0.36253378 0.7595019
000020 2f b3 bb 3d 8a 37 4f 3f db 7d 91 3e 81 97 16 3f
       0.09165036 0.8094412 0.28416333 0.58824927
000030 23 b6 8a 3e 0f 69 90 3e 7e 5b ab 3e d3 3e 21 3f
       0.27092084 0.28205153 0.3346824 0.6298649
000040 3a 14 8b 3e 86 70 b1 3e 81 fb 96 3e f2 53 2c 3f
       0.2716387 0.3465616 0.29488757 0.6731559
000050 ca 44 55 3d d9 86 03 3f a9 ff 4b 3e f4 cb 5a 3f
       0.052067555 0.51377636 0.19921745 0.8546746
000060 d0 f6 ac 3d 5c 19 71 3f 03 04 77 3f fa ab 66 3e
       0.08445513 0.9417932 0.96490496 0.22526541
000070 a4 2f 63 3f 5a 42 6f 3f 85 7d 49 3f 85 42 0a 3f
       0.8874457 0.9346062 0.7870715 0.5400775
000080 de ba 65 3d b7 ba 53 3f 3d 53 d8 3e 6e e6 72 3e
       0.056086414 0.8270678 0.42251006 0.23720714
000090 0a 01 21 3f 2b 1a 12 3f 60 14 3a 3f b8 fc e3 3e
       0.6289221 0.5707118 0.7268734 0.44528747
0000a0 17 df 49 3e c9 7d 2c 3f 18 b6 52 3f 8b a7 75 3f
       0.19714008 0.6737943 0.82309103 0.95958775
0000b0 13 59 bf 3e 64 ae 54 3f 2c 95 49 3f 81 7c ec 3e
       0.37372646 0.830786 0.78743243 0.4618874
0000c0 f4 d7 ad 3e ba a7 8b 3e 4f 71 07 3f 59 ff 5c 3f
       0.33953822 0.27276403 0.5290727 0.8632713
0000d0 e6 df b4 3e f5 09 61 3e 2b d6 92 3d 1c 8b 6e 3f
       0.3532707 0.21976455 0.071697555 0.93181014
0000e0 ae 67 46 3f a8 83 40 3f a7 18 d8 3b ce 0c d6 3e
       0.7750195 0.7520089 0.0065947357 0.41806644
0000f0 df 72 30 3f 74 fd fe 3e 97 48 32 3f 61 38 5d 3f
       0.6892528 0.49802744 0.69642013 0.8641415

layer2.1.bias f4 [64]
000000 98 e5 35 38 88 12 9e 3b e4 6e ba 3a 56 5e 5c bb
       4.336759e-05 0.0048239864 0.0014223722 -0.0033625565
000010 13 d0 ac bb 2d 4e 87 bb 61 81 05 bb 2f f9 c0 ba
       -0.005273828 -0.0041291923 -0.0020371305 -0.00147227
000020 eb bc 1b bc 01 8e 27 3b 3f 03 4a bb 4b ae a9 bb
       -0.009505491 0.0025566819 -0.0030824689 -0.005178248
000030 d6 4d bf ba e6 17 98 3b 97 d4 bc bb da 6b 80 bb
       -0.001459534 0.004641521 -0.0057626474 -0.003919107
000040 2b f3 ab ba 4a 58 0b 3c 04 47 2a 3b 57 52 f5 bb
       -0.0013118734 0.0085049365 0.002598227 -0.0074866223
000050 51 09 63 3b 23 2f 35 3b 24 67 fa ba c3 47 26 bb
       0.0034643004 0.0027646504 -0.0019104225 -0.0025372363
000060 2e ba 27 3a ce 62 16 bb 0f a1 09 3c 3d b5 53 3a
       0.00063982874 -0.0022947076 0.008400216 0.0008076018
000070 d9 49 74 bb 52 cb 32 ba 68 ee 5e 3a b6 78 e5 b9
       -0.0037275462 -0.0006820458 0.0008504153 -0.0004376822
000080 20 21 75 bb f6 83 00 bb d3 28 3b bb 8e 28 27 3b
       -0.0037403777 -0.0019609905 -0.0028558269 0.002550635
000090 93 94 5b ba 9b cf 27 bb a5 70 4c bb a9 f3 8f 3b
       -0.00083763263 -0.002560592 -0.003119507 0.00439306
0000a0 4c 69 6f bb 60 fb e2 ba c6 a1 42 ba d8 ad 77 bb
       -0.0036531268 -0.0017317347 -0.0007424619 -0.0037792828
0000b0 32 1d 0b 3c a9 70 20 bb a6 68 a8 3b 50 7a ea 3b
       0.008490847 -0.0024481213 0.005139428 0.007155694
0000c0 97 f3 9d 39 97 29 90 bb 67 f4 8d 3b 76 ef a7 b8
       0.00030126862 -0.004399489 0.0043321135 -8.0077836e-05
0000d0 3c 06 7a 3b 4f 9b 85 bb 22 1c 10 3c 9b 8d 88 3b
       0.0038150689 -0.004077352 0.00879577 0.0041672713
0000e0 cb aa 6d bb d1 16 9e 3b 71 76 01 3c 00 21 8a 3b
       -0.003626513 0.0048244973 0.007901774 0.0042153597
0000f0 02 eb e5 bb 99 84 31 3b 62 48 18 b9 f4 d4 cb 39
       -0.0070165405 0.002708709 -0.00014522814 0.0003887784

layer2.1.running_mean f4 [64]
000000 0f da 17 3e ad 92 a4 3e 1c db 7c 3d d6 3f 3a bf
       0.14829277 0.32143155 0.061732396 -0.72753656
000010 e3 3e 19 be c3 f6 ad 3e ea ca 77 bc 9f 43 99 3e
       -0.14965396 0.33977327 -0.015124062 0.29934403
000020 0d 45 d1 3e 01 bb fc 3d 9f 96 e2 3e d8 74 27 bf
       0.40872994 0.12340356 0.4425554 -0.65412664
000030 9d 37 4a 3c c6 bb e3 3b 56 51 93 be 77 a1 55 3e
       0.012342361 0.0069498746 -0.28772992 0.20862375
000040 44 a8 ec be d4 53 04 3e 0f 6c b3 3e ce 52 31 3e
       -0.46222126 0.12922603 0.3504338 0.17316744
000050 5a e7 0f bf 4d e1 8c 3e 28 f7 e4 3d 0f 57 19 3f
       -0.5621239 0.2751564 0.11179954 0.59898466
000060 7b f1 7d 3e 82 8c ed be 7b 9b 26 3e a3 ea a0 3c
       0.24799149 -0.4639626 0.16270249 0.019643134
000070 e9 86 18 bf a6 e5 92 3e 00 2f 44 3d fe 2f 23 3e
       -0.59580857 0.28690833 0.047896385 0.15936276
000080 0e a0 6a 3e a6 c2 0f bf 32 f0 d6 3d 6f e9 95 bd
       0.22912619 -0.56156385 0.10495032 -0.073199145
000090 29 88 b5 be 5b 4e 20 bf d1 39 cc 3d cc 48 9c 3e
       -0.35455444 -0.6261956 0.09971965 0.3052429
0000a0 25 7e 42 be 54 d5 38 3c 0c 02 f4 3d cb 6c d1 3e
       -0.18993433 0.01128133 0.11914453 0.40903315
0000b0 52 33 75 3e 67 1f b8 3e 3e a5 a6 3e df 6c 57 3e
       0.23945358 0.35961458 0.32547945 0.21037625
0000c0 bb 84 bc be 10 5c 49 bf 0b fe 79 3e 21 e1 e3 be
       -0.36820015 -0.786561 0.24413316 -0.44507697
0000d0 d6 6c 75 3e 36 d1 ad 3e 3a df 78 3e e4 cc 24 3e
       0.23967299 0.33948678 0.24303904 0.16093785
0000e0 9a 6c f5 3d 4d f9 38 bd d0 ea 95 bc 31 4f e2 3e
       0.11983605 -0.045159627 -0.018300444 0.44201043
0000f0 42 7d 6e 3d 2e 47 15 3c 75 ab ff be ac 7c 91 be
       0.058224924 0.009111209 -0.499355 -0.2841543

layer2.1.running_var f4 [64]
000000 86 be b7 3e 9a a2 e0 3e 2a f8 a3 3e 11 3a 0b 3f
       0.35887545 0.43874055 0.32025272 0.5438548
000010 75 14 e1 3e 48 a7 4c 3f 42 65 32 3f 12 aa c1 3e
       0.4396092 0.7994275 0.6968576 0.37825066
000020 8a 35 09 3f 22 93 e4 3e 9b f1 42 3f e1 e2 07 3f
       0.5359732 0.44643503 0.7614991 0.53080565
000030 45 8a f2 3e 78 cd d8 3e a1 ea 08 3f 8b 79 03 3f
       0.47371116 0.4234426 0.53483015 0.51357335
000040 d5 f9 34 3f 38 17 f8 3e 93 68 c9 3e 46 a2 49 3f
       0.70693713 0.48455215 0.39337596 0.78763235
000050 b8 55 41 3f ee e0 c2 3e 88 49 b8 3e 56 9f ec 3e
       0.7552142 0.38062233 0.359936 0.46215314
000060 60 cb c0 3e e6 1b e0 3e 5f d9 f6 3e 76 af f7 3e
       0.37655163 0.43771285 0.48212716 0.48376054
000070 cc 87 e8 3e 47 4b f8 3e 78 93 b5 3e 83 71 b1 3e
       0.45416105 0.48494932 0.35464072 0.34656915
000080 19 f6 c3 3e b2 5f d1 3e 94 b4 b1 3e 5b 17 b0 3e
       0.38273695 0.40893322 0.34708083 0.3439282
000090 ed c3 0e 3f 53 2c 25 3f e0 f7 bc 3e 0b 03 db 3e
       0.5576771 0.6452076 0.36907864 0.4277576
0000a0 80 f1 bd 3e 95 97 0a 3f e2 21 e6 3e 06 47 d0 3e
       0.37098312 0.54137546 0.44947726 0.40679187
0000b0 d9 00 d8 3e ad df 19 3f 3a ae d2 3e b9 ab eb 3e
       0.42188147 0.6010693 0.4114855 0.4602945
0000c0 ea 16 c0 3e 38 96 fb 3e db 92 ba 3e 30 17 22 3f
       0.37517482 0.49138045 0.36440167 0.6331663
0000d0 d2 10 06 3f 9c 38 0b 3f b1 19 ed 3e b5 76 c1 3e
       0.52369416 0.54383254 0.46308663 0.3778588
0000e0 50 9b 4c 3f 3d 4f d1 3e e8 3a ed 3e 5d 8e ef 3e
       0.7992449 0.40880767 0.46334004 0.46788302
0000f0 c3 f2 ab 3e 6b 2d b9 3e fd 4e 06 3f f2 73 16 3f
       0.3358365 0.36167464 0.52464277 0.5877067

layer3.0.weight f4 [32, 64, 3, 3]
000000 f3 f8 e9 3c 2f a1 58 bb 68 77 1d bc ed 31 4b bc
       0.028561091 -0.0033055057 -0.009610988 -0.01240204
000010 5a b1 f6 3c 82 c5 76 bc b0 e8 43 bc de 49 95 3c
       0.030113865 -0.015061738 -0.0119573325 0.0182237
000020 d0 d7 f5 b9 06 ab 12 bd 18 41 02 3d 23 ae 99 bc
       -0.00046890834 -0.035807632 0.03180036 -0.018759793
000030 6c 27 de 3c 11 87 f0 3b a0 aa e1 bc 79 3a d6 3c
       0.027118407 0.00734032 -0.02754718 0.026150929
000040 bc 8f 6b 3c 8a ca 51 bc 3b 4c d0 3c d0 64 d4 bb
       0.014377531 -0.012804637 0.025426975 -0.0064817443
000050 6a 11 d5 bc 56 82 93 ba 91 2c 8f bb f6 dd c6 3c
       -0.02600928 -0.0011254053 -0.0043693264 0.024275761
000060 64 b1 3d bc 64 a8 1d 3b 38 49 c8 3c e8 1e 62 3c
       -0.011577938 0.0024056667 0.024448976 0.013801314
000070 18 89 49 bc 4f 49 bd bc 04 3c 04 3d 1d b5 42 bb
       -0.012300752 -0.023106245 0.032283798 -0.0029710003
000080 29 1f cd 3c aa ff 81 bc f8 aa d0 bc c8 a6 2b 3d
       0.025039272 -0.01586898 -0.02547215 0.041907102
000090 ce 0f b1 3c 31 df 6a bc 58 a7 e0 3c 10 d5 de 3b
       0.021613982 -0.01433544 0.027423546 0.0068003014
0000a0 0b a1 3f bd 09 e8 56 bb a0 5d 28 3c 81 3d af bc
       -0.046784442 -0.0032792112 0.010276228 -0.021391632
0000b0 7e 14 fc 3c 92 7f 13 3d e6 ba 4f bc 7f 58 d3 bc
       0.03077149 0.036010332 -0.012678837 -0.025799034
0000c0 28 1e d6 bc 85 12 6b bc bd a0 a8 3a 3b e1 1d bc
       -0.026137426 -0.014347677 0.0012865287 -0.009636219
0000d0 0e e1 fb 3c 14 24 16 bc ae fe 14 3d 0c 27 5b 3c
       0.030746963 -0.009163875 0.036375694 0.013376009
0000e0 55 a6 01 3d 63 17 0b bd 7b 0e 12 bd 8a 5f 5f bb
       0.031652767 -0.03395785 -0.03565834 -0.0034084045
0000f0 92 6f cc 3b 34 9c c3 bc 10 15 bc bc c2 d2 be 3c
       0.006238886 -0.023878194 -0.022959262 0.023293857
000100 a8 a4 b5 ba c9 31 4c 3c a2 5b ef 3b df 46 34 bb
       -0.0013858275 0.012463042 0.0073046247 -0.0027508063
000110 6e 7a c6 3a 39 0c 07 bb bc dc 8b 3c 04 10 00 3d
       0.0015142688 -0.002060665 0.017073028 0.031265274
000120 e0 57 b1 bc 8b da d3 bc 64 b8 d5 3c 7f 81 23 bd
       -0.021648347 -0.025861045 0.0260889 -0.03991842
000130 45 70 c9 bc 0b 2f 00 3d 18 5d 89 3b fa 3d ed 3c
       -0.024589667 0.031294864 0.004192006 0.028960217
000140 d6 22 c5 3b e8 a1 ac 3c 89 f8 1f bd d7 3c 22 3d
       0.0060161157 0.021073297 -0.03905538 0.039608803
000150 4a 8b b9 bb af 12 d1 3c 6a 7e a9 bc 49 e7 fc 3b
       -0.0056623565 0.025521604 -0.020690162 0.007718001
000160 b6 f7 7e 3c 54 38 eb bc 27 98 6c bc 66 fa 85 3c
       0.015561989 -0.028713383 -0.014440573 0.01635475
000170 41 83 14 3d 82 23 92 3c ce b9 08 bc 8c a3 2b 3d
       0.036257986 0.017839197 -0.008345081 0.041904017
000180 46 44 97 3b 3c a2 82 bc a5 fa 8a bb e4 c5 32 bd
       0.004616293 -0.0159465 -0.004241305 -0.043645754
000190 ff fe 38 3c 46 6d d1 3c e1 95 22 3c e8 84 eb 3c
       0.011291265 0.025564801 0.009923429 0.028749898
0001a0 72 07 d0 3b 74 ff 20 3d b9 cc 0e 3c 26 94 12 bc
       0.006348544 0.03930612 0.008715802 -0.008946454
0001b0 c7 80 bb bc 1b 8a e1 38 16 73 ee bc 1d 96 27 bc
       -0.022888554 0.0001075456 -0.029107612 -0.010228661
0001c0 22 cc 13 ba 9f d5 ed bc ff a2 70 bc 9d a3 9b 3c
       -0.0005638023 -0.029032527 -0.014687299 0.018998915
0001d0 00 ba 31 3d ad 87 7e bc d0 c9 2a 3b 73 a0 c5 3c
       0.043390274 -0.015535277 0.002606023 0.02412436
0001e0 8e 5e 8f 3b 5e 13 ee bb 62 f6 fe 3c cb a4 22 bd
       0.0043752855 -0.0072654923 0.031123344 -0.03970794
0001f0 ab fb 07 3d d8 48 17 3b 7e 8e a1 bc 21 9e 86 3c
       0.033198994 0.002308419 -0.019721266 0.016432824
000200 38 4d 35 3b c5 5b e3 bc 0d 83 3a bd cf 68 a1 bc
       0.0027664434 -0.02775372 -0.045535136 -0.019703297
000210 ca 39 cd bc ec 52 a5 3c cd e9 c2 3c 5b a1 d1 bc
       -0.02505197 0.020181142 0.023793126 -0.025589636
000220 88 44 25 bc 8d 89 2c bd 5b f3 d4 bc d2 89 e4 bc
       -0.01008714 -0.042123366 -0.025994947 -0.02789775
000230 03 9b 08 3a 62 4d a4 bc 16 be 8e ba 86 aa 18 bd
       0.0005211087 -0.02005643 -0.001089039 -0.037272
000240 47 03 1d 3c 61 a4 cb bb fe 1b f1 b9 db c1 32 bc
       0.009583301 -0.006214664 -0.00045987958 -0.010910477
000250 79 23 c6 3c 57 d4 14 3c ae 25 ad bc a6 32 18 3d
       0.024186837 0.009083829 -0.021136131 0.037157677
000260 e4 7b 13 3d 81 3d 5b 3c f1 aa 1d 3d b7 c3 20 bd
       0.036006823 0.013381363 0.0384931 -0.03924915
000270 0d a0 30 3d 47 78 1b 3d c6 73 34 bb aa 22 ca bc
       0.043121386 0.037956502 -0.0027534827 -0.024674732
000280 f0 66 9f bc 82 07 b8 3b 39 2c b3 3c c9 4f af bc
       -0.019458264 0.0056161294 0.021871673 -0.02140035
000290 62 d4 e8 3c 54 d8 df 3c 9c 02 b4 3b 5c 79 23 3d
       0.028421585 0.027324833 0.005493475 0.03991066
0002a0 73 74 4f bc bc 6d 62 bb 5a 86 cd 3c 76 38 b9 3c
       -0.012662041 -0.003455027 0.025088478 0.02260993
0002b0 96 1c 9a 3b e4 87 f0 bc 22 eb f7 3c 12 8e 54 3a
       0.0047031147 -0.029361673 0.030263487 0.00081083283
0002c0 a9 d7 cb bc 7f 42 f5 3b 71 8f b1 3c e8 77 d7 3c
       -0.024883108 0.0074847336 0.021674844 0.026302293
0002d0 09 6b 17 3c db 9c e0 3c d1 da 96 bc 0f 0e f1 bb
       0.009241828 0.027418545 -0.018414887 -0.0073564122
0002e0 d2 4c a6 bc f9 66 0e 3d 02 c7 eb 3b c5 b9 c9 bc
       -0.020300303 0.03476617 0.0071953544 -0.024624715
0002f0 a0 79 ea 3b 2b 53 84 bb 14 55 23 3b a2 0e 12 3c
       0.007155612 -0.0040382347 0.0024922537 0.008914622
000300 55 59 10 bd d2 f8 a7 3c c8 21 a4 3c c3 84 9a bc
       -0.035241444 0.020504389 0.02003564 -0.018862134
000310 42 66 10 3d b0 a2 a8 bb 31 18 d1 3c 2e b8 52 3b
       0.03525377 -0.005146347 0.02552423 0.0032153237
000320 70 ab 05 3d 91 e0 12 bc a4 8f 58 bc 53 54 e4 3c
       0.0326342 -0.008964674 -0.01321784 0.02787224
000330 10 30 18 3d 62 fa c8 3c 0b 99 19 bb 53 64 fa bc
       0.03715521 0.024533454 -0.0023437168 -0.030565416
000340 2a 80 0d 3d 62 08 33 3d 6f 0f 40 bc a8 26 df 3c
       0.034546055 0.043709166 -0.01172243 0.027240112
000350 07 ce 73 bc de e8 bf 3c f4 e5 36 39 aa 77 ac 3c
       -0.014880664 0.02342647 0.00017442537 0.021053154
000360 91 65 1b 3d d5 4f 86 3c 3a 2a 00 bd 07 6a 1b bc
       0.03793866 0.016395489 -0.03129027 -0.009485728
000370 e9 6c f3 3c 52 91 7a 3c 8a 51 d0 bc 5d 34 20 3c
       0.029715018 0.015293436 -0.025429506 0.009778109
000380 66 bd 17 3d e7 c5 e7 bc aa a4 b9 bc 92 ec 05 bd
       0.03704586 -0.02829261 -0.022661526 -0.032696314
000390 66 a5 39 3c 8f 13 6d bc be 83 be 3c 90 62 18 bc
       0.011330938 -0.014469995 0.023256179 -0.009300843
0003a0 ff 63 4b 3c c7 8d 12 3d 36 b2 50 3c 00 41 f7 bb
       0.012413978 0.03577974 0.012737801 -0.0075455904
0003b0 3d 2b a5 39 f4 fe 8e bb 5c 56 08 bd 23 26 08 3d
       0.00031503467 -0.004363889 -0.033285484 0.033239495
0003c0 b6 bb b5 3c 29 15 ad bc 89 5e 2e bc e4 9f 9e bc
       0.022184234 -0.021128254 -0.010642656 -0.019363351
0003d0 1b aa 0a bd 95 7d 97 bc 13 ca 1b bd 46 ef db bb
       -0.03385363 -0.0184925 -0.03803451 -0.006711873
0003e0 f8 e5 c0 3c 5d dc 09 3d 96 d1 ec ba 27 51 03 bd
       0.023547158 0.03365742 -0.0018067833 -0.032059815
0003f0 af 0f d4 bc df a7 bd 3b ec b2 aa ba 62 e6 11 bc
       -0.025886385 0.005787834 -0.0013023294 -0.008905025

layer3.0.bias f4 [32]
000000 6f 42 af 3c 82 ca fa 3c b1 d2 19 bd 04 1d b4 3c
       0.021393983 0.030614141 -0.037554447 0.021986492
000010 de a8 29 bc 35 fc 4b 3c cf 7b d8 3c d4 0f 92 3c
       -0.0103552025 0.012450268 0.026426224 0.017829813
000020 8e 1c 92 bc 58 cc 26 3d c4 1f a8 bb 6a 03 05 3c
       -0.017835882 0.04072222 -0.00513074 0.00811849
000030 2a 26 b3 bc dc fa 26 bd 64 96 90 bc a6 ce ad 3c
       -0.021868784 -0.040766582 -0.017649837 0.021216702
000040 b4 75 76 3c f5 f9 86 3c 0b 7c e4 3c 69 6c 8f 3c
       0.015042711 0.01647661 0.02789118 0.017507749
000050 80 70 06 3d cb 86 17 bd b7 8c 82 3c ee 80 d4 3c
       0.032822132 -0.036993783 0.015936239 0.025940385
000060 7b 8b 79 3c 52 63 2a bc 50 7b 17 3d b0 f2 04 3b
       0.015231009 -0.010399656 0.036982834 0.0020286255
000070 45 5d ff 3c f6 b2 84 3c 83 2a 66 bc 44 74 80 3c
       0.031172404 0.016198616 -0.0140482215 0.01568044

layer3.1.weight f4 [32]
000000 23 0f 41 3f 7d be 7d 3f 1e bd 13 3f 94 c5 af 3e
       0.7541372 0.9911879 0.57710445 0.34330428
000010 08 bb 65 3d e4 81 24 3e 43 46 31 3f 37 ef d4 3d
       0.05608657 0.16065174 0.69247836 0.10397189
000020 e8 31 96 3d 2b 2b 4f 3f 9c 23 8c 3e 56 a7 3f 3e
       0.073337376 0.80925244 0.27370918 0.18716177
000030 5f 19 32 3f d7 3a 24 3f c7 16 43 3f a8 1f a7 3e
       0.69569963 0.6415228 0.7620663 0.3264134
000040 ff 78 1f 3f 9e a7 0c 3f d4 1c 1c 3f e6 af 21 3e
       0.62294 0.54943264 0.6098149 0.15789756
000050 cd b7 ec 3e bd 4f 2a 3f 8b ab 0e 3e 3e 40 2e 3f
       0.4623398 0.6652792 0.13932626 0.68066776
000060 f6 39 b3 3e 1e d6 ed 3e 7e ba 15 3e 44 12 17 3f
       0.35005158 0.4645242 0.14621922 0.59012246
000070 cb ec 8f 3e 5b 91 70 3f 79 23 2e 3f 5e 2d 26 3e
       0.28110346 0.93971795 0.68022877 0.16228244

layer3.1.bias f4 [32]
000000 24 fd c7 3a 9c 27 64 3b af 04 06 bc b9 d8 47 bb
       0.0015257937 0.0034813648 -0.008179828 -0.0030494167
000010 b7 dd 32 bb ac 12 49 bb 0e c3 39 39 c6 33 91 bb
       -0.0027292797 -0.0030681295 0.00017715638 -0.0044312207
000020 e5 0b 10 bc 62 d3 1a 3c 6c fe 6c 3b 8c 08 f0 3b
       -0.008791898 0.009449812 0.003616239 0.0073252376
000030 9a a8 f6 3b 10 4b ce b7 af b4 93 bb d3 af 00 3c
       0.007527423 -2.4592067e-05 -0.004507623 0.00785442
000040 1b 76 21 3c 1e f4 af 3b 12 08 5e bb cd 1a 17 bc
       0.009854819 0.005369677 -0.0033879322 -0.009222698
000050 8a dc 83 bb d6 a4 0a 3c 0d ae a2 3b ed 24 05 3c
       -0.004024093 0.0084621515 0.004964596 0.00812648
000060 4c d0 99 3b 57 fd b1 3b 60 b5 67 ba ad 2a 08 3c
       0.0046940204 0.005431812 -0.00088389777 0.008310956
000070 2f 82 82 3b 8b 74 10 bc a7 9e 79 ba 2e 98 53 bb
       0.0039828042 -0.0088168485 -0.0009522237 -0.003228675
