5312330.b16e2.model (torch_old, 820387 bytes, 32 tensors)

layer1.0.weight f4 [128, 3, 3, 3]
00000000: 2bb5 27bc 5c96 e73c 40f7 323e 795d 06be
00000010: 274a 0e3e f750 2dbe 409e 3e3e dc3a 9dbd
00000020: a8ed 97bc 83eb 20be f528 093b fea5 c7bd
00000030: f696 e4bd 4551 363e e35b 2ebe 395c f43b
00000040: 8e3b d83b d401 293e 1261 66bd 99b8 ea3c
00000050: 17fd fd3b 330b 6e3d f7a5 67bd cfd8 bcbd
00000060: 5277 cebd a542 b6bd 533e 11be ccab 423e
00000070: 1248 05bd adb1 083e ce3a 0f3e 251d 0d3e
00000080: b418 a43c e180 cc3d bebe 0a3e 9c34 4d3d
00000090: 2f6b 163e 8d67 e23d d499 bdbd c9ed f73d
000000a0: 4ba1 49bd 242f 123e 1288 153e 8351 753d
000000b0: 1cdd 75bc 504f 86bc 79fa 083e 6fc6 d73d
000000c0: d0a6 2b3e ee76 21be a145 ffbd 35d4 e93d
000000d0: b4fa 23be 2855 2a3e 4fcc 34be 8504 af3d
000000e0: d395 323e 2fad 18be d757 103d ab9a 1b3e
000000f0: 4813 e2bb 2de1 843c e13d 22bd 3085 cb3c
00000100: 84e1 15bd 3efb 13be 0a89 0ebe 6ae6 fa3d
00000110: 3b0a afbd aab8 34be f2ea 0fbd 6d2d dbbc
00000120: 42c6 3b3d a9be 2bbe 974d c33d a58d b23d
00000130: 01d7 85bd ad9f 2bbe c689 f5bd 8120 05be
00000140: f23e 2cbe c871 0ebe 3da2 a73d 3bdb 953c
00000150: 7ec1 9ebd b54f 9bbd 0503 3dbd 28fe 34be
00000160: 57d9 213e 565e df3d 1ca8 ea3d 7c37 0bbd
00000170: ae15 92bd 8895 9bbd dde0 0c3e 9578 a83d
00000180: a01a 95bd 7319 2c3e b267 37be 43a1 74bd
00000190: 533b b0bc 5d9b 6e3c cd3a 43bd c186 293d
000001a0: cde7 c1bc dc9b 09be aa8c 0bbe 4f9c 5abd
000001b0: 6526 c4bc 500b 953c f813 963d 5154 373e
000001c0: c771 023e 41c1 37be 120a 493c d968 303c
000001d0: f684 e23d f57b 0b3d f489 e13c 8fc4 b03d
000001e0: b0be 2e3c 3fb2 293e ba8b cebd 2aeb 0b3e
000001f0: 7c56 3d3e ec83 4bbd 02d1 3cbe ddca cbbc
00000200: d488 903d 1d28 95bb e50e 95bd acc9 f8bd
00000210: 4d9f 18be 3ce2 cbbd 22e3 8f3d 4dba 47bd
00000220: f476 403e 7a5d 2abe 2629 0d3e 10db d73d
00000230: f0cb 38bd ed7b c5bd 140c 253e ca6b f13d
00000240: 36dc 8b3d f9fc f53d 34a8 0a3e 26e0 7bbd
00000250: 9e48 3dbe c936 af3c 70eb 4bbc e46a 24be
00000260: c9ae 41be 77e3 003e a36d 2f3e f34f c43d
00000270: e890 9c3d a842 9e3d 6ebe a4bb c924 06be
00000280: 9000 2d3d 0f6b 3bbe 1ca3 e8bd 312f a03d
00000290: d6e8 4ebd 68da 3a3e 3835 fdbb c059 f2bd
000002a0: aba7 c73d 68e2 1fbe 6c32 39be 5b1c 03be
000002b0: d134 e3bc 57a7 e53d ce1b 88bd ec3a 5a3c
000002c0: c595 0f3d ef4d bf3d 2558 2dbe 930b 2cbe
000002d0: b3e9 1c3e 4aab 153e 4efd 0ebe 7a84 8bbd
000002e0: 32ae 353c 4965 133e 44d4 31be a691 253e
000002f0: 5cca 5c3d 4752 ac3d ddcc e23d 105d d63d
00000300: 79ba 9c3c 8f0d 87bd 7a16 8e3d 3468 afbd
00000310: 9829 e3bd dee1 3fbe e675 843d a913 33be
00000320: 5ec5 84bd 0542 b8bd d715 403e 6370 8cbd
00000330: 4472 2b3e ff32 823d d468 35be 4b56 c0bd
00000340: 416a 4abd 487a 453c 5e3c 143e 5ecd ea3c
00000350: 831f 383e cc68 2abe 23ef 2f3b 5454 dd3c
00000360: 46a5 ad3d e0c1 acbc 4408 0c3e a772 ccbd
00000370: 4f8a 50bd 17bb 2abe f2fc d33d 3069 b3bc
00000380: eb17 3dbe 7b60 59bd 419f 40be 6003 303e
00000390: 4c10 a83a e71f 113d d7a9 d0bc 9e0e dbbd
000003a0: c04f 85bc d11a 27be 6ee4 fcbd 794b 35bd
000003b0: b208 1fbe 70f5 1f3e ad00 9e3d 4197 193e
000003c0: 6978 d4bd 9fcf 2b3e 6ae9 f0bd dd96 f63d
000003d0: 40ad 0a3d a3dc 8c3d 3436 f2bc fbf1 e13d
000003e0: 94c0 1abd aba0 b9bd e261 db3d 39b6 08be
000003f0: 6add b8bd 1e3d b63d 1287 423e c2af 0e3e
-0.010236065 0.02826994 0.17477131 -0.13121594 0.13895474 -0.16925417 0.18615055 -0.07677242
-0.01854594 -0.1571484 0.0020928953 -0.09748457 -0.11161606 0.1780444 -0.1702724 0.007457283
0.0065988963 0.16504604 -0.056244917 0.028652476 0.007751118 0.05811615 -0.05655476 -0.092210405
-0.10081352 -0.0889943 -0.14183931 0.19010848 -0.032539435 0.13349028 0.13987276 0.13780649
0.02003131 0.09985519 0.13549325 0.050099 0.14689325 0.11054907 -0.09257856 0.12105901
-0.049226087 0.14275795 0.14602688 0.05989219 -0.01500633 -0.016395241 0.13376798 0.10535895
0.16762853 -0.15768024 -0.124644525 0.114174284 -0.16013604 0.16634047 -0.17656063 0.08545784
0.17439966 -0.14909814 0.03524002 0.1519572 -0.006899271 0.016220653 -0.039609794 0.024843782
-0.03659202 -0.1445131 -0.13919464 0.12250979 -0.08546873 -0.17648569 -0.03513617 -0.02675506
0.04584337 -0.1677195 0.095362835 0.08718423 -0.06535149 -0.1676013 -0.11989169 -0.1300068
-0.16820887 -0.13910592 0.08185241 0.018293014 -0.077517495 -0.07583562 -0.046145458 -0.17675078
0.15805565 0.10906665 0.114578456 -0.03398846 -0.07133041 -0.0759688 0.13757654 0.08226124
-0.07280469 0.16806583 -0.1791065 -0.059724104 -0.021512663 0.014563409 -0.0476635 0.041388277
-0.023670102 -0.13438362 -0.13627878 -0.053371724 -0.02394409 0.01819387 0.073280275 0.17903258
0.12738715 -0.17944814 0.012270467 0.010767185 0.110605165 0.03405376 0.027531601 0.086312406
0.010665581 0.16571902 -0.100852445 0.13663927 0.18490022 -0.049686357 -0.18439105 -0.024877006
0.07057348 -0.004551901 -0.072782315 -0.12147841 -0.14904518 -0.0995526 0.07025744 -0.048761655
0.18795377 -0.16637221 0.13785228 0.1053983 -0.045116365 -0.096427776 0.16117889 0.11788137
0.06829111 0.12011141 0.13540727 -0.06149306 -0.18484733 0.021388428 -0.012446269 -0.160564
-0.18914331 0.12586771 0.17131667 0.095855616 0.07644826 0.077275574 -0.005027584 -0.1309997
0.042236865 -0.18302558 -0.11359236 0.07821501 -0.05051502 0.18247378 -0.0077272914 -0.11833525
0.09748777 -0.15613711 -0.1808564 -0.12803786 -0.027735146 0.11213558 -0.06645928 0.013319712
0.03505494 0.093410365 -0.16928156 -0.1680129 0.15323524 0.14616123 -0.13963816 -0.06812377
0.011088895 0.14394106 -0.17366129 0.16168842 0.053903922 0.08414131 0.11074231 0.10466969
0.019131886 -0.06594383 0.06937881 -0.08564797 -0.11091918 -0.18738505 0.064678 -0.17487969
-0.06482957 -0.08996967 0.18758331 -0.068573736 0.16742808 0.06357383 -0.1771577 -0.09391459
-0.049417738 0.01205308 0.14476153 0.02866238 0.17980771 -0.1664154 0.0026845417 0.02701775
0.08478789 -0.02108854 0.13675028 -0.09982806 -0.05091315 -0.16672932 0.1035098 -0.021900743
-0.18466155 -0.053070527 -0.1881075 0.17188787 0.001282224 0.035430815 -0.025471611 -0.106961474
-0.01627338 -0.16318823 -0.12348257 -0.04426143 -0.15530661 0.1562097 0.07714973 0.14999105
-0.10374529 0.1677842 -0.1176327 0.12040494 0.03385663 0.068780206 -0.029566862 0.11032482
-0.037781313 -0.09063848 0.10712029 -0.13350762 -0.090266064 0.08898376 0.18996838 0.13934234

layer1.0.bias f4 [128]
00000000: b15b 08be 9588 2e3d 0b2f 92bd 82e7 3e3e
00000010: f3b2 17be 3e74 97bb 9d4c 743d 5f8f 0c3e
00000020: 9ea1 8c3d 917e 82bd c8b4 183c 50d2 973d
00000030: abce 76bd 3747 c33d aeff ea3c 4ead 393e
00000040: 25a2 273e a181 2abe 70d7 1fbe 063b db3d
00000050: 468a 673d 1ec9 9a3d 938d 903d d032 04be
00000060: 4eab 0c3e 62cf e5bd c834 04be 6560 7e3d
00000070: bc5a 99bd e47e ccbc 75aa 39be 533f d43a
00000080: 84fd 973d 7b96 2f3e 0ae1 06be ec24 04be
00000090: 4b7c 983d c18f 343d 4044 443e 6a9f 1e3e
000000a0: f090 2e3e 8cf9 efbd f35a d73d a35e 51bd
000000b0: df75 8f3d 11b8 a4bd 4905 1e3e 91f2 85bc
000000c0: 4201 e03d e19c 46bd 609b bd3d 3619 113e
000000d0: e0b6 62bd ec1b 11be be68 96bd 3849 23be
000000e0: 1bca 61bd dc57 333d 4934 a53d 8f2f 27be
000000f0: 4a16 a43d 0e0e fdbc fd24 363e 6997 17be
00000100: 9f4e 06be 2e37 343e db3c b8bd 813c a53d
00000110: f17d 05be 2206 fe3d 158e 8f3d 6268 d43d
00000120: 2982 203d d963 1f3e 83fb 87bd 4409 81bd
00000130: 70b7 17be f550 b4bd f50e 2c3e df67 bb3d
00000140: 64e1 28bd a215 a63d 25f1 1d3e 94fd 26be
00000150: fceb 46bd ddf9 5dbd 22a0 0a3d 8e1d 323e
00000160: 9b6f 0a3e e7a5 fe3c 11cf 8abd 0541 d63c
00000170: 2306 94bd 2928 2ebe b7cf 22be 72bb 27be
00000180: 0842 3e3e 6945 64bd b32e 7f3d 4a53 68bd
00000190: 08a7 d9bd 479a 37be b52c 54bc 1ab6 b33d
000001a0: bc7a 203e 882d 9abd 6e9c 043e b66f d83d
000001b0: d081 c03d 667b bc3b a547 3abe 430c 353d
000001c0: a491 b4bd 4a03 103e 9676 3c3c 0d77 8b3c
000001d0: 9d0d 4abd e301 11be 4be3 38be f079 8ebd
000001e0: b3d4 19be 92d1 b23d 0630 39be a39a b53d
000001f0: 9cde d7bd 38a0 8bbc 8251 db3d 275b 83bd
-0.13316227 0.042610724 -0.07137879 0.18643 -0.14814357 -0.0046220114 0.059643377 0.13726567
0.068667635 -0.06371797 0.009320445 0.07413161 -0.060255688 0.095350675 0.02868637 0.18132517
0.16370447 -0.16651012 -0.15609527 0.10704617 0.056528352 0.07557891 0.07058253 -0.12910008
0.13737223 -0.11221196 -0.1291076 0.062103648 -0.07488009 -0.02496285 -0.1813143 0.0016193188
0.07421401 0.17147247 -0.13171783 -0.1290471 0.07445582 0.044082407 0.1916666 0.15490499
0.17047477 -0.11717519 0.10515394 -0.051115643 0.07004904 -0.080429204 0.15431704 -0.016351016
0.1093774 -0.048489455 0.09258151 0.14169773 -0.055350184 -0.14170808 -0.07344197 -0.159459
-0.055124383 0.04378496 0.08066613 -0.16326736 0.08012064 -0.03089049 0.17787547 -0.14803852
-0.13115929 0.17599174 -0.08995982 0.08068181 -0.13036324 0.124035135 0.07009522 0.10371472
0.03918663 0.15565433 -0.06639769 -0.063005954 -0.1481607 -0.08804504 0.1680258 0.09150671
-0.041230574 0.08109595 0.1542402 -0.1630767 -0.048564896 -0.054193366 0.03384412 0.17394087
0.13519137 0.031084968 -0.06777776 0.02615405 -0.07227733 -0.17007507 -0.1589955 -0.16380098
0.18579876 -0.055730257 0.062300395 -0.056720056 -0.10627562 -0.17929946 -0.012950112 0.087749675
0.1567182 -0.07528216 0.12950298 0.10568182 0.0939976 0.005752015 -0.18191393 0.044201147
-0.08816841 0.14063755 0.0115028825 0.017024541 -0.04932939 -0.14160876 -0.18055455 -0.069568515
-0.15022545 0.087313786 -0.18084726 0.08867385 -0.10540506 -0.017044172 0.10708906 -0.0641387

layer1.1.weight f4 [128]
00000000: d174 943e c91f a33e 066b 863d 385a 383f
00000010: e8db 413f fea4 343e 54af b43e a1f5 643d
00000020: 3048 c53d 7536 453e 8a62 733e b02b 5e3f
00000030: 0eaf 403e 6401 953b beda 463f 6b5d 813d
00000040: 254b 883e ad10 6f3e cd95 5e3f 581d 953e
00000050: 7810 cb3e 9579 7d3f bba5 283f e321 423f
00000060: 6576 4b3f 6187 cb3d b49b 4c3f 1b09 573d
00000070: 3345 123f b52a 863e f515 543f 02e4 233f
00000080: ae8c 9d3c d6da 353f 17d9 1d3d 5edc 273e
00000090: 3859 343f ddbd 7a3f c032 463d 3244 363e
000000a0: 7cac 7b3f 9d02 003f b32c e33e 1b43 603e
000000b0: e511 473f d5e0 c53e 81a1 1e3f 31ec 263e
000000c0: edab de3e 8620 293f 53d4 063f cb71 de3e
000000d0: 39c4 273f 2a29 ee3e 4327 233e 7fa7 273f
000000e0: adcc 873d 13e3 0d3e af93 cf3e bccc 213f
000000f0: d5b6 f53e bcc7 e03e 1231 0b3e 5943 3e3f
00000100: fb44 563f 073e 883d e8e2 123f 675e 493e
00000110: 00c4 213f f35c 293e 5cc9 923e c57a 273f
00000120: e1fa 783e 5b35 593f 1cfc e23e 6f90 fc3d
00000130: eff0 563e 9f5a 523f 4176 773f 8db9 433f
00000140: 2f71 363f 7ffd 803d 1019 133f 8221 413f
00000150: 79a4 193f a9f6 6c3f 9f71 8f3d fc19 673f
00000160: d2ce 083f 02cc 113f bf6e 143f 5f35 0a3f
00000170: 1e71 063f 46a9 a63e a322 cb3d 7efe 133f
00000180: f419 2d3f ee66 7b3f 0123 9b3e 5e97 123f
00000190: 5db5 343e 4692 473f 1d69 183e 6782 fb3e
000001a0: 4e71 2a3f 30e9 803d 3e47 1b3f 8c40 1a3f
000001b0: 1a2d cc3d d299 3e3f 5f7c 593d 6f56 293f
000001c0: 3dad 433f 12cb b73e a786 5a3d eeef 0c3f
000001d0: b7eb 583f 4cce 3a3f 8dfd 1f3f 74c6 243f
000001e0: eecc 3c3f 6505 9a3c 94c0 e83e 677e ad3e
000001f0: 6782 223f b5ec 8b3e 81e6 113d f047 243f
0.28995374 0.31860188 0.06563382 0.7201266 0.75726175 0.17641065 0.35290015 0.055898312
0.09632909 0.19259055 0.23768058 0.8678541 0.18816778 0.004547285 0.77677524 0.06316646
0.2661983 0.23346205 0.8694733 0.2912395 0.39661002 0.99013644 0.65877885 0.7583296
0.7947753 0.09937931 0.79925084 0.052498918 0.5713684 0.26204458 0.82846004 0.6401979
0.01923212 0.7103704 0.03853711 0.16392657 0.70448637 0.9794596 0.048388243 0.17799452
0.98310065 0.5000399 0.4437004 0.21900599 0.7776168 0.38648096 0.61965185 0.16301037
0.43490544 0.6606525 0.5266773 0.43446192 0.65533787 0.4651578 0.15932946 0.65489954
0.06630836 0.13856153 0.4054236 0.63203025 0.47991052 0.43902385 0.13592938 0.74321514
0.83699006 0.06652456 0.5737748 0.19664918 0.631897 0.16539364 0.2866925 0.65421706
0.24314453 0.8484704 0.4433297 0.12332236 0.20990346 0.82169527 0.96664816 0.76455003
0.71266454 0.062983505 0.5746012 0.75441754 0.6001659 0.92563874 0.070040934 0.90274024
0.5344058 0.56951916 0.57981485 0.5398769 0.52516353 0.3255102 0.09918716 0.578102
0.67617726 0.98203933 0.30300143 0.5726222 0.1764731 0.7795757 0.14883848 0.49122927
0.6657914 0.06294477 0.6065558 0.6025474 0.0996954 0.7445346 0.053097125 0.6614751
0.76436216 0.35897118 0.05335107 0.55053604 0.8473467 0.72971034 0.6249626 0.64365315
0.737502 0.0188014 0.45459425 0.338855 0.6348023 0.2732903 0.035620216 0.6417227

layer1.1.bias f4 [128]
00000000: c6b0 ffba b8b7 ed3a a67a d53a 8013 f5ba
00000010: 3a19 00bb bc76 fdba cae3 013b 9890 ef3a
00000020: 6c22 033b e6eb 02bb ebf0 93ba ae3c b73a
00000030: a08d e139 84eb efba e47f 623a 2c01 e639
00000040: 008e 303a 7a50 013b 6aae bdba 4a8a ebba
00000050: e8ea b1ba b07a e4ba 2812 faba a486 f9ba
00000060: c06d d9b9 142b fa3a 0473 d83a 2ceb f33a
00000070: d4d6 743a 3897 0bba a0ad e7ba 9e17 dbba
00000080: 7bde 493a 0af7 bf3a cd12 b33a c0e1 013b
00000090: eecd 25ba d490 7eba 50c3 eab9 a847 4c3a
000000a0: 5639 033a a083 ef39 1010 02bb e6f6 f2ba
000000b0: e596 f83a 1014 fdba 3080 86ba 37be 023b
000000c0: 1a60 ec39 e6db de3a 9e70 f339 a008 c73a
000000d0: 7ef4 2a3a d4c2 ee3a d2de 453a 389a dcb9
000000e0: 7a01 a73a f081 f43a aeee fbba a5a0 02bb
000000f0: c65a 8139 94a5 c13a 53b9 02bb 0a1e 3c3a
00000100: 3bc7 e5ba cfa1 00bb f866 f73a 2be4 ff3a
00000110: 28cf 013b acf5 f5ba 0624 01bb 82ca 00bb
00000120: 86fa 173a 827a e2ba d218 72ba 52b7 dd39
00000130: 648d 9fba 79f0 82ba 9451 e53a a0c3 563a
00000140: 359d 5dba f857 013b dcc7 dfb9 fa6f d739
00000150: 40e8 02bb f728 983a 9ec5 fcba c668 083a
00000160: e06c 1d3a 4cf1 efba c63c ccba 9788 f1ba
00000170: b2c7 02bb cea5 1aba e017 fa3a 4c6c 6e3a
00000180: 4224 ed3a 7537 323a 11ae 9b3a 5d18 ecba
00000190: 6a20 02bb 9eda fd3a 3801 96ba d42f fd3a
000001a0: 5b42 f73a 72e0 ebba 708a f0ba 4e9a 01bb
000001b0: e0d6 8f3a 95b8 783a dc09 14ba 549b dcba
000001c0: cf07 a3ba 7416 f93a 96d0 d03a aa23 483a
000001d0: 389e f63a 769a ffba 0a4a ecba 54e2 d4b9
000001e0: 1d51 683a 16ae 86ba 92f2 d4ba 4e8b fcba
000001f0: f221 9739 f3b8 753a 1246 09ba a0ce f93a
-0.0019507639 0.0018136417 0.0016287162 -0.0018697828 -0.0019546286 -0.0019337754 0.001981961 0.0018277345
0.002000953 -0.0019977032 -0.0011287009 0.0013979876 0.00043020863 -0.0018304442 0.0008640273 0.00043869892
0.0006735027 0.0019731806 -0.0014471535 -0.001797029 -0.0013574036 -0.0017431583 -0.0019078897 -0.0019037318
-0.00041471235 0.0019086325 0.001651377 0.0018609515 0.0009339873 -0.00053249625 -0.0017675646 -0.0016715412
0.00077006937 0.0014645767 0.0013662219 0.0019818395 -0.00063249364 -0.0009710912 -0.00044777477 0.000779266
0.0005005797 0.000456837 -0.0019846 -0.0018536716 0.0018965869 -0.0019308347 -0.0010261592 0.0019949803
0.0004508503 0.0017002791 0.00046432478 0.0015185066 0.00065214175 0.0018216022 0.00075481564 -0.00042076572
0.0012741529 0.0018654447 -0.0019220912 -0.0019932177 0.0002467243 0.0014774078 -0.0019946888 0.0007176107
-0.0017530689 -0.0019627695 0.0018875292 0.0019522955 0.0019807313 -0.0018765233 -0.001970531 -0.0019651954
0.0005797524 -0.0017278942 -0.0009235266 0.0004228899 -0.0012172875 -0.0009989879 0.0017495626 0.00081926025
-0.00084539066 0.0019736271 -0.0004268278 0.00041091425 -0.0019974858 0.0011608888 -0.0019284969 0.0005203601
0.00060052983 -0.0018306165 -0.0015582077 -0.0018427548 -0.0019955453 -0.00058993406 0.0019080602 0.0009095117
0.0018092471 0.0006798425 0.0011877437 -0.0018012632 -0.0019855746 0.0019367521 -0.0011444455 0.0019316622
0.001886438 -0.0017995967 -0.0018351804 -0.001977581 0.0010974072 0.0009487954 -0.0005647221 -0.0016830959
-0.001243824 0.0019003884 0.0015931304 0.0007634709 0.0018815463 -0.0019500989 -0.0018027436 -0.0004060442
0.00088621845 -0.001027527 -0.0016246608 -0.001926759 0.00028826256 0.0009373568 -0.00052365765 0.0019058771

layer1.1.running_mean f4 [128]
00000000: f4e0 72c1 90d6 5742 a9ca ecc1 b10d 76c1
00000010: faa9 4d41 09e0 3541 84e3 2cc1 42b5 42c0
00000020: 7864 98c1 5a21 5641 f153 3541 1ca7 773f
00000030: 0b29 36c0 ca03 a4c1 567e c941 f090 9641
00000040: b558 cfbf 4f65 a040 fec9 5441 7b7c d140
00000050: 3bcc dec1 8a26 5140 da67 1cc0 e006 6540
00000060: f539 95c1 b25d 8741 15b7 1f41 3567 b940
00000070: b753 1442 729f 3ec1 c7b5 a9c1 0edc b53f
00000080: 92bf 12c2 f102 2441 c8c8 b7c1 ea1c 02c0
00000090: 4686 1bc1 f2c9 8a3f af5d 8041 cc4e 5641
000000a0: ad53 ae41 6cd2 c3c0 3e56 f840 1acd 8cc1
000000b0: 5d06 f9c1 30f8 d640 22cf 9b40 b412 14c1
000000c0: 2aea 0cc2 a7a5 7341 3167 2bc1 39af 5e41
000000d0: 1f19 5fc1 617a bfc1 12ed 60c0 fb6e 82c1
000000e0: 68f4 8640 cb4a 1640 6c7f 66c1 ec5a 9240
000000f0: c33d 84c1 aa80 3740 f55e 6241 f43e 9140
00000100: bdbb 43c1 0b9f 9ac1 300c 4fc1 5cfd 4441
00000110: 4c81 11c0 9a1c b240 b2aa 96c1 9a32 9441
00000120: d664 80c1 3a62 7fc1 78d7 9141 a8c6 edc0
00000130: 1bba 9041 ac6f 4fc1 72ff 54c1 d4d8 da3d
00000140: 0d57 a0c1 3c4b 2ac0 3ffc a441 597b 1b40
00000150: 27e4 2340 f504 8441 1429 cd40 b0cd 1b41
00000160: a07a 2841 0fca 8a41 398c c63f a035 f7bf
00000170: 1a83 0642 853b 3cc1 c45e 2ec2 2525 ae41
00000180: d2d8 8fc1 74a8 a0c1 4997 3541 ce52 dbbf
00000190: cfd5 11bf 8b5b c041 9c7c 4341 f661 d2c1
000001a0: b182 9440 08c7 a9c1 4c88 8341 2882 6541
000001b0: be8b 4241 d792 30c1 686c b7c0 08a8 0e41
000001c0: 1031 9fc1 e1fd 43c1 dd47 0842 55d3 21c1
000001d0: a8a5 b241 f9b0 3c41 89e0 dd3f 21f3 47c1
000001e0: acb2 8841 f942 6d40 84ab 0cc1 e6f0 8d41
000001f0: 1ad5 4941 a78f 35c1 ea45 f9c0 6c9a 0541
-15.17992 53.959534 -29.598955 -15.378343 12.853998 11.367196 -10.805546 -3.042313
-19.049057 13.383142 11.3329935 0.96739364 -2.846255 -20.50185 25.186687 18.82077
-1.6198946 5.012367 13.2993145 6.5464454 -27.849722 3.2679772 -2.4438386 3.5785446
-18.6533 16.92075 9.982198 5.7938485 37.081753 -11.913927 -21.213758 1.420778
-36.68708 10.250718 -22.973038 -2.0330148 -9.720282 1.0842879 16.045744 13.3942375
21.790857 -6.1194363 7.7605276 -17.600147 -31.128107 6.7177963 4.869035 -9.254566
-35.228676 15.227942 -10.712693 13.917779 -13.943633 -23.934755 -3.5144696 -16.30419
4.2173347 2.348315 -14.406109 4.573599 -16.530157 2.867228 14.148183 4.5389347
-12.233335 -19.327658 -12.940475 12.311855 -2.2735167 5.5659914 -18.833347 18.524708
-16.049236 -15.961481 18.23021 -7.4305 18.090872 -12.964764 -13.312365 0.10685888
-20.042505 -2.660842 20.623167 2.4294035 2.5608003 16.50242 6.4112644 9.737717
10.529938 17.348661 1.5511543 -1.931324 33.62803 -11.764531 -43.592545 21.768137
-17.98087 -20.082253 11.349435 -1.7134645 -0.5696687 24.044699 12.217922 -26.297832
4.6409535 -21.222183 16.441551 14.344276 12.159117 -11.03585 -5.731983 8.916023
-19.898956 -12.249482 34.07018 -10.114095 22.330887 11.793206 1.7334148 -12.496858
17.087242 3.7072127 -8.791874 17.742626 12.614527 -11.347571 -7.7897844 8.350201

layer1.1.running_var f4 [128]
00000000: 7b12 c443 c9bc 4145 4165 9344 2348 bb43
00000010: 5996 4d43 660e a843 cd5b 2043 6633 8f42
00000020: 20dd d843 8f76 a043 1ee5 7e43 b803 7b43
00000030: 58ec 0343 5ae9 d643 1b3c 3844 0195 f643
00000040: 5ec9 4642 02d3 ae42 2194 9a43 f72b c642
00000050: e4ec 4e44 3538 3543 01c1 7542 3428 8e42
00000060: bfc5 0244 49a0 9e43 27e7 3c43 3848 7643
00000070: 2356 ad44 5028 8d43 aa47 f743 fa0d 9842
00000080: bdfc bd44 ccf8 2b43 9725 6244 9719 a142
00000090: f295 1e43 4b5d 9b42 1fcc ca43 cb7e ac43
000000a0: c331 1044 e73f 1243 0925 b242 1512 d143
000000b0: 747b 9f44 48eb 4f43 7691 7a43 d1b0 2443
000000c0: 6f82 b944 5ee3 de43 d793 5b43 37ab a843
000000d0: 5cd0 bd43 a7f8 4f44 6816 2343 2175 b643
000000e0: 73e7 d842 22ef 9043 f2b5 8443 33e9 f842
000000f0: 8947 aa43 cf3e ce42 03f2 9243 500f 9043
00000100: 1e5e 2343 76b7 0944 3c90 a143 f2be 5a43
00000110: 34a2 b542 ae44 2143 179e ed43 68fe ba43
00000120: d5f6 aa43 6ab3 cf43 27f7 0d44 f077 f942
00000130: 2edc f743 6764 6143 9cc6 4e43 968f c342
00000140: dbdf 0a44 7c81 fa42 f7cc ea43 7c63 fc42
00000150: d966 4d42 3a45 1944 6b83 0143 9689 3e43
00000160: 5748 8d43 5df8 ff43 818f b742 497b 4843
00000170: 4a7f a844 438b 8043 ac6c 0145 2479 0b44
00000180: 42dc e543 cc36 ed43 76db c343 115b d442
00000190: 8d44 ff42 9929 2b44 41c3 a243 347f 5e44
000001a0: d9ed b042 523d 2644 43fb 0344 d075 bd43
000001b0: 2078 5443 8f6c 4743 8750 2243 5d20 1943
000001c0: 7bb6 2744 5e88 5d43 1758 9e44 eb3d 4243
000001d0: 0feb 1e44 e0b8 8043 4e4a 8c42 a360 a443
000001e0: 45ad cd43 cbfa 6443 8d56 f842 d934 e243
000001f0: 6ebc a943 92d7 a543 1749 1943 8e97 7143
392.14438 3099.799 1179.1642 374.56357 205.5873 336.1125 160.3586 71.60039
433.72754 320.92624 254.89499 251.01453 131.92322 429.82306 736.93915 493.1641
49.696648 87.412125 309.15726 99.08587 827.7014 181.21956 61.43848 71.07852
523.0898 317.25223 188.90294 246.2821 1386.6918 282.31494 494.55988 76.0273
1519.8981 171.97186 904.58734 80.54998 158.58572 77.68221 405.5947 344.99057
576.7775 146.24962 89.072334 418.14127 1275.8579 207.91907 250.5682 164.69069
1484.076 445.7763 219.5775 337.33762 379.6278 831.8852 163.08752 364.91507
108.45205 289.86823 265.42145 124.45547 340.55887 103.12267 293.89072 288.11963
163.36765 550.8666 323.12683 218.74588 90.8168 161.26828 475.23508 373.98755
341.92838 415.40167 567.86176 124.73425 495.72015 225.3922 206.77582 97.78044
555.49774 125.2529 469.6013 126.194305 51.350437 613.08167 129.51335 190.53745
282.56516 511.94034 91.78028 200.48158 1347.9778 257.08798 2070.792 557.8928
459.72076 474.4281 391.71454 106.177864 127.63389 684.64996 325.52542 889.98755
88.46455 664.9581 527.92596 378.9204 212.46924 199.42406 162.31456 153.12642
670.85126 221.53268 1266.7528 194.24187 635.6728 257.44434 70.14513 328.75497
411.35367 228.97966 124.169044 452.41287 339.4721 331.68414 153.2855 241.59201

layer2.0.weight f4 [64, 128, 3, 3]
00000000: c531 21bc 78a6 ec3c 765f 72bc ce07 b4bc
00000010: 355a 10bc aa1b aebc 474e f5bb 8d41 c73c
00000020: 575e 963a e033 05bb 0d1d d83c 89be 32bb
00000030: fe8e 7dbc f627 e2bc 241b aa3c a3b5 973c
00000040: 295f 193c 5565 1c3c 1430 e73b ec0f e83c
00000050: 5d49 b83b dc9b 8dbc 8745 d9bc 64c5 7b3c
00000060: 504a ed3c 97ed 9c3c 1076 083a 38e0 d23c
00000070: b1e5 81bc 4976 cfbc 7ac1 3a3c d74d 493c
00000080: 4af3 b9bb 4b53 22bc 4bcc ca3c faf0 343c
00000090: 8a22 783c b00f af3b c9f8 cabc bc0b 2e3c
000000a0: 31d2 423c 7b40 d0bb 53a2 47ba d681 8b3b
000000b0: abd1 953c f46c dfbc ea60 27bb dabd a93c
000000c0: 6178 ddbb 477a 31bc 19ad b23c 0672 8bbc
000000d0: 8efd 87bc 618d 933c 674a ad3b 49c1 bc3c
000000e0: 8c4b 05bc c9a5 a6bc a741 62bb b275 aebb
000000f0: d6cc 49bc d66c eabc 4482 0bbb 9a5a c03c
00000100: 2a95 2d3c 586a f1bc c2c9 c73b f0f2 af3c
00000110: a135 993c 4346 813c fe89 c93c b8da 8b3c
00000120: 402e ccbb 01ea bb3b fc12 61bc e4aa 423c
00000130: 4d04 10bc 85c4 a0bc a787 e43a 265b bebb
00000140: f9fc e2bc dbd0 a03b 969b be3c a456 56bc
00000150: 0b52 b23c 501e 31bc 448b 8b3b 5cd5 83bc
00000160: d5bb fb3b 2d59 82bc c686 403c db77 d0bc
00000170: 3d86 163c 1336 813c 5d7f b3bc 7c55 af3c
00000180: 3c8f c23c 4c62 1cbb 925a 1a3c 80f4 81bc
00000190: fe2a a13c 1904 b73a b12a 39bc e3b7 bcbc
000001a0: 4b78 4b3c e03c eabc 9606 eb3c 2780 e4bc
000001b0: 52ab c8bc 7905 89bb ae97 143c dbcd 8b3b
000001c0: 8bd5 93bc 53ff 433c 724d cc3c e586 bf3c
000001d0: 8897 4fbb e8cb d33c bd0f be3c e066 c4bc
000001e0: a2a3 d2bb d61d a2bc 9af4 893c 824c 263c
000001f0: b262 d4bc ecbd 9fb8 cbdc 2abc 1bae 4e3c
00000200: 38fb 963c 1f2f 23ba b7a7 18bc a79f e3bc
00000210: ad8e a4bc ef4f dc3c 02fb 7cbc 38ed 743b
00000220: 9a39 bdbc 2f9d ea3b 69ee 83bc 8334 aebc
00000230: 2b26 7d3a 9475 bcbc ea9a 633c 9937 8bbc
00000240: 65fb c9bc 42b9 c33c 41fd 743c e186 d93c
00000250: f594 dfbc 33eb ce3c 58e2 a73c 36bb efbb
00000260: 525e 54bc f490 c13c 8ff0 0eba 6d95 a5bc
00000270: 158b 60bb 40c4 04bb c3a5 30bc 6f2b ce3c
00000280: 4bbd 9fbc da6c a9bb 1e0f b73b 1e6e 723c
00000290: eaeb 9c3c bb68 95bb 6670 cabc d087 a7bc
000002a0: c694 b2bc aec0 7abc 50e3 b1ba f02e d5bb
000002b0: 529a 37bc 1c05 bd3b d590 8d3c 129a b0bc
000002c0: a40f 6a3c b5c1 41bc 8632 ab3c 53ab c93c
000002d0: b205 e1bc 5f89 63bc 1062 b2bc d9c2 bb3c
000002e0: 670c e6bc 341a 453c 1a09 dbbc dff0 cd3c
000002f0: 07b7 acbc ff33 cabb 6e1c 63bc dcec 2ebc
00000300: 07e1 263c c253 e6bc 71ca cfbb 26c9 d73c
00000310: 8881 52bb 1e25 d6bc 2795 c8bb bfed cfbc
00000320: 18b8 663c 6304 8e3c bcd8 d13a 1495 a3bc
00000330: ad78 533c 0069 5e3c 68e3 35bb 23a7 6e3a
00000340: e32e bb3c 99ee 79bc 479c 9dbb a938 8dbb
00000350: 6d65 a03c e903 90bc 1f99 cdbc a3d4 c0bc
00000360: e6d1 b53c 5577 c1bc 7c86 80ba 5b1f 363b
00000370: 4cb4 7839 7084 9f3c 24c3 84bc 0ebd 433c
00000380: 85a4 a3bc ad1e 8a3c c57a ac3c e608 5b3c
00000390: 2ac0 3239 b8ea 9b3b 12ee 363c 8eee 383c
000003a0: 35af ef3b 5529 f03c bfde 34bc ef25 9c3b
000003b0: 02f7 59bc 9d77 933c 73fb 053c 791c f3bc
000003c0: f352 da3b a1a1 a8bc 0f02 9c3c 1c36 9539
000003d0: 0484 993c 503d ccbc 6916 b2bb e410 5d3c
000003e0: 0567 fdbc 506c 57bc d11e 953c 0361 8f3b
000003f0: a637 573c 41d4 a53c 5ede af3c d9b1 1bbc
-0.009838526 0.028887972 -0.0147932675 -0.021976378 -0.0088105695 -0.021253426 -0.007486138 0.02432325
0.0011472207 -0.002032511 0.02638104 -0.0027274212 -0.0154759865 -0.027606945 0.020764895 0.018519228
0.009361067 0.009545644 0.007055292 0.028327905 0.00562398 -0.017286234 -0.026522411 0.015366886
0.028966099 0.01915626 0.0005205581 0.025741681 -0.015856596 -0.025324957 0.0113986675 0.012286625
-0.0056747543 -0.009907554 0.024755618 0.011043781 0.0151449535 0.0053424463 -0.024776833 0.010622915
0.011890934 -0.006355343 -0.0007615436 0.004257421 0.018288454 -0.027273633 -0.0025539943 0.020720411
-0.006758735 -0.010832376 0.021811055 -0.017022144 -0.016600396 0.01801175 0.0052884105 0.023041384
-0.008135688 -0.020342724 -0.0034523995 -0.005324089 -0.012316903 -0.02861635 -0.002128736 0.023480702
0.0105946455 -0.029469654 0.0060970495 0.021478146 0.01870233 0.015780574 0.024601933 0.017072067
-0.0062310994 0.0057346825 -0.013737436 0.011881564 -0.008790088 -0.019624958 0.0017435447 -0.0058092056
-0.027708517 0.00490771 0.023267549 -0.01308218 0.021767637 -0.01081045 0.004258545 -0.016092949
0.0076823034 -0.015911663 0.0117508825 -0.025447777 0.009187278 0.015772855 -0.021911317 0.021403067
0.02374994 -0.00238623 0.009421008 -0.015863657 0.01967382 0.0013963013 -0.011301682 -0.023036903
0.012418817 -0.02859348 0.028689664 -0.027893139 -0.024495754 -0.0041815606 0.009069366 0.0042664832
-0.018046161 0.0119627295 0.024939273 0.023379752 -0.0031676013 0.025854066 0.023200864 -0.023974836
-0.006428198 -0.019789618 0.016840268 0.010150077 -0.025925968 -7.6170865e-05 -0.010428618 0.012614752
0.018430337 -0.0006224978 -0.00931733 -0.02778609 -0.020087564 0.026893584 -0.015440704 0.0037372839
-0.023098756 0.007159851 -0.016104894 -0.021265274 0.00096568716 -0.023005284 0.013891915 -0.016994284
-0.024656007 0.023892049 0.014952959 0.026553573 -0.027292708 0.025258636 0.020493671 -0.0073160185
-0.012961941 0.02362869 -0.0005452716 -0.020212853 -0.0034262587 -0.0020258576 -0.010781708 0.025167195
-0.019499442 -0.005170447 0.005586519 0.014796762 0.019155461 -0.004559604 -0.024711799 -0.020450503
-0.021799456 -0.0153047275 -0.0013571773 -0.0065058395 -0.011206226 0.0057684314 0.017280975 -0.021557841
0.014285956 -0.0118259685 0.020898115 0.024617827 -0.027468536 -0.013887732 -0.021775275 0.022920059
-0.028082086 0.012030173 -0.026737738 0.02513927 -0.021083368 -0.006170749 -0.013861759 -0.010676589
0.010185487 -0.02811611 -0.0063412716 0.026341032 -0.0032120664 -0.026140746 -0.006121296 -0.02538192
0.014081977 0.017336076 0.0016010026 -0.019968547 0.012907189 0.013574839 -0.0027753953 0.0009103885
0.022849506 -0.01525464 -0.0048098895 -0.004309733 0.019579614 -0.01757999 -0.025097428 -0.023538893
0.022194814 -0.023616472 -0.0009805704 0.0027789685 0.00023718289 0.01947233 -0.016206332 0.01194693
-0.01997591 0.01686033 0.021054635 0.013368821 0.0001704699 0.0047582053 0.011165159 0.011287345
0.0073145875 0.029316584 -0.011039435 0.004765264 -0.01330352 0.018001372 0.008177626 -0.029676663
0.0066627203 -0.020584883 0.01904395 0.0002845981 0.018739708 -0.02493158 -0.0054348004 0.013492797
-0.030932913 -0.013148382 0.018203171 0.0043755784 0.013135826 0.020242812 0.021468338 -0.009502851

layer2.0.bias f4 [64]
00000000: f939 aebc fe2e debc 27be 733c 670c dabc
00000010: 1d21 a4bb 1246 c93c 6056 1bbb 2b3f 8abc
00000020: 3350 29ba b137 02bc f035 68bc a4c3 d1bb
00000030: a2f0 68bc a68b d0bc d1a4 c03c de59 f8bb
00000040: 64d4 18bc 8965 803c 61bc be3c 944f 29bb
00000050: 942b bd3c 6813 f03c bd8b 73bc ad1d 89bc
00000060: 796c 87bc a8bb 283b 28b8 0a3b 1212 733c
00000070: 935d cd3c 118b 8fbc d04f efbc f0ec bd3c
00000080: 6c6a 0dbb 395a b1bc 1262 6e3c 8c05 83bc
00000090: 84fe 253c 010a fcbb d950 7bbc 795d 873c
000000a0: bd50 43bc 26e6 9bbc 2c0f 09bc c075 5b3c
000000b0: d8b2 0f3c e344 b7bc 1299 bd3b effa aa3c
000000c0: 2c52 d9bb 938c 583c 43de c43c a14a bb3b
000000d0: 6e33 c33c 702b 983c d44b 533c 0148 ccbc
000000e0: b872 dc3c 4504 8fbc aa3c cb3c 2eb5 88bc
000000f0: 5e0b 583c 8496 8cbb e280 1dbc 02af b93c
-0.021267878 -0.027122017 0.014876879 -0.026617242 -0.00500883 0.024569545 -0.0023702607 -0.016875824
-0.0006458789 -0.007947848 -0.014173016 -0.006401496 -0.014217528 -0.025457215 0.02351609 -0.0075790724
-0.009327982 0.015673416 0.023283185 -0.0025834786 0.023092069 0.029306129 -0.014864859 -0.016737783
-0.016531216 0.0025746617 0.0021166895 0.014835851 0.025069034 -0.017522367 -0.029212862 0.02318427
-0.0021578325 -0.021649467 0.014549749 -0.015993856 0.010131482 -0.0076916222 -0.0153391 0.016524063
-0.011921105 -0.019030642 -0.008365434 0.013394773 0.008770667 -0.022371715 0.0057860697 0.020871608
-0.00663211 0.013217109 0.024031764 0.0057156836 0.023828235 0.0185754 0.012896497 -0.024936678
0.02691017 -0.01745809 0.0248092 -0.016687956 0.013186304 -0.004290404 -0.009613248 0.022666458

layer2.1.weight f4 [64]
00000000: 9890 313f 1b18 4c3f d3f2 283f f0e0 503f
00000010: e0cf a13e 1ad0 673e b00c 6b3f 2f7e a03e
00000020: c566 2f3f 2403 073f 406c 6b3f da0b 343f
00000030: cdfc 393f 2b09 2d3f 7a46 393f 5901 813e
00000040: fe64 583f 7ad2 713e affe bf3e b44d ac3d
00000050: 13d9 5c3e ad90 9e3e 3396 743f 54e4 0e3f
00000060: 0b35 323f 5252 a23e d818 e53e a04b e93e
00000070: d88b 5b3f 571d 5e3f 712d 7e3e 0177 bc3d
00000080: 7b66 0b3f 8bad 053f e098 6c3f bad3 413f
00000090: b56c c83e fe5a 073f 91bb 613f 39ed 6f3f
000000a0: 4a66 4c3f 490a ec3e ff84 aa3e c241 043d
000000b0: 445e 513f 0359 db3e 6289 2a3f 0fe2 613e
000000c0: 1b43 953e 67c8 123d c1fb c93e e06b 753f
000000d0: a6f5 663e cbdd 543f f251 353f 8e8b d13e
000000e0: c348 1d3f d416 de3e 7969 323e db42 5a3f
000000f0: 7c72 293f ddc8 ce3e 1061 3f3f 7a30 953e
0.6936126 0.7972428 0.6599552 0.8159323 0.3160391 0.22637978 0.91816235 0.3134627
0.6851619 0.5273917 0.9196205 0.70330584 0.7265137 0.67592114 0.72373164 0.2519634
0.845291 0.23615447 0.37498996 0.08413258 0.21567182 0.30969754 0.95541686 0.5581715
0.6961219 0.3170343 0.44745517 0.4556551 0.8576026 0.8676352 0.24822022 0.09202386
0.5445325 0.5221793 0.9242077 0.75713694 0.39145437 0.5287322 0.8817683 0.9372135
0.7984358 0.46101597 0.33304593 0.032289274 0.8178446 0.42841348 0.6661588 0.22058891
0.2915276 0.03583565 0.39449885 0.9586773 0.22554645 0.8315093 0.70828164 0.40926784
0.6143915 0.4337679 0.17423047 0.85258263 0.66190314 0.40387622 0.7475748 0.29138547

layer2.1.bias f4 [64]
00000000: 32fb e6ba be31 a939 d400 e63a 4aaa f8ba
00000010: c8e3 e63a b9ae f93a 8e1d 03bb ba8e 39ba
00000020: 2049 18ba 5015 6f3a e3cb f53a 176c f3ba
00000030: 5c00 e2ba 96cf 02bb edfc 9cba 5ed1 463a
00000040: 0a82 013b 928f 00bb 9428 e7ba 561b 673a
00000050: 7702 03bb 92cf f43a 2d94 5eba d2a0 df3a
00000060: d482 9ab9 a37f 0bba d40b e53a 39c9 003b
00000070: 1c65 edba 4d72 c8ba 56da 003b e074 50ba
00000080: aa13 e7ba 5e33 2f3a 08d1 ecba 1aa6 023b
00000090: c469 fdba 8efb 02bb 2aa8 01bb a00d c9ba
000000a0: 4e8b 9e39 12ba f83a 8cf5 d5b9 38c3 9bb9
000000b0: 4958 0c3a 72f7 e7ba 7c01 eaba 8af7 e83a
000000c0: 324e f43a 1a55 123a f09c da3a 5456 ef3a
000000d0: 5044 ccba e67d e13a e88c 463a b99a 013b
000000e0: 264f 013b acb5 edba aa8e 92ba 69d3 edba
000000f0: dc43 003b f33c 7eba 5ed6 e9ba 70b3 abb8
-0.001762247 0.00032271253 0.0017547854 -0.0018971649 0.0017615492 0.0019049264 -0.002000663 -0.0007078458
-0.00058092363 0.0009120302 0.001875278 -0.0018571642 -0.0017242539 -0.0019960157 -0.0011977233 0.0007584299
0.0019761347 -0.0019616825 -0.0017635995 0.0008816024 -0.0019990483 0.0018677583 -0.0008490708 0.0017061478
-0.00029470643 -0.00053214486 0.0017474839 0.0019651188 -0.0018111798 -0.0015292853 0.0019661388 -0.0007951986
-0.0017629762 0.00066833745 -0.0018067667 0.001993543 -0.0019333889 -0.0019986364 -0.0019784071 -0.0015339144
0.00030239898 0.0018976352 -0.00040809473 -0.00029709353 0.00053537317 -0.0017697646 -0.0017853226 0.0017773968
0.0018639027 0.0005582139 0.0016678851 0.0018259981 -0.0015584324 0.0017203658 0.0007574097 0.001977606
0.0019731014 -0.0018135807 -0.0011181433 -0.001814467 0.0019571697 -0.0009698413 -0.0017840376 -8.187338e-05

layer2.1.running_mean f4 [64]
00000000: c5f4 0a3d 39f3 903c 50e3 673c 896a 90bd
00000010: 6d33 933b 4af6 803d f417 c9bc e8b9 07bd
00000020: df37 a8bd 844c fe3b a419 d4bc 4887 023c
00000030: b44d e03b 5a3b 9dbd 96ed 16bd 5f80 093d
00000040: 82d5 5fbd af3f 873d 37f8 9d3c 95ff 16bc
00000050: 3927 3c3c 79f5 79bd c89d a9bd 1cf8 ec3c
00000060: 1207 9ebc 99ea 2c3d 89cb a93c 7ca2 843d
00000070: db20 d8bb df5e 443d 4b88 45bd c951 c83d
00000080: cf3f 28bc 92d8 9dbd 5391 debc 6223 993c
00000090: 1b7c 523d 3702 b8bc 4ba6 40bd 7f07 1e3b
000000a0: 19db e53c 4cc3 c7bc 3f63 50bd 1bef 743d
000000b0: 0109 563c 1151 ef3b 02d6 bebd 465f 233d
000000c0: 4bd2 4f3d 42f2 193c 62a2 3dbc ea42 6c3c
000000d0: 9ff7 8f3c e3c7 b7bb bdbb 283d 9c24 043d
000000e0: cc68 b7bd d6a8 99bd f109 3abd 6714 4a3b
000000f0: 9f86 aebc 2c28 a3bd e5e3 46bd 14e0 bb3c
0.033924837 0.017694103 0.014153317 -0.0705157 0.0044922144 0.06296976 -0.024547555 -0.03313628
-0.082137816 0.007760586 -0.025891133 0.007966824 0.0068452004 -0.07677336 -0.036847673 0.03356969
-0.054646976 0.066039436 0.019283397 -0.009216209 0.011483961 -0.061025117 -0.082820475 0.028926902
-0.01929048 0.042215917 0.020726936 0.06476304 -0.0065957136 0.04794204 -0.048225682 0.09781224
-0.010269119 -0.07707323 -0.027168905 0.01869363 0.051387887 -0.022461994 -0.04703359 0.0024113355
0.028058575 -0.024385117 -0.0508759 0.05979834 0.01306367 0.007303365 -0.093181625 0.03988578
0.05073766 0.009396138 -0.01157436 0.01442025 0.01757413 -0.005608545 0.041194666 0.032261476
-0.08955535 -0.07502906 -0.045419637 0.0030834915 -0.021304427 -0.079666466 -0.04855718 0.022933997

layer2.1.running_var f4 [64]
00000000: ae2f 513f 385f 513f f71f 523f f798 533f
00000010: 4b77 513f 2a22 523f 184f 513f d668 513f
00000020: 1486 523f 47f0 513f e2f3 533f 6544 513f
00000030: 3020 523f 6674 513f 9a2c 513f f0d9 503f
00000040: cfd2 563f 1371 513f 6fff 513f c85e 523f
00000050: 500b 523f 2881 553f fd45 523f a58f 513f
00000060: bc59 513f fa23 523f 3963 503f 9821 513f
00000070: b537 513f 62fc 543f 20a6 523f 6c68 543f
00000080: d42a 563f bc29 523f 5c7f 523f 8cd9 523f
00000090: 070e 523f 2ab7 503f ebc4 503f 11a4 513f
000000a0: ff9d 513f 0e47 533f e218 523f 0093 543f
000000b0: bd17 523f f55c 513f 5c2c 523f 4397 513f
000000c0: 7d17 513f 4ccc 543f 3305 553f bb76 513f
000000d0: 2c93 533f d3f7 503f 02ae 503f fc66 573f
000000e0: 3ae0 523f 9b26 5b3f fd39 573f 1797 503f
000000f0: c077 533f 16e3 533f beb8 513f 2281 513f
0.8171338 0.8178592 0.82080024 0.8265528 0.8182265 0.8208338 0.8176131 0.8180059
0.82235837 0.8200726 0.8279401 0.81744987 0.82080364 0.81818235 0.8170868 0.81582546
0.8391542 0.8181316 0.82030386 0.82175875 0.8204851 0.834002 0.82138044 0.8185981
0.8177755 0.82086146 0.814014 0.81691885 0.8172563 0.83197606 0.82284737 0.82971835
0.836591 0.8209493 0.82225585 0.823632 0.82052654 0.81529486 0.8155047 0.8189097
0.8188171 0.82530296 0.8206922 0.83036804 0.8206747 0.81782466 0.8209894 0.8187143
0.81676465 0.8312423 0.8321106 0.81821793 0.8264644 0.8162815 0.81515515 0.84141517
0.8237339 0.8560578 0.8407286 0.81480545 0.826046 0.8276838 0.8192252 0.81837666

layer3.0.weight f4 [32, 64, 3, 3]
00000000: e51e 0d3d 6fe7 ec3c df42 9ebc f70f 67bc
00000010: 862e cb3b 9232 5d3c 1fb3 873c 9a0c 2d3c
00000020: f717 8abc 53f3 2d3c 7504 79bb 2f29 90bc
00000030: 0c4c 7cbc 587d 203d 1dfd bf3c aaf1 d43c
00000040: 76d6 0ebd 7e07 7dbc e628 183c c1b8 36bc
00000050: 07cb 3c3c 74dc 063c d865 cb3c ab33 07bd
00000060: 784f 2ebb 0871 f8bb 54df 0cbd 1335 b33c
00000070: d001 f73c 30d2 cebc a925 d5bc 921a 553c
00000080: 917b 0fbd 0e38 e43b 847a fd3c b704 7f3b
00000090: 2276 ab3c c965 243c 7a8b f83c a25e d13c
000000a0: b4d6 cdbc a98e 20bd 4044 a73b 9329 193d
000000b0: c904 f23c f301 723c 969c c5bc 6a6a 003d
000000c0: a84d 28bc ee08 233d 3cdd 8c3c 295d 993b
000000d0: 2edb cebc e663 e83b ba9d 243d 4899 bc3c
000000e0: 91e0 d8ba 298d 183d c847 ccbc f983 32bc
000000f0: 4917 a2bc 121b 2cbc 8706 033d f77c 2a3d
00000100: 5878 0dbc 316e 0f3d a60c 6539 ac9e 97bb
00000110: c8a3 afbc 91d6 c83b a882 8d3c 49f6 d9bc
00000120: 9015 cfb8 bc74 833b 892e 8eba b151 0f3d
00000130: e589 a8bc 8caa 813b 7667 1cba 903b 0bbd
00000140: d94c ddbc 8f9f 193d 6ef3 d73c 2bbd e9bb
00000150: 00f0 0dbd b896 c4bc bda7 fd3c e862 bbbc
00000160: 3b99 383c 69ff 72bc da47 ebbb d595 d5bc
00000170: 45dd dfbc 83fd 12bd 0d87 bf3c 9d30 863c
00000180: be76 a0bb cfb6 b53c dd9e 963c 7c2c 0ebd
00000190: ae25 233d 3f80 cebc d5b2 d53b c7e1 cb3c
000001a0: 2217 b4ba ba43 62bc 8834 b03c 9a71 05bc
000001b0: 7fb9 d4bb 9b05 18bc 29e4 b3bb dfc3 0d3d
000001c0: db9b 8fbb 16f6 98bc 5716 153a 7166 efbc
000001d0: 1d1d a43c baf8 68bc ce87 ed3b 8a91 70bc
000001e0: bb51 37bc b529 8c3c 5f6e 9f3c 3a2d 233c
000001f0: f988 c43c df82 09bd 7fc3 aa3b 4adf 8c3c
00000200: 11b3 1abd 38d4 a9bc f335 02bd f028 ef3c
00000210: 7e4d 0dbb 26a8 dbbc 8dbd 933c 089f 1ebd
00000220: f352 40bc 15b5 f43c 4c09 d3bc bf38 623b
00000230: 1cfd fabc 890d 073d d54c d1bc 71d0 de3c
00000240: 0c73 d63c 6065 6b3c a8c7 10bd 8366 0e3d
00000250: cccd b23c a140 9e3c 26d5 12bd 1754 3f3c
00000260: 0bcd 813c 646f f73b 97f0 bdbc 942b e73b
00000270: a672 0a3d 49b2 123d aa24 84bc c2e0 8abc
00000280: 14cb 96bc efa3 ecbc 9b41 fd3c 514c dd3c
00000290: 256c 1c3d f9de c8bc c06b 0bbb f2b8 2bbb
000002a0: 66d8 b8bc fec0 af3c 07bc ca3c d8fb 5bbc
000002b0: 4856 e4bc 7761 003c d90a 35bc 8c55 f1bc
000002c0: ca1c 013d d49b c83c 86db 173b 43cc dcbc
000002d0: 0941 8fbc 178d ce3c 89e2 033d 909d b0ba
000002e0: da95 96bc 3b65 59bb 419f 23bc bbb4 35bc
000002f0: 0abe bc3c 9439 f53a e7ce 043d 2750 0bbc
00000300: 7ab7 1ebd 3d0c f53c b0ae 7c3c 0e79 0f3d
00000310: c1da 203d f0cb 8ebc 0ce4 253d e6c5 973c
00000320: 9a7d 473b 35f0 163c d699 c93c 9d4c c63c
00000330: a648 d73c 08dd 623b 3662 f03c 016d d4bb
00000340: f706 463c 7aa6 81bb b436 b93b 9acd 8bbc
00000350: 2daf 16bd 6839 fd3b 3877 b83c ce3d 8d3c
00000360: 2eeb 313d d178 24bc 541d 0d3d be4f f4bb
00000370: 8ccf ee3c 53cc a5bc 2a18 cebb a6aa e3bc
00000380: 4e6a 0c3d cc52 fe3c fe15 8aba ee43 963c
00000390: 8d36 35bc 38c9 eb3c 5fa7 cebc 01fa f83c
000003a0: 5d01 18bc 2916 03bd af75 67bc f900 183d
000003b0: 4300 053c b9ce 0b3d 7e03 53bc 56e5 c0bc
000003c0: f625 9b3a f968 1ebb 0f4d 19bd 2500 a43c
000003d0: 818f 093d b429 12bc 81dd a0bc 25c7 76bc
000003e0: 90d9 27bb 3a13 193d 4f6b b73c 4309 103c
000003f0: da3a 153d ee15 08bd 3a5a b23c ca05 67bb
0.03445329 0.02891895 -0.019318996 -0.014102927 0.0062006144 0.013500826 0.016564904 0.0105620865
-0.01685713 0.010617095 -0.0037997041 -0.017597763 -0.01539899 0.039182037 0.023436124 0.02599414
-0.034872495 -0.015443681 0.009287095 -0.011152447 0.011523015 0.008231271 0.024828836 -0.03300826
-0.002659766 -0.0075818338 -0.03439267 0.021875894 0.030152231 -0.02524671 -0.026018934 0.013006823
-0.03502995 0.00696469 0.030942209 0.0038912722 0.020930354 0.010034033 0.030339945 0.02555782
-0.025126792 -0.03919855 0.0051045716 0.037393164 0.029543297 0.014770973 -0.024122518 0.031351484
-0.010272421 0.039803438 0.017195337 0.004680295 -0.025250997 0.007091987 0.040189482 0.023022309
-0.0016546418 0.037243996 -0.024936572 -0.010895723 -0.019786494 -0.010504501 0.031988647 0.041623082
-0.008634649 0.035017196 0.00021843854 -0.0046270695 -0.021440402 0.006129094 0.017274216 -0.026606696
-9.8745455e-05 0.0040117186 -0.0010847609 0.034990016 -0.020573566 0.0039570983 -0.00059663446 -0.03399235
-0.027014183 0.037505683 0.026361194 -0.0071331463 -0.03465271 -0.02399765 0.030963773 -0.02287431
0.011267002 -0.014831402 -0.0071801962 -0.026072422 -0.02732719 -0.0358863 0.023379827 0.016380602
-0.0048969677 0.022181896 0.018386299 -0.034710392 0.039830856 -0.025207637 0.0065215626 0.024887932
-0.0013739804 -0.013810093 0.021509424 -0.0081447605 -0.0064918394 -0.00927868 -0.0054898453 0.034610625
-0.004382593 -0.01867203 0.0005687228 -0.029223653 0.020033414 -0.014219457 0.007248855 -0.014683137
-0.01118892 0.017109731 0.019461809 0.009959513 0.023991095 -0.033572074 0.005211293 0.017196316
-0.037768427 -0.020731077 -0.03178973 0.029194325 -0.0021561082 -0.026813578 0.01803472 -0.038725883
-0.011738527 0.029871503 -0.025761269 0.0034518687 -0.03063827 0.032971893 -0.025549332 0.027199002
0.026177905 0.014367431 -0.035346657 0.03476573 0.021826647 0.019317927 -0.035847805 0.011677763
0.015844842 0.0075511206 -0.023186011 0.0070547555 0.033800744 0.035814557 -0.016130764 -0.016952876
-0.018407382 -0.028886763 0.030915072 0.02701393 0.038189072 -0.024520384 -0.002127394 -0.0026202765
-0.022564124 0.02145433 0.024747862 -0.013426743 -0.027873173 0.007835737 -0.01104995 -0.029459737
0.031521596 0.024488367 0.0023171618 -0.026952868 -0.017487066 0.025213761 0.032198463 -0.0013474692
-0.018382002 -0.003317191 -0.0099867 -0.011090453 0.023039836 0.0018709176 0.03242388 -0.0085029965
-0.038749196 0.029913062 0.015422508 0.035027556 0.03927112 -0.01743123 0.040500686 0.018526983
0.0030439855 0.009212543 0.024609488 0.024206454 0.026279759 0.0034616608 0.029343706 -0.006482721
0.0120866215 -0.003956613 0.005652273 -0.017065812 -0.036788154 0.0077277906 0.022517785 0.017241385
0.043437175 -0.0100385705 0.034451798 -0.007455795 0.0291517 -0.020239031 -0.0062895017 -0.027791332
0.034281068 0.03104534 -0.0010535119 0.018342938 -0.011060369 0.028782472 -0.025226293 0.030392649
-0.009277669 -0.032003555 -0.014127179 0.037110303 0.008117738 0.034132693 -0.012879251 -0.023546856
0.0011836875 -0.0024171455 -0.037427004 0.0200196 0.03358412 -0.008921076 -0.019636871 -0.015062128
-0.0025611855 0.03737185 0.022390036 0.008791271 0.03643308 -0.03322404 0.021771539 -0.0035251253

layer3.0.bias f4 [32]
00000000: 9bd2 fe3b d989 253d d9fd 98ba e4f2 1dbd
00000010: 38dc 21bd 6d17 c63c 21ff 0a3d 1ee7 17bd
00000020: 9805 04bd aa85 39bc be60 0fbd 1711 e3bc
00000030: 262c 4dbc 8c92 65bc 8dd1 403c 6cf5 90bb
00000040: ddd2 b13a 6805 553c 328e eabb 7d6b 193c
00000050: ea24 af3c 0447 2d3b ab9c b5bc eaf4 17bd
00000060: 4d4b 16bd ae4b 0ebd 972d 733b 1ed0 da3c
00000070: 0309 24bc d3b4 00bd 2888 3abb 71e2 fa3c
0.007776571 0.040414665 -0.0011672332 -0.038561717 -0.039516658 0.024181092 0.033934716 -0.037085645
-0.032231897 -0.011323372 -0.03500437 -0.02771811 -0.012522733 -0.01401199 0.011768711 -0.004423788
0.001356687 0.013001777 -0.0071580643 0.009364006 0.021379907 0.0026440034 -0.022169432 -0.037098803
-0.036692906 -0.034740143 0.003710603 0.026710566 -0.010011914 -0.031422447 -0.0028462503 0.030625554

layer3.1.weight f4 [32]
00000000: 4947 5e3f 3c25 d33e 6a25 e93e 1d20 123f
00000010: b418 7b3f 18f8 213f 7b3e 633d e1b7 433e
00000020: 7651 d13e a107 0a3f 473f 5a3e a64f d13e
00000030: bb51 643f f613 133f e7ea 3c3f c981 623f
00000040: bc81 ea3e abb6 313f 2e4d d33c a160 7b3f
00000050: e3ce 383f 2d65 103d 3839 ac3e 182f 103f
00000060: 2a66 6f3f 2b78 253e 50ca 263f 8aa3 313d
00000070: f874 293f fed5 883d ba8e 473f 5d59 613e
0.8682752 0.41239345 0.45536357 0.5708025 0.9808457 0.63269186 0.055479508 0.19113113
0.40882462 0.5391789 0.21313201 0.4088108 0.8918721 0.5745233 0.7379593 0.88479286
0.45802104 0.69419354 0.025793638 0.9819432 0.72190684 0.03525274 0.33637404 0.5632186
0.93515265 0.16159122 0.65152454 0.043368854 0.66194105 0.06681441 0.7795216 0.22006746

layer3.1.bias f4 [32]
00000000: b2aa c139 3982 02bb def3 86b9 5f63 ffba
00000010: e49e 333a 1c46 adb9 ae34 f33a baae d839
00000020: 803f eaba 7016 03bb 3e57 f93a 643f f8ba
00000030: 4465 f3ba 24fe b739 6c60 96b9 1075 9939
00000040: eb04 01bb e786 f1ba 24e6 f1ba 2835 8d3a
00000050: c214 ea3a fb14 013b 609b 693a d292 f0ba
00000060: aa0b f43a 25fe f73a 4a08 f83a 4e82 f2b9
00000070: 22b4 b7b9 b81b f039 e114 fb3a 6615 013b
0.00036939007 -0.0019914045 -0.00025740167 -0.0019484571 0.00068519847 -0.00033049367 0.0018555128 0.00041328912
-0.0017871708 -0.0020002387 0.0019023193 -0.001893979 -0.0018569608 0.0003509383 -0.0002868207 0.00029269652
-0.001968677 -0.0018427045 -0.0018455428 0.0010773288 0.001785897 0.0019696343 0.00089113973 -0.0018354303
0.0018619199 0.0018920345 0.0018923369 -0.00046254921 -0.0003503869 0.0004579702 0.0019156003 0.0019696592

layer3.1.running_mean f4 [32]
00000000: 26ce 6e3d 5fe7 093d 27be f3ba 475b 813d
00000010: a49d 7e3c 7ef6 653d c088 a13d 6d30 bfbc
00000020: ec95 0fbd 0f25 e43c 8d14 263d c3bc 2abd
00000030: b4de e1bc 8202 a4bc f7b5 2fbc 0b8b f1bc
00000040: a9c6 5c3d 0379 703c 9793 763d c55a 0fbd
00000050: 876f b53c 573a 7f3d 43e2 013e 3eb6 713c
00000060: 34bb 2fbd bc9f bb3d 249f 57bc bea5 ccbc
00000070: e6fc 05be 7c34 933b 105a d5bb f2c2 a2bd
0.058302067 0.03366792 -0.0018596099 0.06316238 0.015540514 0.056143276 0.07887411 -0.02333852
-0.035055086 0.027849702 0.040546943 -0.041683923 -0.027572013 -0.020020727 -0.010724536 -0.029485246
0.053900395 0.014677289 0.060199346 -0.034998674 0.022147907 0.062311497 0.12683968 0.014752923
-0.04290314 0.09161326 -0.013160501 -0.024981376 -0.13084754 0.0044923406 -0.0065109804 -0.07947339

layer3.1.running_var f4 [32]
00000000: 5641 523f b97f 523f 5fac 513f 7c75 523f
00000010: d2de 523f 07c4 533f e6a9 563f 39e1 513f
00000020: 458a 523f 3517 533f f7e6 543f 4a22 533f
00000030: 30c3 543f 8124 513f 5c76 523f dbef 513f
00000040: 7b6e 513f 7778 513f a731 553f d5fa 523f
00000050: b79b 573f 26d7 543f d4a6 5b3f d32f 523f
00000060: eb23 553f 0b9a 543f 0821 513f 54c5 513f
00000070: f851 5c3f 46ab 513f bc83 533f aea8 543f
0.82130945 0.8222614 0.8190364 0.82210517 0.82371247 0.8272099 0.83852994 0.8198429
0.8224223 0.82457286 0.83164924 0.82474196 0.8311033 0.81696326 0.8221185 0.82006615
0.81809205 0.8182444 0.8327889 0.8241399 0.84221977 0.8314079 0.85801435 0.82104224
0.8325793 0.8304755 0.81691027 0.81941724 0.86062574 0.8190197 0.82622886 0.83069885
