5312331.b16e2.model (torch_old, 820387 bytes, 32 tensors)

layer1.0.weight f4 [128, 3, 3, 3]
0	0xbe2f701a	-0.17132607
1	0xbd05661c	-0.032568082
2	0x3d5680b3	0.05236883
3	0xbe1fc40a	-0.15602127
4	0xbe3290f6	-0.1743811
5	0x3d14e10f	0.036347445
6	0xba8cc1fa	-0.0010738962
7	0xbe29f78d	-0.1659834
8	0x3e29ceb8	0.16582763
9	0xbdf4e3ae	-0.11957489
10	0xbd452599	-0.04813156
11	0x3db0589d	0.08610652
12	0xbe448175	-0.19190009
13	0xbd107814	-0.035270765
14	0x3cb350f4	0.021889187
15	0x3ddb4cf5	0.10708038
16	0xbe0f8393	-0.14015035
17	0xbd24bf6c	-0.040221617
18	0x3c12dba7	0.008963502
19	0x3e2e576c	0.17025536
20	0x3bc3cca8	0.0059753247
21	0x3d2765f4	0.040868714
22	0xbe1a9815	-0.15097077
23	0xbdd7a410	-0.10529339
24	0xbe1546b4	-0.14577752
25	0x3e4114e2	0.18855622
26	0x3e28ee72	0.1649721
27	0x3dbc24bc	0.09186694
28	0x3d5b35e7	0.053518202
29	0x3dac36f4	0.08408919
30	0x3dd7e8d5	0.10542456
31	0xbe214dc6	-0.15752324
32	0x3deaf1a2	0.11471869
33	0xbd62f485	-0.055408973
34	0x3e3e33d4	0.18574458
35	0xbe0567b7	-0.13027845
36	0xbdacc8a5	-0.084367074
37	0x3e37b828	0.17941344
38	0x3db386bc	0.08765933
39	0x3c196f4f	0.009364917
40	0xbbc4f046	-0.006010088
41	0xbd091e19	-0.03347597
42	0xbd73db46	-0.059535287
43	0x3e0d98d2	0.13827828
44	0xbe2e47f1	-0.17019631
45	0xbdee57c0	-0.11637831
46	0x3d6593f4	0.056049302
47	0x3e0265cd	0.12734146
48	0x3dbc1198	0.09183043
49	0xbdc295e5	-0.09501246
50	0x3dd189e0	0.10231376
51	0x3d890e76	0.06692211
52	0xbdabed29	-0.08394844
53	0xbe237d47	-0.15965758
54	0xbd869bab	-0.0657266
55	0xbdc64adb	-0.09682246
56	0xbd556022	-0.052093633
57	0x3dd86a3d	0.10567138
58	0xbc8d0f2e	-0.017219152
59	0x3dfe66b7	0.12421935
60	0x3dd6cf68	0.10488778
61	0x3e0efd21	0.13963749
62	0xbe2633af	-0.16230653
63	0xbe0f487f	-0.13992499
64	0x3e025d37	0.12730871
65	0x3dd4b812	0.10386671
66	0xbd17e971	-0.03708786
67	0x3e04389d	0.12912221
68	0xbde0af6b	-0.10970958
69	0xbe28558f	-0.16438888
70	0x3e27c265	0.1638275
71	0x3e3e2d74	0.18572026
72	0xbc83b923	-0.016079491
73	0x3e19b4c5	0.15010364
74	0xbd46efce	-0.04856854
75	0xbd8c7bcd	-0.068595506
76	0xbc3bdb2e	-0.011465831
77	0x3e22b8e1	0.15890838
78	0xbd6f3d6a	-0.05840818
79	0xbc00500b	-0.007831584
80	0xbd2cdc08	-0.042202026
81	0x3dfdeb56	0.123984024
82	0x3c5f2741	0.013620199
83	0x3d790843	0.060798895
84	0xbd1f74de	-0.038929813
85	0xbdc273c0	-0.09494734
86	0x3d338f19	0.04383764
87	0xbde0d2ff	-0.10977744
88	0x3e3b95b8	0.18318832
89	0x3e194bf5	0.14970382
90	0x3e2647c1	0.1623831
91	0xbd8c6b08	-0.06856352
92	0x3dc7ef99	0.097624965
93	0x3e279019	0.16363563
94	0x3e35791b	0.1772198
95	0xb9e2a90a	-0.00043232023
96	0xbd80aca7	-0.06282931
97	0x3e237a33	0.15964584
98	0x3e010d45	0.12602718
99	0xbd81baea	-0.06334479
100	0x3ccd93db	0.025094917
101	0xbc35645a	-0.011071289
102	0x3e2268a2	0.15860227
103	0x3d0a77ca	0.033805646
104	0xbd955ee9	-0.07293493
105	0xbe2cd830	-0.16879344
106	0x3b4d20b2	0.0031300006
107	0xbc2d1211	-0.010563389
108	0x3e08bf2f	0.13354181
109	0xbd2f2169	-0.04275647
110	0x3e2e6d73	0.17033939
111	0xbc849160	-0.016182601
112	0x3e0659ed	0.13120241
113	0x3d9c482c	0.07630953
114	0xbe3bfe63	-0.1835876
115	0x3e2716b1	0.1631725
116	0xbe30cdfa	-0.17266074
117	0x3de2c27c	0.11072251
118	0x3e132a2b	0.14371555
119	0xbdb7c944	-0.08973935
120	0x3e3ea908	0.18619168
121	0xbc76bce8	-0.015059687
122	0x3de24ba3	0.11049583
123	0x3d20befa	0.03924463
124	0x3e08d933	0.13364105
125	0x3e419b28	0.18906844
126	0xbcca368e	-0.024684217
127	0x3e0d96c2	0.13827041
128	0x3cd65271	0.026162358
129	0x3cca8eee	0.024726357
130	0xbe31bb56	-0.17356619
131	0x3e29c738	0.16579902
132	0x3ddd2495	0.10797993
133	0x3d870d71	0.065943606
134	0x3c8007d7	0.015628738
135	0xbe1ba5c7	-0.15199958
136	0x3e0d584d	0.13803215
137	0xbd4c5c96	-0.049892984
138	0x3e1b6f69	0.15179218
139	0xb9b0aa80	-0.00033696368
140	0xbde113ab	-0.109900795
141	0x3dbf223f	0.09332704
142	0x3cb48423	0.022035664
143	0x3e43d0d5	0.19122632
144	0xbe18f78b	-0.1493818
145	0x3df2d0f6	0.118562624
146	0x3d9dd737	0.077070646
147	0xbe085170	-0.13312316
148	0x3db77a1d	0.08958838
149	0x3d780b18	0.060557455
150	0x3e1dc5ab	0.15407436
151	0xbe18ae51	-0.14910246
152	0xbdc0fe4e	-0.09423505
153	0xbd118a0d	-0.035532046
154	0x3c14b554	0.009076435
155	0x3da564c9	0.08075864
156	0x3e11b7d3	0.1423028
157	0xbd1a1dda	-0.037626125
158	0xbd84fa12	-0.064930096
159	0x3d8395fa	0.0642509
160	0x3dd86501	0.1056614
161	0xbc33fc12	-0.010985391
162	0x3de6cf89	0.11270053
163	0xbe0a7a4f	-0.1352322
164	0xbd347742	-0.044059046
165	0x3e38bf9d	0.18041845
166	0x3b147c1e	0.0022656987
167	0xbe1cecb8	-0.15324676
168	0x3cd01d12	0.025404487
169	0xbe2a04d0	-0.16603398
170	0x3e43b61e	0.19112441
171	0xba728f92	-0.0009252961
172	0xbd6e06ab	-0.058111828
173	0x3e22017b	0.15820877
174	0x3d45d532	0.048299022
175	0x3cfb076f	0.030643193
176	0xbd55589c	-0.052086458
177	0xbda9c6f1	-0.08289898
178	0xbe24f797	-0.16110073
179	0xbd2c6b22	-0.042094357
180	0xbc24edf0	-0.010066494
181	0xbe205775	-0.15658362
182	0xbd5c875e	-0.053840034
183	0x3e18c5ca	0.149192
184	0xbe406a71	-0.18790604
185	0x3dbf0fdc	0.09329197
186	0x3ded82f2	0.115972415
187	0x3e1c7aa1	0.15281154
188	0xbd56bde9	-0.052427206
189	0xbcd4e6e1	-0.025988998
190	0xbc4e6983	-0.012598398
191	0x3d8ed142	0.069735065
192	0x3e0a032b	0.13477771
193	0x3d4e6373	0.05038781
194	0xbd0c835b	-0.034304958
195	0xbc52885f	-0.012849896
196	0xbe131bba	-0.14366046
197	0xbdf0d1dc	-0.117587775
198	0xbd9101fd	-0.07080457
199	0x3e17089d	0.1474938
200	0x3d14b8fc	0.036309227
201	0x3d8b77c1	0.068099506
202	0xbbe07804	-0.0068502445
203	0xbcaae1c2	-0.020859603
204	0xbde663ab	-0.11249479
205	0x3d44a0dd	0.048004974
206	0x3e0c8524	0.13722664
207	0x3d70c02e	0.058777027
208	0x3d900c47	0.07033592
209	0x3d4f83ee	0.050662927
210	0x3d134e96	0.035963617
211	0xbc65b35e	-0.014019815
212	0xbe37b572	-0.1794031
213	0xbe3e1a0e	-0.18564627
214	0x3d48d1aa	0.049028076
215	0xbda2f142	-0.079561725
216	0x3e3dbfc3	0.18530183
217	0x3e1b6d91	0.15178515
218	0x3cfb2397	0.030656619
219	0x3db02415	0.08600632
220	0xbdc0445a	-0.09388037
221	0x3d308520	0.043095708
222	0xbd8161bd	-0.0631747
223	0xbe026be4	-0.1273647
224	0x3d7571dd	0.05992304
225	0xbe312d08	-0.17302334
226	0xbdc9704d	-0.09835873
227	0x3dcb4577	0.09925359
228	0x3b9e693c	0.0048343223
229	0xbd8a96ba	-0.0676703
230	0x3df40908	0.11915785
231	0x3d9c7d59	0.07641096
232	0x3dfb38a9	0.122666664
233	0xbe1ae4b2	-0.15126303
234	0x3d804c2d	0.062645294
235	0xbd3170ed	-0.043320585
236	0xbd3d3231	-0.046190444
237	0x3e39d67b	0.18148224
238	0x3e23d7a6	0.16000232
239	0xbe150343	-0.14552025
240	0xbd75debc	-0.06002687
241	0x3d8dfa5f	0.0693252
242	0xbe23b6f4	-0.1598776
243	0xbc6f6f1d	-0.014613894
244	0x3d45c434	0.048282817
245	0xbcd5707b	-0.026054611
246	0x3cae9d99	0.021315383
247	0x3d2e06f8	0.042487115
248	0x3deaea87	0.11470514
249	0xbde27809	-0.11058051
250	0xbde96c1f	-0.113975756
251	0xbd33373d	-0.04375385
252	0xbaf071a8	-0.0018344419
253	0xbd1b8a4a	-0.03797368
254	0xbe21e20f	-0.15808891
255	0xbe448034	-0.1918953

layer1.0.bias f4 [128]
0	0xbd9fcf1f	-0.07803177
1	0xbd9290b1	-0.07156504
2	0xbe4415cb	-0.19148938
3	0xbdf9acc8	-0.121911585
4	0xbe0392ac	-0.1284892
5	0xbdeb658c	-0.11493978
6	0xbc6a8ca8	-0.014315762
7	0x3d47fef0	0.04882711
8	0x3cbaea67	0.02281685
9	0x3c85134b	0.016244551
10	0xbd0afc2e	-0.033931904
11	0x3d666bfc	0.056255326
12	0x3e0ba629	0.13637604
13	0x3def0d8c	0.11672506
14	0x3c85a4b9	0.016313897
15	0xbe321c05	-0.17393501
16	0x3df03752	0.117293015
17	0x3e0bf490	0.13667512
18	0xbe1eae5c	-0.154962
19	0x3dc4aa9e	0.09602855
20	0x3e102053	0.1407483
21	0x3e138e94	0.14409858
22	0x3d916341	0.07099009
23	0xbe0af4fd	-0.13570018
24	0xb99ca5d2	-0.00029878184
25	0xbd461cd4	-0.048367336
26	0x3e0a06a2	0.13479093
27	0xbce76743	-0.028247481
28	0xbe0cb4a3	-0.13740782
29	0x3e38cdc3	0.18047242
30	0xbd58466a	-0.052801527
31	0xbcb7f0cf	-0.022453694
32	0xbd0cf154	-0.034409836
33	0xbd0c073c	-0.034186587
34	0x3de87659	0.11350698
35	0x3d84211f	0.0645163
36	0xbe059f61	-0.1304908
37	0xbdff697d	-0.12471292
38	0x3d12d663	0.035848986
39	0x3d85bcec	0.065301746
40	0x3e327220	0.17426348
41	0xbda60eb6	-0.08108275
42	0x3e29b7e0	0.16574049
43	0x3d31971a	0.043356992
44	0xbc85b869	-0.016323285
45	0x3dbaba81	0.09117604
46	0xbd05b11a	-0.0326396
47	0xbd84e65f	-0.06489252
48	0x3dd34d73	0.10317507
49	0xbd825a85	-0.063649215
50	0xbe3c1600	-0.18367767
51	0x3d3ab00b	0.045578044
52	0x3d832d85	0.064051665
53	0xbd085553	-0.033284497
54	0x3e3b7550	0.1830647
55	0x3d659492	0.05604989
56	0xbc551d1f	-0.013007431
57	0xbe3dbd88	-0.18529332
58	0xbd95e776	-0.07319538
59	0x3e3223bb	0.17396443
60	0x3e172201	0.14759065
61	0x3dc710a3	0.0971997
62	0x3e02bf18	0.12768209
63	0x3d5b9703	0.053610813
64	0x3e206dc5	0.15666874
65	0x3d6c0edc	0.05763136
66	0xbd54e79e	-0.0519787
67	0x3e292ccc	0.16520995
68	0xbd0f666f	-0.035009798
69	0x3dc56212	0.09637846
70	0xbd61c367	-0.05511799
71	0xbd824b82	-0.06362058
72	0xbe2bf932	-0.16794279
73	0xbd976702	-0.07392694
74	0xbe2471d7	-0.16059051
75	0xbd0cd2c4	-0.03438069
76	0xbe3123a0	-0.17298746
77	0x3d17c58c	0.03705363
78	0xbe06e84f	-0.13174556
79	0xbca70d6f	-0.020392148
80	0x3c258578	0.010102622
81	0xbde54102	-0.1119404
82	0xbe1f47c0	-0.15554714
83	0x3d5415d2	0.051778622
84	0x3cc93bb0	0.024564594
85	0xbd88daaf	-0.066823356
86	0xbe3debae	-0.18546936
87	0xbe2c29c4	-0.16812807
88	0xbd837055	-0.0641791
89	0x3de8316b	0.11337551
90	0x3b6ab3e0	0.003581278
91	0xbe1711ac	-0.14752835
92	0x3e0afa32	0.13572004
93	0xbde44dc1	-0.11147643
94	0x3d7cb645	0.061697263
95	0xbe0e51b1	-0.1389835
96	0x3cfac836	0.030613046
97	0xbd7e5cae	-0.062100105
98	0xbe1a5c4b	-0.1507427
99	0xbc1716e8	-0.00922177
100	0xbd021463	-0.031757724
101	0xbddec320	-0.10877061
102	0x3e42d65e	0.19027087
103	0x3da44b5e	0.08022188
104	0x3e3c5f93	0.18395834
105	0xbe0ce933	-0.13760833
106	0x3e41283a	0.18863001
107	0x3e42b06b	0.1901261
108	0xbe166891	-0.14688326
109	0xbe27ee5c	-0.1639952
110	0xbe3a6702	-0.18203357
111	0xbdeb0c34	-0.11476937
112	0x3dba74b8	0.091042936
113	0xbc3e27e4	-0.01160619
114	0x3e2b3209	0.16718306
115	0xbdadd85f	-0.08488535
116	0x3da9968a	0.08280666
117	0xbe30a07d	-0.17248721
118	0xbdf363e9	-0.11884291
119	0x3dd808a8	0.10548526
120	0x3c6137af	0.013746186
121	0x3e38294f	0.17984508
122	0x3e05f8d0	0.13083196
123	0x3d6aa935	0.057290275
124	0x3d9c6d90	0.07638085
125	0x3d26d6ff	0.04073238
126	0x3dd141e4	0.10217646
127	0xbd82f889	-0.063950606

layer1.1.weight f4 [128]
0	0x3f032d90	0.512414
1	0x3f07dabe	0.5306815
2	0x3f41143c	0.754215
3	0x3c0efecf	0.008727743
4	0x3f0c1bb3	0.54729766
5	0x3eb6fa60	0.35737896
6	0x3f038078	0.513679
7	0x3f3dd25c	0.7414911
8	0x3f29f34b	0.6638686
9	0x3dbc83bb	0.09204813
10	0x3edc1534	0.42984927
11	0x3f10bdaa	0.56539404
12	0x3f3c476c	0.7354648
13	0x3e3ca184	0.18420988
14	0x3eb9d06c	0.36291826
15	0x3ec53a70	0.38521147
16	0x3f274f8f	0.6535577
17	0x3e741c6f	0.23838972
18	0x3ecc4a1c	0.3990029
19	0x3f30256a	0.6880709
20	0x3f788004	0.97070336
21	0x3ec1598f	0.3776364
22	0x3f556d0c	0.8336952
23	0x3ed2e948	0.41193604
24	0x3f4f43e0	0.80962944
25	0x3ed90144	0.42383778
26	0x3d3650ee	0.044510774
27	0x3d4d0ba7	0.05005994
28	0x3e9e2f99	0.3089569
29	0x3e9aaa19	0.302079
30	0x3e2cc265	0.1687103
31	0x3dac51d3	0.08414044
32	0x3f631eff	0.8871917
33	0x3f7a6c72	0.97821724
34	0x3f47ad53	0.77998847
35	0x3f3e9fe8	0.7446275
36	0x3f5ea0ea	0.86964285
37	0x3efcc9da	0.4937275
38	0x3f0782bd	0.52933866
39	0x3dfc9e41	0.12334872
40	0x3eedc11f	0.46436402
41	0x3e8d00f0	0.27539778
42	0x3eb0ba27	0.34517023
43	0x3efc4b9f	0.49276444
44	0x3f718c0f	0.9435434
45	0x3f41e83d	0.7574499
46	0x3f44eda5	0.76925117
47	0x3f040a9f	0.51578707
48	0x3df37eb8	0.11889404
49	0x3f724323	0.9463369
50	0x3efc58b6	0.4928643
51	0x3e33704e	0.1752331
52	0x3d5b824e	0.053591065
53	0x3c823e65	0.015898893
54	0x3f33d9f7	0.7025446
55	0x3f4d6512	0.80232346
56	0x3f68ab7e	0.90886676
57	0x3e21f94c	0.15817755
58	0x3e1d320a	0.1535112
59	0x3f4e0a65	0.8048461
60	0x3e88c609	0.2671359
61	0x3e6bccb4	0.23027307
62	0x3f513010	0.8171396
63	0x3f0edf5a	0.5580956
64	0x3f43b6da	0.76450884
65	0x3e3bdd40	0.18346119
66	0x3d35feba	0.04443238
67	0x3d670fbc	0.05641149
68	0x3f66f199	0.902124
69	0x3dc9e72a	0.09858544
70	0x3ee21125	0.44153705
71	0x3c9bde98	0.01902704
72	0x3efdb9e8	0.49555898
73	0x3efab1b8	0.48963714
74	0x3e0ae996	0.13565668
75	0x3eb0725d	0.34462252
76	0x3f4c2efb	0.79759187
77	0x3efd9942	0.4953099
78	0x3ec35485	0.3815042
79	0x3f41e556	0.75740564
80	0x3e5dae6a	0.21648565
81	0x3f03fa0f	0.51553434
82	0x3f5f220e	0.8716134
83	0x3f064245	0.5244487
84	0x3c125f41	0.008933843
85	0x3dd499a9	0.10380871
86	0x3f0c140e	0.547181
87	0x3f08a170	0.53371334
88	0x3e65ed6c	0.2245385
89	0x3eb266a6	0.3484394
90	0x3f56157c	0.8362653
91	0x3f7da9df	0.9908733
92	0x3ef86bcf	0.4851975
93	0x3f30c8b0	0.69056225
94	0x3f4a68d8	0.7906623
95	0x3dee0b2c	0.116232246
96	0x3f674a87	0.90348095
97	0x3f1fd33e	0.62431705
98	0x3e56db39	0.20982064
99	0x3f65e1a6	0.8979744
100	0x3eae8c3c	0.34091365
101	0x3bc546c5	0.0060203993
102	0x3c462545	0.012093847
103	0x3f4b4b67	0.7941193
104	0x3f7e4138	0.99318266
105	0x3f792557	0.973226
106	0x3ebd00ca	0.36914665
107	0x3ccdab1e	0.02510601
108	0x3f5d8061	0.86524016
109	0x3f16cb6e	0.5890416
110	0x3ee28dae	0.44248718
111	0x3f1612dc	0.5862253
112	0x3f4d3ecf	0.80173963
113	0x3f2a3de9	0.6650072
114	0x3eeec7c7	0.46636793
115	0x3d7546c6	0.059881948
116	0x3d43855b	0.0477346
117	0x3f5cd0a5	0.86255866
118	0x3d9bc6e2	0.07606293
119	0x3e31f8e0	0.17380095
120	0x3e8e7b4e	0.2782845
121	0x3c85bbce	0.016324904
122	0x3d1a77b7	0.037711825
123	0x3ef63b0c	0.48091924
124	0x3f150dbb	0.58224076
125	0x3eacd1f1	0.33753923
126	0x3dc0fc3b	0.09423109
127	0x3d334ae5	0.043772597

layer1.1.bias f4 [128]
0	0xb9c9dd36	-0.00038502523
1	0xb9cf18e2	-0.00039500656
2	0xbad4bd78	-0.0016230782
3	0xbaedc2e4	-0.0018139747
4	0x3a12a929	0.0005594665
5	0xbaf5a22a	-0.0018740345
6	0x39c573f6	0.00037661166
7	0x398aa334	0.00026443007
8	0xb9bdc62a	-0.00036196533
9	0x3ae9f85c	0.0017850506
10	0xbb001a03	-0.0019546754
11	0x39b9ccbc	0.0003543849
12	0x3a666299	0.0008788496
13	0x3984e980	0.00025350973
14	0x3aceeabe	0.0015786511
15	0x3b02ab84	0.0019938657
16	0x39b4b930	0.0003447025
17	0x398fdb20	0.00027438346
18	0x3aef605b	0.0018262969
19	0xba089804	-0.00052106404
20	0xba794b8b	-0.0009509853
21	0xbb0198cf	-0.001977492
22	0xbaf83703	-0.0018937293
23	0xbac4d4e2	-0.0015017057
24	0x39d13d36	0.00039909192
25	0x3abf63f0	0.0014601927
26	0x3af6a706	0.0018818087
27	0xb9228ef8	-0.00015502784
28	0xba2d4f1e	-0.00066112156
29	0x3ab9c424	0.0014172834
30	0x39bc2fec	0.0003589386
31	0xbae6f564	-0.001762074
32	0x39b3a692	0.00034265645
33	0x39bc21a8	0.0003588323
34	0x3b0254ec	0.0019887043
35	0xbaef5cd0	-0.0018261913
36	0x39d5681a	0.00040704088
37	0xbae18a53	-0.0017207362
38	0xbae72369	-0.0017634454
39	0xba122584	-0.0005575048
40	0xba22920e	-0.00062015734
41	0xbaecd464	-0.0018068668
42	0x39a22e58	0.00030933577
43	0xbae7c7fc	-0.0017683501
44	0xbaf10ba4	-0.001839031
45	0x3af4e19f	0.0018682963
46	0x3a141d9c	0.0005650164
47	0xb98b0c7c	-0.00026521448
48	0x39f4ef54	0.0004671762
49	0x3a43191c	0.0007442401
50	0xb9ac615e	-0.0003287894
51	0xba129cca	-0.00055928214
52	0x399d4394	0.00029995723
53	0x3afcdf56	0.0019292634
54	0x39986ee8	0.0002907433
55	0x39ba4626	0.0003552895
56	0x3aefabfa	0.0018285506
57	0x39cdbec0	0.00039242767
58	0xb9ec1f64	-0.00045036816
59	0xba204398	-0.0006113588
60	0xbafbee98	-0.0019220887
61	0x39cdf0de	0.00039280107
62	0xba30f3d3	-0.00067502
63	0x3993123c	0.0002805161
64	0x39e8d30c	0.0004440773
65	0xba4c1826	-0.0007785581
66	0xb999bcdc	-0.00029323145
67	0xb9cee57c	-0.0003946236
68	0x39f2e48e	0.00046328123
69	0xb983540e	-0.00025048893
70	0xbaf18cb4	-0.0018428774
71	0xb9a2cc02	-0.00031051046
72	0x3a900ed4	0.0010990747
73	0xbae66cf0	-0.0017580073
74	0x398c312e	0.00026739523
75	0x3a139979	0.0005630474
76	0x3afe5c40	0.0019406155
77	0xb9c97492	-0.0003842456
78	0x3a39f348	0.00070934417
79	0xbb00a9ea	-0.0019632527
80	0x39968056	0.00028705847
81	0x3af2cdd6	0.0018524479
82	0xba1f7349	-0.00060825475
83	0x39e7b82e	0.00044196978
84	0x3b017058	0.00197508
85	0xb9e5a8ae	-0.0004380396
86	0xb99a64b2	-0.00029448193
87	0xb9e39d6a	-0.00043414097
88	0xb9a17ad2	-0.0003079982
89	0xbae6a122	-0.0017595629
90	0xb9af2274	-0.0003340427
91	0xbb02e940	-0.0019975454
92	0x3a01f741	0.0004957803
93	0x3b029e96	0.001993095
94	0xb9c94ff4	-0.00038397277
95	0xb99a1b98	-0.00029393728
96	0x399ec294	0.0003028108
97	0xbade87e0	-0.001697775
98	0x3af1a346	0.00184355
99	0x3afa8ee6	0.0019116073
100	0x3afae1ed	0.0019140817
101	0xba410426	-0.0007362984
102	0x39b586de	0.00034623494
103	0x3a0c91a8	0.00053622806
104	0x3b01d41b	0.0019810263
105	0xb9ae76de	-0.0003327643
106	0xb99089ca	-0.0002756848
107	0xbaf4e444	-0.0018683751
108	0x39ce42fc	0.0003934129
109	0xbaf0ae37	-0.0018362467
110	0xba14887d	-0.00056660903
111	0x3af98f4c	0.0019039898
112	0x39845416	0.0002523965
113	0x3ae81c58	0.0017708642
114	0xb9b9e892	-0.00035459228
115	0x39a999a6	0.0003234867
116	0xbae4d5e5	-0.0017458765
117	0x39a740f0	0.00031901104
118	0x39a854ae	0.00032106548
119	0xbadee3c4	-0.0017005135
120	0xb9804d2e	-0.00024471566
121	0xbaec2ec3	-0.0018019307
122	0x3af792d8	0.0018888367
123	0x3a03623a	0.00050118903
124	0xb99f9024	-0.00030434236
125	0xbad5f95c	-0.0016324925
126	0x39e62bd0	0.0004390166
127	0x399fd3dc	0.0003048469

layer1.1.running_mean f4 [128]
0	0xc1add4e5	-21.728952
1	0x4134d411	11.301774
2	0x414352b6	12.207693
3	0x41fc0097	31.500288
4	0x4230368e	44.053276
5	0x4184b33d	16.587519
6	0xc05b7a54	-3.4293413
7	0xc027f64f	-2.6244085
8	0x4109fc94	8.624165
9	0xc185a283	-16.704351
10	0x41e763cc	28.923729
11	0xc1617811	-14.091813
12	0x40fb97e2	7.8622904
13	0x4170f271	15.05919
14	0x4140c0c4	12.047062
15	0xc1815270	-16.165253
16	0xc199e726	-19.237865
17	0x412269f7	10.15087
18	0x40f066cd	7.512549
19	0x4180cba7	16.09944
20	0x41186790	9.525284
21	0x41e2335e	28.275082
22	0x408053df	4.010238
23	0x41d193a4	26.19709
24	0xc10949d4	-8.580524
25	0x41461fdc	12.382778
26	0xc0f66e62	-7.7009745
27	0x412ce710	10.806412
28	0xc15e6e5b	-13.901942
29	0x4098418b	4.758001
30	0x419818be	19.012081
31	0xc1af3aeb	-21.903769
32	0xbfe11c53	-1.7586769
33	0xc23e42ad	-47.565113
34	0xc0a59d67	-5.175464
35	0x3e9aec20	0.30258274
36	0xbfc25522	-1.518223
37	0xc1b59708	-22.698746
38	0xc133a3b6	-11.2274685
39	0x4112e25a	9.180262
40	0xc0269f6b	-2.60348
41	0x3e6d39ca	0.23166576
42	0xc13d341e	-11.825224
43	0x41ee5a65	29.794138
44	0xc140537a	-12.02038
45	0x423f8d34	47.887894
46	0x41801717	16.011274
47	0x41b99867	23.199415
48	0x41383ca8	11.514809
49	0xc0d20e95	-6.56428
50	0x418051d5	16.039957
51	0x40f81806	7.7529325
52	0xc0c95ca5	-6.292559
53	0x40c8e370	6.2777634
54	0xc10422c7	-8.258491
55	0xc19ac3fd	-19.345697
56	0x41c2b622	24.338932
57	0xc16763d2	-14.46187
58	0x41e64150	28.78189
59	0x40d82f77	6.755794
60	0x417a000f	15.625014
61	0x417d7de0	15.843231
62	0xc17a06f6	-15.626699
63	0xc173aeec	-15.230206
64	0xbf8c042d	-1.0938774
65	0xc21a4e61	-38.57654
66	0x41898d2a	17.193928
67	0xc14dc4b9	-12.860528
68	0xc00dad13	-2.2136886
69	0xc094cf84	-4.6503315
70	0xc136d026	-11.4258175
71	0x40895c82	4.2925425
72	0x40e847e6	7.2587767
73	0xc1ad9a49	-21.700335
74	0x411be316	9.742941
75	0x41654742	14.329897
76	0xc1ac92bd	-21.57165
77	0xc23345ee	-44.81829
78	0x416ee0af	14.929854
79	0xbe924006	-0.2856447
80	0xc1f027dd	-30.019464
81	0xc19254ae	-18.291348
82	0xc0d0992f	-6.518699
83	0x412d6b8a	10.838755
84	0xc0f3b624	-7.615984
85	0xbeccc0dc	-0.3999089
86	0xc0defd84	-6.9684467
87	0x3f5d4dc9	0.86446816
88	0xc15d4553	-13.829425
89	0xc13f69ac	-11.963299
90	0xc0f3c042	-7.617219
91	0xc1458f1d	-12.34744
92	0x41c36fe8	24.429642
93	0x40600cac	3.5007734
94	0xc13e5607	-11.896003
95	0xc0ac1cc2	-5.3785105
96	0xc221f864	-40.49257
97	0x3f13d7aa	0.5775095
98	0x41bd5a60	23.669128
99	0x41176d45	9.464177
100	0xbe1ed29f	-0.15510033
101	0x413094dd	11.036344
102	0x41edcb74	29.724342
103	0xc0b4e3c5	-5.652804
104	0x41305a1a	11.021997
105	0x414591ae	12.348066
106	0xc01007e0	-2.2504807
107	0x41aabb37	21.341413
108	0x41ced9be	25.85632
109	0x41bd1459	23.634935
110	0xc1e5c136	-28.719341
111	0x4101b58a	8.106821
112	0xc1af74c9	-21.932024
113	0x40496fd8	3.1474514
114	0xc09b5bc0	-4.85495
115	0x4186e180	16.860107
116	0xc0b24e57	-5.572063
117	0x40d66a27	6.700458
118	0xc14bb858	-12.732506
119	0xc1820490	-16.252228
120	0x4209db63	34.464245
121	0xc16cff2f	-14.812301
122	0x3fcc7c99	1.5975524
123	0x40b3af6f	5.615165
124	0x41bfb213	23.96195
125	0x407fe2b4	3.9982119
126	0x41b6e805	22.86329
127	0x3ffe151a	1.985019

layer1.1.running_var f4 [128]
0	0x44199b87	614.4301
1	0x4383d93a	263.69708
2	0x43691a2d	233.10225
3	0x44874f65	1082.4811
4	0x4509bfa4	2203.9775
5	0x43b82510	368.28955
6	0x42eb2361	117.5691
7	0x42cf80a3	103.75124
8	0x43008e40	128.55566
9	0x43a23aab	324.45834
10	0x4474c1be	979.0272
11	0x439acb07	309.58615
12	0x430df918	141.97302
13	0x439fa50c	319.28943
14	0x4381b22f	259.39206
15	0x441db906	630.891
16	0x440f4cfb	573.2028
17	0x43300f65	176.06013
18	0x43b4bcd7	361.4753
19	0x43cdfce0	411.9756
20	0x43308d21	176.55128
21	0x446d3098	948.7593
22	0x43375660	183.3374
23	0x445c806e	882.0067
24	0x42e5a867	114.82891
25	0x439f5eba	318.74005
26	0x42cf24a6	103.57158
27	0x4322b81d	162.7192
28	0x43842189	264.262
29	0x427f09f9	63.75974
30	0x43dc65bb	440.79477
31	0x43fdfaf0	507.96045
32	0x42cc7bb7	102.24163
33	0x451c2061	2498.0237
34	0x431b9d3b	155.61418
35	0x42cb1e74	101.55948
36	0x42dedf96	111.43669
37	0x440e74b5	569.82355
38	0x4374c031	244.75075
39	0x43461dfd	198.11714
40	0x42525e54	52.592117
41	0x4326874c	166.5285
42	0x43b56b00	362.83594
43	0x446655d2	921.34094
44	0x432dd5d4	173.83527
45	0x4529bc56	2715.771
46	0x43c28181	389.01175
47	0x444bbce9	814.9517
48	0x4409f2d0	551.79395
49	0x42ca24f3	101.07217
50	0x43c5e58b	395.7933
51	0x43609cdc	224.61273
52	0x430b7274	139.44708
53	0x4395bdfe	299.4843
54	0x430a2043	138.12602
55	0x43cf83c6	415.02948
56	0x444fa8f7	830.6401
57	0x43b07443	352.9083
58	0x44771a6c	988.41284
59	0x435ded23	221.92632
60	0x43dfdca7	447.72385
61	0x43b5595b	362.6981
62	0x43da7e20	436.98535
63	0x438a5331	276.64993
64	0x430c1778	140.09167
65	0x44ded172	1782.5452
66	0x43b52366	362.27655
67	0x43972128	302.25903
68	0x42964af9	75.14643
69	0x4241e23e	48.47094
70	0x436cabef	236.67162
71	0x433f5020	191.31299
72	0x42fcb79d	126.35862
73	0x4424d421	659.3145
74	0x431e959b	158.5844
75	0x43b6e1ce	365.7641
76	0x44173250	604.78613
77	0x45119f0b	2329.9402
78	0x43a4cef4	329.61682
79	0x428f46d4	71.638336
80	0x447fcc7f	1023.19525
81	0x43ea73bf	468.90427
82	0x42d30ec2	105.528824
83	0x437d4263	253.25932
84	0x43428fbf	194.56151
85	0x431af7f8	154.96863
86	0x42dbf4ba	109.97798
87	0x428d2b82	70.58498
88	0x43865bca	268.7171
89	0x43579642	215.58694
90	0x430f0f11	143.05885
91	0x4359e00f	217.87523
92	0x443dc7b2	759.12024
93	0x428f1137	71.53362
94	0x439d9a01	315.20316
95	0x4375dcc9	245.86244
96	0x44d549e2	1706.3088
97	0x433e5ff1	190.37477
98	0x440a407d	553.0076
99	0x431d5883	157.34575
100	0x4259daeb	54.463787
101	0x4322197e	162.09958
102	0x44793cd4	996.95044
103	0x43147152	148.44266
104	0x43354cc9	181.29994
105	0x4371dc95	241.86165
106	0x4305eb17	133.91832
107	0x443fe39d	767.55646
108	0x446b0ab3	940.1672
109	0x44154a9a	597.16565
110	0x448d80ef	1132.0292
111	0x431c2ecd	156.18282
112	0x4422c603	651.09393
113	0x43120542	146.02054
114	0x432a8fb2	170.56131
115	0x43a278ee	324.94476
116	0x429644bb	75.13424
117	0x4323799e	163.47507
118	0x4397f41e	303.90717
119	0x43b869e7	368.82736
120	0x44c3f376	1567.6082
121	0x43996819	306.81326
122	0x438d0301	282.02347
123	0x431a8624	154.52399
124	0x4437bae5	734.9202
125	0x436e130f	238.07445
126	0x4411b58f	582.83685
127	0x43118610	145.52368

layer2.0.weight f4 [64, 128, 3, 3]
0	0x3ba6cf77	0.0050906497
1	0xbc904d5e	-0.017615017
2	0x3cc9b8d7	0.024624271
3	0x3c520296	0.012817999
4	0x3c504ceb	0.012713651
5	0xbb3201be	-0.0027161683
6	0x3b216f4e	0.0024632993
7	0x3c6db000	0.014507294
8	0x397c1b54	0.00024042773
9	0x3c80f78c	0.01574304
10	0xbca6840b	-0.020326635
11	0xbc2c8f29	-0.010532179
12	0xbc569e48	-0.013099261
13	0x3c2f9568	0.010716774
14	0xbc0ef7ec	-0.008726101
15	0x3cd951cb	0.02652826
16	0xbc809958	-0.01569812
17	0x3ccd266d	0.025042737
18	0xbaf501f6	-0.0018692601
19	0xbc12bddf	-0.008956402
20	0xbcd7e0c3	-0.026352292
21	0x3c4ee204	0.0126271285
22	0x3c819c75	0.015821675
23	0xbcbc021a	-0.02295022
24	0x3bc86d9e	0.006116583
25	0xbcd9d10e	-0.026588943
26	0xbccaf910	-0.024776965
27	0xbb4f44f9	-0.0031626804
28	0x3cc83a53	0.024441874
29	0xbc2a9320	-0.010411054
30	0xbca8ff60	-0.020629585
31	0xbc1d51cd	-0.009602022
32	0x3ce34f5c	0.027747802
33	0x3c508949	0.012728044
34	0xbc9e60a0	-0.019333184
35	0xbcc6c0ef	-0.02426192
36	0x3c872d6d	0.016501153
37	0x3beeb807	0.0072851214
38	0xbc13b996	-0.009016415
39	0xbc8c6676	-0.017138701
40	0xbb989337	-0.0046562213
41	0x3bdb18be	0.006686299
42	0x3c296314	0.0103385635
43	0x3c14cdfc	0.009082314
44	0x3cce30f2	0.025169823
45	0xbcca957d	-0.024729485
46	0x3ca7f0ba	0.02050053
47	0x3b37657b	0.002798407
48	0xbccd772b	-0.025081238
49	0xbcaa8954	-0.020817436
50	0x3a61ef89	0.00086187624
51	0x3c021608	0.007939823
52	0x3c4b5c80	0.01241219
53	0xb9f152f8	-0.0004602892
54	0x3ccf8dd8	0.025336191
55	0xbbdb4e10	-0.0066926554
56	0x3b99f0c8	0.004697893
57	0xbc51f154	-0.012813885
58	0x3c931b72	0.017957423
59	0xbc821eb0	-0.015883774
60	0xbbbdbc55	-0.005790273
61	0x3bc1590b	0.0059005073
62	0xbc311e90	-0.010810509
63	0x3bc997b3	0.006152117
64	0x3b5bde2e	0.0033549177
65	0x3bf82cbf	0.0075736935
66	0x3c10cf40	0.008838475
67	0x3a4fc1a5	0.00079252786
68	0x3cd14f09	0.025550382
69	0xbb834e2c	-0.0040071215
70	0x3bd5fc7f	0.006530344
71	0xbcdae3dd	-0.026719982
72	0xbb9d9097	-0.004808496
73	0x3cde6637	0.02714835
74	0x3cb9374b	0.022609374
75	0xbc40959f	-0.011754422
76	0xbc48a940	-0.012247384
77	0xbc29d964	-0.010366771
78	0x3baca7b3	0.0052690147
79	0x3cde934e	0.02716985
80	0x3c6eb442	0.014569344
81	0x3c7201f8	0.014770977
82	0x3bc1a951	0.0059100767
83	0xbc5beecf	-0.013423636
84	0x3c144fa2	0.009052189
85	0xbb98e77a	-0.004666266
86	0xbcea3ff7	-0.028594954
87	0x3c125d8e	0.008933438
88	0xbc694283	-0.014237049
89	0x3ce428d8	0.027851507
90	0x3c8492fb	0.016183367
91	0xbc53bead	-0.012923879
92	0x3b44c565	0.0030024883
93	0x3cb7ba62	0.022427741
94	0x3b996a6f	0.0046818773
95	0xbcea7939	-0.028622257
96	0x3ad56957	0.0016282004
97	0x3c57921a	0.013157392
98	0xbbb99842	-0.0056639025
99	0xbcb15055	-0.02164475
100	0x3c1e75e3	0.009671661
101	0xbbbbe777	-0.00573438
102	0xbcbaf80b	-0.022823354
103	0x3c734781	0.014848591
104	0x3cb02d0c	0.021505855
105	0xbca902ee	-0.02063128
106	0xbc9a9da4	-0.018873997
107	0x3cd72af7	0.026265604
108	0x3c90b30b	0.0176635
109	0xbc1d1392	-0.009587185
110	0x3ce1c589	0.027560012
111	0x3c69b6d9	0.014264786
112	0x3c5b42e4	0.013382647
113	0x3bb6b9fe	0.005576371
114	0x3c6b8045	0.014373844
115	0x3c97647d	0.018480534
116	0x3c00575e	0.00783333
117	0xbcf74fc3	-0.0301894
118	0xbbd14baa	-0.0063871937
119	0x3c9a1b39	0.018811809
120	0x3c8186ec	0.015811406
121	0xbbfbbf87	-0.007682744
122	0xbcd50ba6	-0.026006531
123	0x3bcc20ed	0.006229511
124	0x3c9e3c6c	0.01931592
125	0x3c94fe73	0.018187737
126	0x3c371ce5	0.011176323
127	0x3c9f4ee6	0.019446801
128	0x3c20801b	0.009796168
129	0x3c665fd7	0.014060936
130	0x3aa9b416	0.0012947347
131	0x3c2929ff	0.010324954
132	0xbcdf78a6	-0.02727921
133	0x3c7f1d61	0.015570969
134	0x3c77058d	0.015077007
135	0xb9153cac	-0.0001423235
136	0xb8dd90f0	-0.00010565098
137	0xbbfe7eb3	-0.0077665686
138	0xbc962430	-0.018327802
139	0x3cbcefd0	0.02306357
140	0xbc5d61c6	-0.013512081
141	0xbb857076	-0.0040722443
142	0xbcca175d	-0.024669344
143	0xbcbf5a0a	-0.023358364
144	0xbc94494b	-0.018101355
145	0xbbc22492	-0.0059247697
146	0xbb1103ab	-0.002212743
147	0xbcb42225	-0.021988938
148	0xbc5aa5d4	-0.013345201
149	0xbbda9c79	-0.006671485
150	0xbce199b8	-0.02753912
151	0xbc4e8c9d	-0.012606767
152	0x3c97aac4	0.018514045
153	0x3c5a72a8	0.013333
154	0xbcee60a9	-0.029098826
155	0xbcd0b7ea	-0.025478322
156	0xbc744014	-0.014907856
157	0x3c29f7d1	0.010374025
158	0xbb640251	-0.003479142
159	0x3c38194b	0.011236499
160	0xbc6a0f2d	-0.014285845
161	0x3aed2e43	0.0018095452
162	0xbbb07fb6	-0.005386318
163	0x3c4cf6ac	0.012509983
164	0xba8cecb4	-0.0010751695
165	0xbc9682a4	-0.018372841
166	0xbca3a755	-0.019977251
167	0x3baee8c2	0.0053378055
168	0x3c8b5512	0.017008338
169	0xbcc17ec2	-0.023620013
170	0xbcfba61a	-0.030718852
171	0x3cbfd2f8	0.023416027
172	0x390a2018	0.00013172661
173	0xbcfce80f	-0.030872373
174	0x3cba8408	0.022768036
175	0xbce7ebaf	-0.028310625
176	0xbc8fcd06	-0.017553817
177	0xba8c4e00	-0.0010704398
178	0xbba0b06c	-0.0049038436
179	0x3c1b22ff	0.009468793
180	0xbc961488	-0.018320337
181	0x3c989e5a	0.018630195
182	0x3cbbadfa	0.022910107
183	0x3cb23eec	0.02175852
184	0xbce76b36	-0.028249364
185	0xbc2211f2	-0.009891974
186	0x3ce2cdcd	0.027686024
187	0x3c12af86	0.008952981
188	0x3c0faec7	0.0087696975
189	0xbc5f79bc	-0.013639864
190	0xbc4cb097	-0.012493274
191	0x3cc6ed32	0.024283025
192	0xbc8a25e8	-0.016863778
193	0xbc3de3b9	-0.011589938
194	0x3be68245	0.0070345723
195	0x3ca6731c	0.02031856
196	0xbc14d5bc	-0.009084161
197	0xbcabe182	-0.020981554
198	0x3c9228e3	0.017841762
199	0xbc71e511	-0.014764086
200	0x3c8ba868	0.017048076
201	0xbc45cd71	-0.012072907
202	0x3c76a412	0.015053766
203	0xbc8516f8	-0.016246304
204	0xbbe8181b	-0.0070829517
205	0x3cab74a6	0.020929646
206	0xbcb4f96c	-0.02209159
207	0x3c08cc1f	0.0083494475
208	0x3c0ded02	0.008662464
209	0x3bea6889	0.007153575
210	0xbc04dd0d	-0.008109343
211	0xbbc888a8	-0.0061198063
212	0x3c722461	0.014779181
213	0x3c2e9705	0.010656123
214	0x3ceff758	0.029292747
215	0x3c046e45	0.008082931
216	0x3c8e57e6	0.017375898
217	0xbc926f0e	-0.01787522
218	0xbc2f5e22	-0.010703595
219	0xbb90edef	-0.004422895
220	0xbca5826a	-0.020203788
221	0xbcea2816	-0.028583568
222	0xbc3db004	-0.01157761
223	0x3bb90b61	0.0056471084
224	0xbb85dc7f	-0.004085123
225	0xbb14e5a6	-0.002271989
226	0xbc945764	-0.018108077
227	0xbcf208d0	-0.029545218
228	0x3c9b425a	0.018952537
229	0xbca6173c	-0.02027475
230	0x3cd1fedf	0.025634227
231	0x3ccf842b	0.025331577
232	0xbbfe69fc	-0.007764099
233	0x3bc2e203	0.005947353
234	0xbc581c1a	-0.013190294
235	0x3c210e6c	0.009830099
236	0xbc80d62c	-0.015727125
237	0x3c282b53	0.010264236
238	0x3c0a76d2	0.0084511805
239	0xbbfefa2a	-0.0077812867
240	0x38e65750	0.00010983518
241	0x3c86b793	0.016444957
242	0x3c7963bc	0.015221532
243	0x3c462def	0.012095912
244	0x3c9d2b08	0.019185558
245	0xbbae57e6	-0.005320537
246	0xbc22bf9c	-0.009933379
247	0xbcda4934	-0.026646234
248	0x3c28c016	0.010299703
249	0xbce255e9	-0.027628856
250	0x3cef716c	0.029228888
251	0xbc6f5f8d	-0.014610183
252	0x3cabe0f8	0.020981297
253	0x3a6b1e16	0.0008969022
254	0x3aacf6f4	0.0013196156
255	0xbc350a88	-0.011049874

layer2.0.bias f4 [64]
0	0x3cbd320c	0.023095153
1	0x3ca68c10	0.020330459
2	0xbb8f3fe3	-0.0043716296
3	0xbcd3fcc3	-0.025877362
4	0xba89ddd0	-0.0010518376
5	0xbccaf355	-0.024774233
6	0xbce5d759	-0.028056787
7	0xbc964369	-0.01834269
8	0x3cddc98c	0.027073644
9	0xbb0277e4	-0.0019907886
10	0x3cecec82	0.02892137
11	0x3c6fc1ab	0.014633576
12	0x3bb792bc	0.005602209
13	0xbc8c6d2a	-0.017141897
14	0x3c25874b	0.010103057
15	0xbccbd99d	-0.02488404
16	0x3ce9afba	0.028526176
17	0xbc63ab45	-0.013895814
18	0x3c8688f1	0.01642272
19	0xbc7d15b9	-0.015447074
20	0xbce635aa	-0.02810176
21	0xbc8dd362	-0.01731271
22	0x3b234089	0.0024910292
23	0x3c732b64	0.014841888
24	0xbc966425	-0.0183583
25	0xbc3c9967	-0.011511183
26	0xbc5ffe6a	-0.013671497
27	0x3caa0cb3	0.020758009
28	0x3ca56542	0.020189885
29	0xbc6232c2	-0.013806047
30	0xbc2b7ec2	-0.010467233
31	0x3c42e591	0.011895553
32	0x3c68d003	0.01420975
33	0xbbd714d2	-0.0065637613
34	0xbcdec54d	-0.02719369
35	0x3c73966c	0.014867406
36	0xbc94d12a	-0.018166143
37	0xbc73acb0	-0.014872715
38	0x3c7da28d	0.01548065
39	0xbc111336	-0.008854678
40	0xbcd4beff	-0.02596998
41	0x3c8658e5	0.01639981
42	0xbbc46185	-0.0059930705
43	0x3b97658d	0.00462026
44	0x3c692809	0.0142307365
45	0x3cb7e44d	0.02244773
46	0xbcd7f8eb	-0.02636381
47	0x3bd9aa97	0.0066426503
48	0x3cab6015	0.020919839
49	0xbcace643	-0.021105891
50	0xbc11cc69	-0.008898833
51	0x3ce60e5c	0.028083019
52	0xbcde0285	-0.02710081
53	0x3cd19554	0.0255839
54	0x3c9e3e73	0.019316887
55	0xbc980420	-0.018556654
56	0xbcc9e51f	-0.024645386
57	0x3c4ff5b5	0.012692858
58	0xbc4baef1	-0.012431846
59	0xbbb71a44	-0.005587848
60	0xbcacf7d9	-0.021114277
61	0x3ca14b5a	0.01968925
62	0xbc11f284	-0.008907918
63	0xbc493955	-0.012281735

layer2.1.weight f4 [64]
0	0x3ee86d35	0.45395818
1	0x3eefde1c	0.46849144
2	0x3f115d8f	0.56783384
3	0x3db9abda	0.09065981
4	0x3d9e2b22	0.07723071
5	0x3f3fddea	0.7494799
6	0x3f227954	0.6346638
7	0x3eb86979	0.3601797
8	0x3d0b14c7	0.03395536
9	0x3e438a49	0.1909572
10	0x3df1927b	0.11795517
11	0x3f3db64f	0.74106306
12	0x3d3d0430	0.04614657
13	0x3f1ef9e4	0.6210005
14	0x3f6b1ef2	0.91844094
15	0x3e1d2068	0.15344393
16	0x3d1c11f9	0.038103078
17	0x3eb91e51	0.36155942
18	0x3e4f5112	0.2024577
19	0x3f34bd68	0.7060151
20	0x3f5b020e	0.8555001
21	0x3e8d38bf	0.27582356
22	0x3e382abb	0.1798505
23	0x3f26f30b	0.65214604
24	0x3ef1bda5	0.47215
25	0x3da428ef	0.0801562
26	0x3e242725	0.16030557
27	0x3f45f334	0.77324224
28	0x3f1f5b8a	0.6224905
29	0x3e39d3b1	0.1814716
30	0x3f5f95f5	0.8733819
31	0x3eba40a7	0.3637745
32	0x3f3f9988	0.74843645
33	0x3f28eb94	0.65984464
34	0x3e988e58	0.297961
35	0x3f77e101	0.96827704
36	0x3e953524	0.29142106
37	0x3f235000	0.63793945
38	0x3f696582	0.91170514
39	0x3f315602	0.6927186
40	0x3f4ff66c	0.81235385
41	0x3eef8867	0.46783754
42	0x3e12dce1	0.14342071
43	0x3eefaf77	0.46813557
44	0x3ed7cdb3	0.42149124
45	0x3f484154	0.7822468
46	0x3f765cb3	0.962352
47	0x3ef7759a	0.4833191
48	0x3f5dcd50	0.86641407
49	0x3f41e48c	0.7573936
50	0x3db22253	0.08697953
51	0x3efaa0cd	0.48950806
52	0x3f3fe4cd	0.749585
53	0x3f7449fd	0.954254
54	0x3eb1425a	0.34620935
55	0x3f237ce3	0.63862437
56	0x3f1ee597	0.62069076
57	0x3f4dc734	0.80382085
58	0x3db9fc5b	0.09081336
59	0x3f11a5fb	0.5689389
60	0x3f57e24a	0.84329665
61	0x3f62fefd	0.8867033
62	0x3cde58b9	0.027141916
63	0x3f5425a2	0.82869923

layer2.1.bias f4 [64]
0	0x3a15baa8	0.0005711713
1	0x3afdc999	0.0019362449
2	0x3a345a79	0.00068799366
3	0xbae80d73	-0.0017704203
4	0xba0013b7	-0.000488575
5	0xbb030b96	-0.001999592
6	0xba1e9b8a	-0.0006050399
7	0xba440c56	-0.0007478645
8	0xbaee69e5	-0.0018189518
9	0x3afbb718	0.0019204346
10	0xb9c08476	-0.00036719785
11	0xbab5cdb1	-0.0013870505
12	0xbaa79a89	-0.0012787144
13	0x3a125131	0.00055815565
14	0xba42c9d0	-0.0007430585
15	0xba21ce8a	-0.00061724393
16	0x3b00639a	0.0019590617
17	0x3afed715	0.0019442762
18	0x3afd3114	0.0019316995
19	0xba49761a	-0.000768514
20	0xbaf7edf2	-0.0018915518
21	0x3af2e764	0.0018532095
22	0xbafb61d4	-0.0019178935
23	0x3b012cbd	0.0019710504
24	0x3a69ae4c	0.0008914217
25	0xb985e738	-0.00025540008
26	0x3af2f84d	0.0018537134
27	0x39a06792	0.00030594744
28	0xbb02f5c8	-0.0019982923
29	0x3ae5d4a0	0.0017534681
30	0xb98f32b6	-0.00027312868
31	0x39e685f2	0.00043968816
32	0xbb02f4d4	-0.0019982355
33	0xbae60692	-0.0017549566
34	0xbaf6c995	-0.0018828387
35	0xbaee0f9b	-0.001816261
36	0x3994c6a2	0.00028376753
37	0xb9ae3190	-0.00033224793
38	0xbb01cc16	-0.0019805483
39	0xba0f0e22	-0.0005457123
40	0x3a3f0c22	0.00072878797
41	0x39a832aa	0.00032081205
42	0x3af632b4	0.0018783421
43	0xbb02b24e	-0.0019942704
44	0x39ed0464	0.00045207434
45	0xba668c42	-0.0008794704
46	0x3afe79a1	0.001941491
47	0x39d18eb6	0.00039969914
48	0x39fb2404	0.00047901284
49	0xba817821	-0.000987772
50	0xba87d187	-0.0010362127
51	0xbaf87366	-0.001895529
52	0x3aac46fc	0.0013143714
53	0x3af2a52c	0.001851236
54	0x39a3a96a	0.00031216006
55	0xbafb4dce	-0.0019172968
56	0xb99f2e9a	-0.00030361564
57	0x3b003612	0.0019563478
58	0x3afb88d0	0.0019190554
59	0x39fdb57e	0.00048391143
60	0x3980907e	0.00024521718
61	0x3ae1e764	0.0017235097
62	0x3a88fa00	0.0010450482
63	0x3afe62fe	0.0019408164

layer2.1.running_mean f4 [64]
0	0xbc50d5c9	-0.012746283
1	0xbda0d6d3	-0.078534745
2	0x3d088353	0.033328366
3	0xbdd43560	-0.10361743
4	0x3d03fa49	0.032221112
5	0xbc532a33	-0.012888479
6	0xbd5dcbfb	-0.05414961
7	0xbcbff0e5	-0.023430297
8	0xbc689c4e	-0.014197422
9	0xbd6e7494	-0.058216646
10	0x3d0cb3af	0.034351047
11	0x3c016650	0.007897928
12	0x3c710c73	0.014712441
13	0x3bb0b886	0.0053930907
14	0x3d109064	0.03529395
15	0x3d02da42	0.031946428
16	0xbd8bc793	-0.06825175
17	0x3d19db0c	0.037562415
18	0x3cd8f7d1	0.026485356
19	0xbcd93e42	-0.026518945
20	0x3d1bbfe6	0.038024805
21	0xbcc73df6	-0.024321537
22	0x3de58ebb	0.11208864
23	0x3d9af43f	0.075661175
24	0xbcc40268	-0.023926929
25	0x3cc62fbe	0.024192687
26	0xbde59324	-0.112097055
27	0xbd94db0a	-0.07268341
28	0x3b5becb0	0.0033557825
29	0xbc7aec35	-0.015315105
30	0x3ce2e0c5	0.02769507
31	0x3c24871c	0.010041978
32	0xbd3563c3	-0.044284593
33	0x3c703891	0.014661924
34	0xbcecd2d8	-0.028909132
35	0xbcf0ea58	-0.029408619
36	0xbd772fa3	-0.060348164
37	0x3d4cda89	0.0500131
38	0xbd1d518d	-0.03840785
39	0xbab71868	-0.0013969066
40	0x3c9e19e5	0.019299457
41	0x3d5903d2	0.05298216
42	0x3a60afca	0.00085711165
43	0x3c2cbe13	0.010543364
44	0x3bb9db7b	0.005671916
45	0xbd16d8f2	-0.03682799
46	0xbd187b6c	-0.03722708
47	0xbd08f554	-0.033437088
48	0xbdb4558f	-0.088053815
49	0x3bdb3f28	0.0066908784
50	0x3c28b3c1	0.010296763
51	0x3bbdee67	0.005796242
52	0x3bdae855	0.006680528
53	0x3c5401f0	0.012939915
54	0xbb964057	-0.0045853066
55	0x3c8fe51d	0.017565304
56	0x3931fb80	0.00016973726
57	0xbd9ad6cb	-0.075605
58	0x3d41b2e2	0.047289737
59	0x3b100bfa	0.0021979795
60	0xbd35301a	-0.044235326
61	0xbc7f3f6e	-0.015579088
62	0x3cb07bb5	0.021543363
63	0xbc3ca7fd	-0.011514661

layer2.1.running_var f4 [64]
0	0x3f53dd10	0.8275919
1	0x3f57ef25	0.8434928
2	0x3f51578f	0.8177423
3	0x3f5252cb	0.8215758
4	0x3f53a5ea	0.8267504
5	0x3f532007	0.82470745
6	0x3f53a465	0.8267272
7	0x3f5253f9	0.8215938
8	0x3f5344cf	0.8252687
9	0x3f58364d	0.84457856
10	0x3f528809	0.82238823
11	0x3f5158b5	0.8177598
12	0x3f51c4f1	0.81941134
13	0x3f529148	0.8225293
14	0x3f53abbf	0.8268394
15	0x3f519c00	0.8187866
16	0x3f56c59d	0.83895284
17	0x3f51af26	0.8190788
18	0x3f50f54f	0.8162431
19	0x3f541a48	0.828526
20	0x3f51ff22	0.82029927
21	0x3f523af1	0.8212119
22	0x3f53a7d4	0.8267796
23	0x3f537455	0.82599384
24	0x3f543a0c	0.8290107
25	0x3f52ff03	0.82420367
26	0x3f53c253	0.8271839
27	0x3f587766	0.8455719
28	0x3f51def7	0.8198084
29	0x3f512dd2	0.8171054
30	0x3f5370ff	0.82594293
31	0x3f5329be	0.8248557
32	0x3f54d32c	0.8313472
33	0x3f51c43b	0.8194005
34	0x3f53ac58	0.8268485
35	0x3f507ed6	0.81443536
36	0x3f53cf86	0.8273853
37	0x3f523484	0.8211138
38	0x3f522d49	0.8210035
39	0x3f530b1a	0.82438815
40	0x3f527442	0.82208645
41	0x3f531fac	0.824702
42	0x3f50bf8d	0.81542283
43	0x3f50e4b8	0.81599
44	0x3f5286ae	0.82236755
45	0x3f53d893	0.8275234
46	0x3f52262b	0.8208949
47	0x3f51f5bc	0.82015586
48	0x3f532398	0.82476187
49	0x3f548fad	0.8303173
50	0x3f539964	0.8265593
51	0x3f565e96	0.83738077
52	0x3f532126	0.82472456
53	0x3f51e22b	0.8198573
54	0x3f5268c6	0.8219112
55	0x3f5379ca	0.8260771
56	0x3f556a08	0.83364916
57	0x3f53d503	0.82746905
58	0x3f51aa8b	0.8190085
59	0x3f521720	0.82066536
60	0x3f519f0e	0.81883323
61	0x3f51648f	0.81794065
62	0x3f5651aa	0.8371836
63	0x3f5562f7	0.83354133

layer3.0.weight f4 [32, 64, 3, 3]
0	0xbcf3ed63	-0.02977628
1	0x3c38ec8b	0.011286865
2	0xbcce1984	-0.025158651
3	0x3c32170c	0.010869753
4	0x3c42ddf6	0.01189374
5	0xbc382982	-0.011240365
6	0xbc8de089	-0.01731898
7	0xbd05012e	-0.03247183
8	0xbcfc9c35	-0.030836204
9	0x3ce848d4	0.02835504
10	0x3cbd191e	0.023083266
11	0x3beb39ba	0.0071785124
12	0x3d028d7c	0.03187321
13	0x3c7098d3	0.014684874
14	0xbd1f26c2	-0.03885532
15	0x3d21309d	0.039353002
16	0x3d257b4b	0.040400784
17	0x3c7e6325	0.015526568
18	0x3d1c1c62	0.038113005
19	0xbc75f0bb	-0.015011008
20	0x3d294179	0.041322205
21	0x3d15cb9d	0.036571134
22	0x3d0e41b0	0.034730613
23	0x3d155296	0.036455713
24	0xbc620a1f	-0.013796358
25	0xbc9d0877	-0.019169075
26	0x3d1d57ee	0.038413934
27	0xbcc7335f	-0.024316488
28	0x3ca51547	0.020151747
29	0x3c9c6d7a	0.019095171
30	0xbc67f841	-0.014158309
31	0x3d1de4a8	0.03854814
32	0xbc362d7e	-0.011119245
33	0x3d1687d9	0.03675065
34	0xbd07c4b3	-0.03314657
35	0xbc2fb9dd	-0.010725466
36	0xbc93b249	-0.018029349
37	0x3d1e540d	0.038654376
38	0xbce2f463	-0.027704423
39	0x3cd5d704	0.026103504
40	0xbc2f591a	-0.010702396
41	0x3d1ee5fb	0.038793545
42	0xbc7c09f4	-0.015383232
43	0x3bc21afc	0.005923627
44	0x3caa1c0b	0.020765325
45	0xbccbd1f7	-0.024880392
46	0x3c3fb968	0.011701919
47	0xbca3ac67	-0.019979669
48	0x3c429a6c	0.011877637
49	0x3d0e3413	0.03471763
50	0xbce23861	-0.027614774
51	0xbd01f53a	-0.031728007
52	0xbc871c17	-0.016492886
53	0x3d0c9257	0.034319248
54	0x3d0400ed	0.032227445
55	0x3bb2b40e	0.005453593
56	0xbc71c81e	-0.014757184
57	0x3c9663ab	0.018358072
58	0xbc23ff9d	-0.010009673
59	0x3c62d0e2	0.013843747
60	0xbcbb522a	-0.022866327
61	0xbd0de4d4	-0.034642056
62	0xbc8c8e70	-0.017157763
63	0xbce1f4bb	-0.027582517
64	0xbd222400	-0.039585114
65	0xbb9e940c	-0.004839426
66	0x3c86e597	0.016466899
67	0x3c623638	0.013806872
68	0x3cf0d449	0.0293981
69	0xbcb1df9f	-0.021713076
70	0x3d1d586f	0.038414415
71	0x3c04af84	0.008098487
72	0x3c2acbe7	0.010424591
73	0x3c869da7	0.016432596
74	0x3bc9f9e3	0.006163822
75	0xbba3fb57	-0.0050043273
76	0x3be291e8	0.006914366
77	0xbc2e496b	-0.010637621
78	0x3ab93e47	0.001413294
79	0x3ce3aed4	0.027793325
80	0xbceee627	-0.02916248
81	0xbcadc40d	-0.021211648
82	0x3cbd488f	0.023105888
83	0x3c8ef979	0.017452942
84	0x3b7e78e9	0.0038829392
85	0xbc6b5808	-0.01436425
86	0xbcbf33c9	-0.023340123
87	0x3c59afae	0.013286514
88	0xbcc9b066	-0.024620246
89	0x3c052cd4	0.008128364
90	0x3c20a481	0.009804846
91	0xbcd57f93	-0.026061809
92	0x3d2f341c	0.042774305
93	0xbd1ccf4d	-0.038283635
94	0x3caf755c	0.021418266
95	0x3d28fa89	0.041254554
96	0xbcc6f0c4	-0.024284728
97	0xbd247ae4	-0.04015626
98	0x378a7b00	1.6508158e-05
99	0x3d02d7eb	0.031944197
100	0x3c41de62	0.011832805
101	0x3d01676a	0.031592764
102	0xbacbf47f	-0.0015560536
103	0xbd174434	-0.036930278
104	0xbd0cc33c	-0.034365878
105	0xbd0ca835	-0.034340102
106	0xbc0e9c65	-0.00870428
107	0x3d021645	0.03175952
108	0x3cf6d118	0.030129
109	0x3cba85e2	0.022768918
110	0xbd20de2f	-0.03927439
111	0x3cf2e1cc	0.029648684
112	0xbd0108a9	-0.0315024
113	0xbcaa8d29	-0.020819264
114	0xbb79b55c	-0.0038102483
115	0xbc445963	-0.011984202
116	0x3c71c07d	0.014755365
117	0xbbb3d91f	-0.0054885293
118	0xbd1e5df0	-0.038663805
119	0xbc00e6fc	-0.007867571
120	0x3cd6a531	0.026201816
121	0x3c07631e	0.0082633775
122	0xbd0de5e3	-0.034643065
123	0x3c4d3e3d	0.012527046
124	0xbca28934	-0.019840814
125	0xbd1b2557	-0.037877407
126	0x3c6c52a5	0.014424001
127	0x3c6d42f3	0.014481294
128	0x3d23b0dc	0.039963588
129	0xbc959eb0	-0.018264145
130	0xbbd73fc1	-0.0065688794
131	0xbccb2d9b	-0.02480202
132	0x3b282bd4	0.002566089
133	0xbc77c656	-0.015122971
134	0xbd0b32d9	-0.03398404
135	0x3c7aca99	0.015307092
136	0x3d23795f	0.03991067
137	0x3c8faec1	0.017539384
138	0x3d26bd7a	0.040708043
139	0xbc8ad758	-0.016948387
140	0x3d1d9094	0.03846796
141	0xbcb2bfbc	-0.021819942
142	0xbc31a761	-0.010843129
143	0x3cd77335	0.026300052
144	0xbd014585	-0.03156044
145	0xbd2bb1b6	-0.041917525
146	0xbcdd60da	-0.027023721
147	0xbc5a8a44	-0.013338629
148	0x3acf198e	0.0015800463
149	0xbc8e2709	-0.017352598
150	0x3c567b5d	0.013090936
151	0xbbedbb35	-0.007254983
152	0x3d1837aa	0.03716246
153	0xbcdd579e	-0.027019318
154	0x3cbc554a	0.022989888
155	0x3d13abce	0.036052518
156	0xbd22cb82	-0.03974486
157	0x3ca4f5d1	0.020136746
158	0x3c8e6f4d	0.017387057
159	0xbc77368a	-0.015088687
160	0x3c627b8f	0.013823404
161	0xbc416552	-0.011803942
162	0x3d2d5c1e	0.042324178
163	0xbb8ba61f	-0.0042617465
164	0xbbeb69d0	-0.0071842447
165	0x3ccb88b8	0.024845466
166	0x3d26437c	0.040591702
167	0x3bceea67	0.006314564
168	0x3c00ba33	0.007856893
169	0xbc537d62	-0.012908312
170	0xbc7f2272	-0.015572177
171	0x3c1f8f8d	0.009738815
172	0x3ca69741	0.020335795
173	0x3d0f5ba1	0.034999494
174	0x3c9d509e	0.01920348
175	0xbccfb155	-0.025353113
176	0xbd1d88bc	-0.03846048
177	0x3d0bbbe2	0.034114726
178	0xbd0ab31a	-0.03386221
179	0x3c45504b	0.012043069
180	0x3c88caeb	0.016698321
181	0x3cf8edbf	0.030386804
182	0xbc770353	-0.015076476
183	0x3cb94a18	0.022618338
184	0xbd18af2c	-0.037276432
185	0x3c94cf6b	0.01816531
186	0xbad87439	-0.0016514129
187	0xbd00d508	-0.031453162
188	0xbce2cc51	-0.027685316
189	0xbd20774a	-0.039176263
190	0xbb1dc5c9	-0.0024074188
191	0x3b219eab	0.0024661224
192	0x3c45e18a	0.0120776985
193	0x3b0168a2	0.0019746204
194	0xbc606c3c	-0.01369768
195	0xbcfb099c	-0.03064423
196	0x3d14fba6	0.036372803
197	0xbc08c97e	-0.008348821
198	0xbcd94e6d	-0.026526654
199	0x3c9bec5b	0.019033602
200	0xbac1b711	-0.001477929
201	0xbd287e1d	-0.041135896
202	0x3cc5f6a3	0.024165457
203	0x3ca13c0e	0.019681957
204	0xbc8ea634	-0.017413236
205	0xbc840b46	-0.016118657
206	0x3cdac57a	0.026705492
207	0x3cd33987	0.025784267
208	0xbcca8076	-0.024719458
209	0x3d080450	0.033207238
210	0x3c248f85	0.010043983
211	0x3d1d0a3d	0.038339842
212	0x3c127ed7	0.008941374
213	0x3ca536c2	0.020167712
214	0x3d0e2a00	0.034708023
215	0x3cd483b2	0.025941703
216	0x3ce9ca2f	0.028538791
217	0x3ced6226	0.028977465
218	0x3d290239	0.041261885
219	0x3d10efdc	0.035384998
220	0xbc8392b8	-0.016061172
221	0x3d2605ca	0.040532865
222	0x3c1b5000	0.009479523
223	0x3b690a36	0.0035559065
224	0xbcb026b5	-0.021502832
225	0x3ba976a3	0.0051716133
226	0xbd0e68b9	-0.03476784
227	0x3d2400ee	0.04003995
228	0x3d1fa66f	0.038977083
229	0xbc5e1511	-0.013554827
230	0xba74d5fc	-0.00093397475
231	0x3cd1948e	0.025583532
232	0x3b8d1232	0.0043051476
233	0x3c816626	0.015795778
234	0xbd1fc856	-0.039009415
235	0x3c2e4fb4	0.01063912
236	0xbd024129	-0.031800423
237	0x3b8071d0	0.0039198175
238	0xbbd99566	-0.006640124
239	0x3bbe8f2f	0.0058154087
240	0x3c5baedb	0.013408388
241	0x3b58c602	0.0033077006
242	0xbc917e37	-0.01776038
243	0x3b825672	0.0039775902
244	0x3c9d3aa6	0.019193005
245	0xbb9230c8	-0.0044613816
246	0xbb74b7f8	-0.00373411
247	0x3cfa6cde	0.03056949
248	0x3c6e83a8	0.0145577565
249	0xbd216042	-0.03939844
250	0x3bb947f4	0.0056543294
251	0xbd11bf8f	-0.035583075
252	0x3cd27d26	0.025694441
253	0xbca7c8f6	-0.020481568
254	0xbb53d10e	-0.0032320651
255	0x3cbbd045	0.02292646

layer3.0.bias f4 [32]
0	0x3c2b6f24	0.01046351
1	0x3cfdbeb3	0.030974722
2	0x3d02307d	0.031784523
3	0xbd133224	-0.03593649
4	0xbc53d953	-0.012930232
5	0x3c18cd6c	0.00932632
6	0x3d29361f	0.04131138
7	0xbb44335f	-0.0029937846
8	0xbb77b764	-0.0037798518
9	0xbbed7540	-0.0072466433
10	0x3b89a22f	0.004200242
11	0xbbd04ada	-0.0063565793
12	0xbbfba5a3	-0.0076796575
13	0x3c67794f	0.014128043
14	0x3bf5c0f8	0.0074998103
15	0x3cef2633	0.02919302
16	0xbcc8b226	-0.02449901
17	0xbd150f4d	-0.036391545
18	0x3cb8e718	0.022571132
19	0xbc918d45	-0.017767558
20	0x3cfa8cc5	0.030584702
21	0x3cc072e2	0.02349228
22	0xbca83d7d	-0.020537132
23	0x3cf9cbc2	0.030492667
24	0x3acd5c46	0.0015667758
25	0x3b1c41a0	0.0023842826
26	0x3d1659a4	0.03670658
27	0xbcbe3f88	-0.023223653
28	0xbce1d34c	-0.027566575
29	0xbd04b793	-0.032401633
30	0xbc1b4c3a	-0.009478623
31	0xbcb1e1dd	-0.021714145

layer3.1.weight f4 [32]
0	0x3f3b6e1f	0.73214906
1	0x3d825016	0.063629314
2	0x3f7a1bf3	0.976989
3	0x3e0e8967	0.13919602
4	0x3d54c90e	0.051949553
5	0x3d615668	0.055014044
6	0x3f19e657	0.60117096
7	0x3f6dd325	0.92900306
8	0x3f1cd82c	0.6126735
9	0x3f507415	0.8142713
10	0x3d99ca0a	0.07509239
11	0x3e6ede44	0.23326975
12	0x3f187a6e	0.5956181
13	0x3d04e467	0.032444384
14	0x3ed3c9d6	0.41364926
15	0x3eda2350	0.42605066
16	0x3ef85ffa	0.48510724
17	0x3e5c88f9	0.21536626
18	0x3e3a60a0	0.18200922
19	0x3e275959	0.16342677
20	0x3f04fe5f	0.5195064
21	0x3ee35c86	0.44406527
22	0x3e1d5d26	0.15367565
23	0x3f0ba9a6	0.5455574
24	0x3f3d72c3	0.7400324
25	0x3f07d804	0.5306399
26	0x3f40b8ec	0.7528217
27	0x3f5f3466	0.8718933
28	0x3f1f644c	0.62262416
29	0x3e04c928	0.1296736
30	0x3f74f9fa	0.95693934
31	0x3f62c6b6	0.8858446

layer3.1.bias f4 [32]
0	0xbafa2468	-0.0019084336
1	0x39e04f4a	0.00042783684
2	0xbaf2bd26	-0.0018519505
3	0xbb029092	-0.0019922596
4	0xba6d0fd5	-0.00090431917
5	0xbaede282	-0.001814917
6	0x3af6f002	0.0018839838
7	0x3abb6c88	0.0014299313
8	0x3ac81cf2	0.0015267415
9	0x3af12412	0.0018397591
10	0xb9f4e62a	-0.00046710792
11	0xbb007fd0	-0.0019607432
12	0x3b028d8c	0.0019920794
13	0xbb01ac9b	-0.0019786719
14	0xbb02e9ce	-0.0019975784
15	0xbac7f4d3	-0.0015255458
16	0xbaf63516	-0.0018784131
17	0x3abfaf7c	0.0014624442
18	0x3b031d1e	0.002000637
19	0x3a952dfb	0.0011381501
20	0x3aff8faf	0.0019497777
21	0xbaea3686	-0.0017869032
22	0xbaee9902	-0.0018203559
23	0x3b02fdd9	0.001998773
24	0x39a59328	0.00031580892
25	0x39fcd8a0	0.00048226584
26	0x3a8c9b16	0.0010727372
27	0xb9f3e382	-0.00046518078
28	0xbae76289	-0.0017653267
29	0xb98d3cee	-0.00026939012
30	0xbae37204	-0.0017352705
31	0x3a935a9a	0.0011242211

layer3.1.running_mean f4 [32]
0	0xbd3f964d	-0.046774197
1	0x3c34ac14	0.011027355
2	0x3c57cb9c	0.013171103
3	0x3d05eca6	0.03269639
4	0x3d352d4f	0.044232663
5	0xbd305ee5	-0.04305925
6	0xbbfb6607	-0.0076720747
7	0x3d4d2ca2	0.050091393
8	0x3b41ade3	0.0029553107
9	0x3ce9366f	0.028468339
10	0xbcfa5c69	-0.030561643
11	0x3d000299	0.031252477
12	0xbd2f6fde	-0.042831294
13	0xbc746dee	-0.014918787
14	0xbd061324	-0.032733098
15	0xbc87d111	-0.016579183
16	0xbd1dfa98	-0.038569063
17	0x3c8f1980	0.017468214
18	0x3d732349	0.059359822
19	0xbcc8a27d	-0.024491543
20	0x3d06f011	0.03294379
21	0x3cdca029	0.026931839
22	0xbce6a86f	-0.028156487
23	0x3c242f2f	0.010021015
24	0x3d70f55f	0.058827754
25	0xbc0f7599	-0.008756065
26	0xbce49440	-0.027902722
27	0x3d4417f1	0.047874395
28	0xbdaaae68	-0.083340466
29	0xbc47033b	-0.012146766
30	0xbd92f23f	-0.07175111
31	0xbc858c41	-0.01630223

layer3.1.running_var f4 [32]
0	0x3f530029	0.8242212
1	0x3f5109c0	0.816555
2	0x3f53bdbb	0.8271138
3	0x3f50bddd	0.8153971
4	0x3f54d23a	0.8313328
5	0x3f5106f0	0.8165121
6	0x3f50cf40	0.8156624
7	0x3f533193	0.8249752
8	0x3f52e8d7	0.82386535
9	0x3f56ad07	0.8385777
10	0x3f52310f	0.8210611
11	0x3f50e16b	0.8159396
12	0x3f51015b	0.81642693
13	0x3f521fe8	0.82079935
14	0x3f51a560	0.8189297
15	0x3f52048a	0.82038176
16	0x3f51c63e	0.8194312
17	0x3f522503	0.82087725
18	0x3f539aba	0.8265797
19	0x3f53682f	0.82580847
20	0x3f546bad	0.829768
21	0x3f555ac4	0.8334162
22	0x3f54fa07	0.8319401
23	0x3f51b0d5	0.8191045
24	0x3f50dd27	0.8158745
25	0x3f52a5bc	0.8228414
26	0x3f511ae1	0.8168164
27	0x3f5248b8	0.8214221
28	0x3f521c5e	0.82074535
29	0x3f523721	0.8211537
30	0x3f51a303	0.8188936
31	0x3f557997	0.83388656
