5312329.b16e1.model (torch_old, 820387 bytes, 32 tensors)

layer1.0.weight f4 [128, 3, 3, 3]
000000 46 43 31 be 6a 19 13 be 3b 49 5c bd 21 20 80 3d
       -0.17310819 -0.14365163 -0.053780776 0.06256128
000010 c5 85 36 3e fe 32 c9 3d e8 ba 10 3d 7d 20 8a bd
       0.17824467 0.09824179 0.035334498 -0.06744478
000020 13 c0 fc bd ee c8 c0 bd 7d 7e 26 3d 5b cd 7e bd
       -0.12341323 -0.09413324 0.040647972 -0.06220756
000030 c7 55 cb 3d bf 7c d4 bd 68 d3 6a bb 34 ec 08 3d
       0.0992847 -0.10375356 -0.0035831574 0.033428386
000040 71 99 2e bd d7 8e 10 be 67 f2 05 3d cc 89 e4 bd
       -0.042626802 -0.14116989 0.032701876 -0.11159095
000050 d6 19 f7 bd 8d 92 e7 bc 6c fe bc bd 01 42 12 be
       -0.12065475 -0.028268123 -0.092282146 -0.14282991
000060 8e 4d 15 3e c7 e9 24 be c3 d9 a9 bd 67 37 a3 bc
       0.14580366 -0.16104804 -0.08293488 -0.019923879
000070 41 c0 a7 bd 6b 9e ea bd e0 49 3d be 1f 2f df 3d
       -0.081909664 -0.11455997 -0.18485212 0.108976595
000080 ae aa f9 bd dc 07 e3 bd 74 97 0a bc 94 33 0d be
       -0.12190758 -0.110854834 -0.008458961 -0.13789207
000090 d5 ce 3d 3e 2e e0 09 be ad e2 9a 3d c6 8e 29 be
       0.18535931 -0.13464424 0.07562766 -0.1655837
0000a0 31 8b d2 3d 8b 1f 1a be 63 50 85 bc 3e 51 33 be
       0.10280455 -0.15051095 -0.016273683 -0.1751146
0000b0 6e 21 2e be f7 c1 28 be 94 a9 0b be 36 a5 02 be
       -0.1700494 -0.16480242 -0.13638908 -0.12758335
0000c0 a8 96 1b bd e5 72 ec bb ce 3e 24 3e 90 16 ef bd
       -0.037985474 -0.007215845 0.16039583 -0.11674225
0000d0 b5 68 39 3e fd a9 17 bd 60 fe 24 bd 4b e5 09 3e
       0.18106349 -0.037027348 -0.040281653 0.13466375
0000e0 bf 7b b7 3b 27 79 2e 3e 05 2d 8b 3d 40 16 50 3d
       0.0055994685 0.17038403 0.06795696 0.05080247
0000f0 da 53 de bd 2d c6 3d 3e 29 cb 1e bc 02 1d 09 be
       -0.10855837 0.1853263 -0.009691992 -0.13389972
000100 ab 84 42 3e 2f 81 4a 3d e5 02 cc bc 19 b1 9a bd
       0.18995921 0.049439605 -0.024903724 -0.0755331
000110 f6 1e 13 3e f7 ef c1 3d 5d 42 fa bd ea 00 e0 bd
       0.1436728 0.09469598 -0.12219689 -0.10937674
000120 6a 45 09 3e 8b ef 88 bc 47 10 25 3d 62 a1 f2 bd
       0.13405386 -0.016715785 0.040298726 -0.118471876
000130 f0 7b 29 3d b4 06 2c 3a fe 54 bd 3d 06 0c a1 3c
       0.04137796 0.0006562278 0.092447266 0.019659054
000140 af 47 ee bd 8e 7b be 3b 49 83 da 3d 1d b5 31 be
       -0.11634766 0.0058130687 0.10669572 -0.17354245
000150 0e d9 16 3e bc 6f 98 bc f1 66 f3 bd 04 79 91 bc
       0.14731237 -0.018607967 -0.11884869 -0.0177579
000160 e9 ec 8b 3c df 7d be 3d 1a f1 25 bd 03 38 25 3d
       0.017080741 0.09301352 -0.040513135 0.04033662
000170 86 c1 42 be 2e e9 23 3e 00 5f aa bd 92 d5 c8 3d
       -0.19019136 0.1600692 -0.08318901 0.0980636
000180 6e ae 00 be a4 94 28 3c ab b6 70 3d 74 77 03 be
       -0.1256654 0.010289345 0.058767956 -0.12838537
000190 99 ce 80 bd 91 d6 b8 3d 50 a5 07 3e c9 3e 39 3d
       -0.062894054 0.090253 0.13246655 0.045225892
0001a0 8b 37 ca 3d e6 c5 25 3d 70 7b 00 bd b8 cf 41 3c
       0.09873875 0.040471934 -0.03136772 0.011829309
0001b0 59 e1 2f bc cf 9d 0c be cf a1 16 3d 30 57 2e be
       -0.010734879 -0.13732074 0.036775406 -0.17025447
0001c0 0d 39 3f 3e 60 f5 08 bd 13 3c 18 3e b3 53 65 3d
       0.18674107 -0.033437133 0.14866666 0.055988025
0001d0 03 c1 e7 bd 67 ea dd 3c c3 df 5d bd c9 b5 1f 3b
       -0.11316111 0.02708931 -0.054168474 0.0024369827
0001e0 b5 e7 2e 3e b6 f0 09 3c a7 f4 96 3d 08 c0 c6 bd
       0.17080577 0.008419206 0.073708825 -0.09704596
0001f0 6f 07 47 bd 10 be 3a be b8 68 9e bc d9 83 3e be
       -0.048591074 -0.18236566 -0.019337043 -0.18604983
000200 7b f4 aa 3d d9 22 f7 3c 6b dc 3b 3e 82 3c da bd
       0.08347412 0.030167984 0.18345802 -0.10656072
000210 c6 35 35 3e 22 43 8d bd c3 11 1e be 12 4b 34 be
       0.17696294 -0.0689757 -0.15436463 -0.17606762
000220 7c ff 90 bd 9c 19 42 be 9e ae 02 be a6 9f 71 bd
       -0.0707998 -0.18955082 -0.12761924 -0.058990143
000230 6a 65 92 bd 56 3f ad ba 26 13 03 3e c2 04 22 be
       -0.071482494 -0.0013217728 0.12800273 -0.15822127
000240 f8 63 0d 3e 83 47 11 3e 7f ff 29 3e fe 2f 0c 3e
       0.13807666 0.14187436 0.1660137 0.13690183
000250 0e 0c 1c be 40 71 85 3d f0 f7 34 3e 3e 05 2a 3e
       -0.15238973 0.06515741 0.17672706 0.16603562
000260 0a 10 3f 3e f8 3b 15 be 63 bd f4 3a 00 7a e3 3d
       0.18658462 -0.14573658 0.0018672164 0.11107254
000270 a4 09 19 3e 39 7c ba 3d e3 6a 80 bd e2 87 c0 3d
       0.14945084 0.09105725 -0.06270387 0.094009176
000280 ec a8 03 bc 56 b9 db 3d fd 6c 2d be b3 11 26 be
       -0.00803588 0.107287094 -0.16936107 -0.16217689
000290 d1 a2 d6 bd 1b 87 27 bc d3 dc c9 bb e7 c6 d8 3c
       -0.104802735 -0.010225083 -0.0061603575 0.026462032
0002a0 7d 12 26 be df 63 93 bd 28 ec 97 bc d4 13 b1 3d
       -0.1621799 -0.07196783 -0.018545225 0.0864636
0002b0 a3 a3 21 3e f6 35 40 be d8 73 35 be a4 58 22 be
       0.15785079 -0.18770584 -0.17719972 -0.15854126
0002c0 04 ba 8d bd 8d 46 39 3e 12 5d 9b 3d 19 2d 0e 3e
       -0.06920245 0.18093319 0.07586111 0.13884391
0002d0 f1 f9 e1 bd 62 76 b4 bd 79 7d 14 bd 20 31 2f 3e
       -0.11034001 -0.08811642 -0.036252473 0.17108583
0002e0 d5 3c 26 be 31 aa dc bd 2e 7d f2 3d 30 a7 b7 3a
       -0.16234143 -0.10774649 0.118402824 0.0014011618
0002f0 00 ef 4f 3d 42 e8 8f bd c0 a0 b1 3d 96 62 a2 3c
       0.050765038 -0.070267215 0.08673239 0.0198224
000300 d8 fe 18 be e2 78 cf 3d 40 5b e9 3d f7 3e aa 3d
       -0.14940965 0.101304784 0.11394358 0.08312791
000310 b1 02 a7 bd 7a 45 27 3e 0d e1 30 3d fe 89 f5 3c
       -0.0815481 0.16335097 0.043183375 0.029973026
000320 e2 e9 14 be 97 84 43 bd 73 f7 0f be 61 71 fb bd
       -0.14542344 -0.04773387 -0.14059238 -0.12277485
000330 ef 1c cf 3c d2 6b 02 3d 9a e3 2c be d7 8e 9f 3d
       0.025282351 0.031841107 -0.16883698 0.077909164
000340 eb 7f 35 be b1 b8 a2 bd f0 27 19 3e 5d 2e 0d be
       -0.17724578 -0.07945383 0.14956641 -0.13787217
000350 68 b9 d7 3d 30 18 1e 3e c7 05 36 be 67 ad 42 be
       0.1053341 0.15438914 -0.17775641 -0.1901146
000360 91 ab 93 3d ad 5c 3b 3e 7d 67 ad 3d d5 b5 1e be
       0.07210458 0.18297072 0.084670044 -0.15499051
000370 67 68 14 be 5d bc 8a 3b 2c ff 15 3e 21 f9 cd 3c
       -0.14492951 0.0042338804 0.14648122 0.025143208
000380 6f 8d cd 3b b1 9c d4 bd eb 84 44 3e fe 6c c4 bd
       0.0062729637 -0.10381449 0.19191329 -0.09591101
000390 c5 35 c2 3c bc a0 e0 3d e4 b8 05 bc bf af 07 be
       0.02370728 0.10968158 -0.008161757 -0.13250636
0003a0 2a 6c ef 3d 64 46 c4 3d 06 47 f1 3d f1 8c 2f be
       0.116905525 0.095837384 0.11781125 -0.17143609
0003b0 c0 47 42 be c4 44 5b bd 3b 77 28 3e aa 49 e1 3d
       -0.18972683 -0.053532377 0.16451733 0.110003784
0003c0 55 c2 c3 3c 58 0a c9 bb e7 93 d2 bd 12 76 13 be
       0.023896376 -0.0061352663 -0.102821164 -0.14400509
0003d0 77 a6 a4 bd be 3c e3 3c 56 63 28 bc 22 7b 63 3d
       -0.08039563 0.027738925 -0.01027759 0.05553735
0003e0 1f d9 99 bd a9 60 06 bd 13 70 24 3c d9 e9 68 3d
       -0.07512116 -0.032807026 0.010036486 0.05686364
0003f0 eb 1f 44 3e 4e 17 60 3d 57 11 e0 bd e0 7c 39 be
       0.191528 0.054709725 -0.10940807 -0.18114042

layer1.0.bias f4 [128]
000000 b3 32 38 be 7b 40 10 be d9 c9 c3 bd 13 af b6 bc
       -0.1798809 -0.14087097 -0.09559984 -0.022300279
000010 80 c3 0d be b0 fe 40 3e 9e 7f 0f 3d 38 94 1f be
       -0.13844109 0.18847156 0.035033815 -0.15583885
000020 20 d0 2c 3d a3 26 40 bd 94 0a 2a be 5b d7 04 3c
       0.04219067 -0.046911847 -0.16605598 0.008107985
000030 ce 44 c9 3c f3 cd 15 be 29 f9 05 be f4 e0 ce bd
       0.024568941 -0.14629345 -0.13083328 -0.101015
000040 77 76 f3 3c f8 9e a6 3b 78 3e 06 be e2 4e 91 3c
       0.029719574 0.0050848685 -0.13109767 0.01773781
000050 f3 e3 a8 bd e0 61 31 bd b5 95 05 3e 4e 4a b6 bd
       -0.08246603 -0.04330623 0.1304539 -0.08900891
000060 70 13 a5 3a d0 6b c3 3d af 08 f5 3d 87 07 6f bd
       0.0012594294 0.09542048 0.11964547 -0.058356788
000070 61 88 cd 3c 1b 7c 0d be ef fd e5 bd d5 15 9a bd
       0.025089445 -0.13816874 -0.112300746 -0.075236954
000080 c7 d8 20 3d b6 2e ed bd 47 c1 20 3e 66 15 05 3e
       0.039269235 -0.11581175 0.1569873 0.12996444
000090 15 8f d7 bd 6d 07 4e 3d 4d 6b 27 be 63 69 5d 3b
       -0.105253376 0.05030005 -0.16349526 0.003378474
0000a0 6a b2 81 bd 97 a1 c0 bc e5 ef e3 bc c8 8e 10 3e
       -0.06332858 -0.023514552 -0.027824352 0.14116967
0000b0 ff 26 2c be 1b ed 52 bc 2d 1c 91 bd c5 b3 a3 3d
       -0.16811751 -0.012873913 -0.07085452 0.07993273
0000c0 f0 f3 1e 3e c6 48 d3 3d 90 ff 00 be 93 eb bd bd
       0.15522742 0.10316615 -0.1259749 -0.09273448
0000d0 e7 3f 2f 3e 45 7c 0f be c2 e4 38 3b 12 40 40 3d
       0.1711422 -0.14012249 0.0028212522 0.046936102
0000e0 23 4e a8 3d 14 04 c7 bd 19 a7 5e bd 7b 73 2b 3e
       0.082180284 -0.09717575 -0.054358575 0.16743271
0000f0 78 81 34 3d 67 73 38 3d 7d 08 7b 3d c8 dc 29 3e
       0.044068784 0.04503193 0.061287392 0.16588128
000100 a9 40 c8 bd 9d 3d a8 3d 19 65 3c 3d a3 7e 92 bd
       -0.09777958 0.08214877 0.04599485 -0.0715306
000110 a5 d8 cd 3d 03 58 42 3e 07 0b 74 3d 4c 33 d0 bc
       0.10051087 0.18978886 0.05958083 -0.025415085
000120 94 61 1f 3e c8 18 8f 3d b3 58 1a be 59 0a ba bd
       0.15564567 0.069871485 -0.15072899 -0.09084005
000130 b6 17 c3 bd 21 5d 69 bd a5 12 3b be 0c 7b 10 3e
       -0.09526007 -0.05697358 -0.18268831 0.14109439
000140 2c 74 5d 3d 80 38 21 3c ea 15 93 3c 18 39 2b 3d
       0.05406587 0.009840131 0.017954785 0.041802496
000150 81 73 a8 bc 9e b1 c8 3c 42 bb 16 3e 50 b3 1c be
       -0.020562889 0.024498757 0.1471987 -0.15302777
000160 bf e0 37 be 06 86 9d bd 48 ed 91 bd 16 84 27 3e
       -0.17956828 -0.076915786 -0.07125336 0.1635898
000170 4d 72 b3 bd 29 e7 3e be 9c 08 0b 3e c2 7b f4 bd
       -0.087620355 -0.18642868 0.13577503 -0.119376674
000180 38 06 07 3e ca 76 b8 bd 48 f5 fb bb 51 95 3b be
       0.13185966 -0.09007032 -0.007689152 -0.18318678
000190 50 a3 2c 3e 13 d8 3b 3c b1 03 da 3d 22 58 32 3d
       0.16859174 0.01146509 0.10645235 0.04354108
0001a0 a2 3b a3 3d 95 14 15 3e f5 cc 1a be 19 3d 39 3e
       0.079703584 0.14558633 -0.15117247 0.18089713
0001b0 2d 54 ac 3d eb f8 11 be 95 ff 26 be 45 7c 33 be
       0.08414493 -0.14255111 -0.16308434 -0.17527874
0001c0 aa 37 d2 bb b3 b4 b1 3d 26 9d 96 bd b4 3f e6 3d
       -0.006415327 0.08677044 -0.073541924 0.11242619
0001d0 b1 43 26 be 08 96 9b 3c a1 a0 21 3e 1e 8d 28 3c
       -0.1623676 0.018992439 0.15783931 0.010287551
0001e0 c6 ae 2b be 83 c1 37 3e 6b a4 e9 3d bb 12 eb 3d
       -0.1676589 0.17944913 0.11408313 0.11478182
0001f0 f8 d7 3d bd 2b a0 e6 3d fc 84 fa 3c e4 79 f3 bd
       -0.046348542 0.11261018 0.03058099 -0.11888483

layer1.1.weight f4 [128]
000000 75 06 25 3f 7b 0d 55 3e ff f1 43 3f a5 cc cb 3d
       0.6446298 0.20805924 0.7654113 0.09951142
000010 f6 5b 5b 3f 14 e7 23 3f 69 03 4e 3e 7c 7b e9 3e
       0.85687196 0.6402447 0.20118488 0.45602024
000020 6b a6 de 3e dd 57 60 3f 47 fd 6b 3f 00 c4 6d 3e
       0.43486342 0.8763407 0.92183346 0.232193
000030 15 fa 76 3e 28 01 4d 3f 2c da 87 3d 21 de d4 3e
       0.24118836 0.8007989 0.0663341 0.4157572
000040 ed 31 13 3f 4a 0e 35 3f 95 7e 3c 3f 8b ef 33 3f
       0.57498056 0.7072493 0.7363065 0.7028739
000050 bb 50 fb 3e d2 41 6d 3f 56 2d ff 3e 33 16 7a 3e
       0.4908503 0.9267856 0.49839276 0.24422531
000060 06 b0 4f 3f 77 6d 67 3e 15 2c f5 3e f4 6c 91 3e
       0.81127965 0.22600351 0.47885194 0.28403437
000070 d4 61 03 3f b0 3c 28 3f 6d 0f c5 3e 35 05 f9 3c
       0.5132115 0.657176 0.3848833 0.03039799
000080 28 09 d3 3d 16 32 61 3f 8c d0 ff 3e 25 b5 38 3f
       0.10304481 0.8796705 0.49963796 0.72151405
000090 57 46 4d 3f 78 d2 4b 3f af 16 f7 3e 58 9e 9d 3e
       0.80185455 0.79618025 0.48259494 0.3078487
0000a0 01 e1 07 3d 92 7b 10 3f 24 bd 25 3f 4e 7e 27 3e
       0.033173565 0.56438553 0.6474173 0.16356775
0000b0 85 d8 4b 3f cd 15 45 3e cb e7 61 3f 0b 3d 77 3d
       0.7962726 0.19246598 0.88244313 0.06036095
0000c0 10 76 30 3e 7d a1 8e 3e fa b9 54 3f 2b 5d 61 3f
       0.17232537 0.2785758 0.8309628 0.8803279
0000d0 af fc 2a 3f 19 ae 6f 3f f2 c5 bb 3c 12 12 66 3f
       0.66791815 0.93625027 0.022921536 0.89871323
0000e0 67 39 17 3f 34 0f 09 3f 11 91 1d 3f 58 2c 74 3f
       0.59071964 0.53538823 0.6154948 0.95380163
0000f0 40 ee 36 3f 66 7b 46 3f 5e 5d 35 3e a3 25 3f 3f
       0.7145729 0.7753204 0.17711398 0.74666804
000100 b4 46 83 3e d0 da ce 3e a8 b0 48 3f cb 86 5e 3e
       0.2563988 0.40401316 0.78394556 0.21731107
000110 51 ac 43 3f 9a ce 64 3f 16 38 0c 3f 68 a3 70 3f
       0.7643481 0.8937775 0.5477308 0.9399934
000120 79 ea 4a 3f 84 6d 0c 3c 5d a2 9f 3e d0 d4 36 3e
       0.79264027 0.008571032 0.3117856 0.17854619
000130 f5 02 09 3f 4c 6b 03 3f b4 3a 8c 3e c4 ae 22 3f
       0.5352014 0.513356 0.27388537 0.6354792
000140 71 e0 43 3f ff 0f 1c 3f 58 0f a0 3e 7e 50 59 3e
       0.76514345 0.6096191 0.31261706 0.21222112
000150 03 d3 7f 3e a6 6d be 3d 86 5f 3a 3d a3 f4 55 3f
       0.24982838 0.092982575 0.045501254 0.8357641
000160 f8 71 d1 3e 5d 26 20 3e d4 93 82 3d 1b d3 a0 3e
       0.40907264 0.15639634 0.06375852 0.3141106
000170 0b b0 7a 3f 98 c2 fe 3e 05 b1 ea 3e 68 70 f5 3e
       0.9792487 0.49757838 0.4583818 0.47937322
000180 65 17 e6 3e ca 1a 5d 3f d0 99 7b 3f 1d 87 1c 3e
       0.44939724 0.86369 0.98281574 0.15285917
000190 7f 33 39 3e 0f 9a 48 3e fe d1 80 3e 11 e8 df 3e
       0.1808605 0.19590019 0.2516021 0.4373174
0001a0 83 69 95 3e b7 17 33 3e 11 9d 2d 3f 4c 1c da 3e
       0.29182062 0.17489515 0.6781779 0.42599714
0001b0 62 97 b7 3e 06 d4 e4 3e 96 c0 a9 3e ff 6f 5a 3f
       0.35857683 0.4469301 0.33154744 0.8532714
0001c0 a6 1c 9f 3d 68 07 30 3f 02 0f 47 3f b5 37 07 3f
       0.07769136 0.687613 0.77757275 0.5281938
0001d0 39 7f 05 3f 27 4f bd 3e b6 2d 74 3f 74 94 b9 3e
       0.5214725 0.3697445 0.9538225 0.36246073
0001e0 32 1a 55 3f 32 19 a9 3e 2d 87 ad 3e a3 39 20 3f
       0.83243096 0.33027035 0.33892193 0.62587947
0001f0 12 19 32 3f a4 51 06 3f 97 86 2b 3e 3c 31 5d 3f
       0.69569504 0.52468324 0.1675056 0.8640325

layer1.1.bias f4 [128]
000000 57 e1 6a 3a 12 f7 82 3a 1a f5 82 ba 6d f6 82 3a
       0.000895997 0.0009991846 -0.0009991259 0.0009991653
000010 7c f0 82 3a 90 eb 82 3a 4e cf 82 3a bd df 82 ba
       0.0009989883 0.0009988416 0.0009979995 -0.0009984892
000020 55 9d 81 3a e2 ec 82 3a 6c 3f 67 3a ed 6a 82 ba
       0.0009888808 0.000998881 0.0008821401 -0.0009950079
000030 3e ff 82 ba d7 f6 82 ba ca bf 82 ba 25 c5 82 3a
       -0.0009994281 -0.0009991777 -0.000997537 0.0009976967
000040 44 d5 82 ba e1 fb 82 3a 3f e9 82 3a 30 51 81 3a
       -0.0009981771 0.0009993279 0.0009987726 0.0009866115
000050 88 09 82 ba 1e a5 82 ba 7a b3 82 3a db eb 82 3a
       -0.0009921053 -0.0009967422 0.0009971701 0.0009988503
000060 c9 e5 82 ba 9e bb 82 ba 00 5d 82 ba 43 d4 82 ba
       -0.0009986694 -0.0009974127 -0.0009945929 -0.0009981472
000070 78 f9 82 3a c2 f3 82 ba 9b ee 82 ba e9 7b 82 3a
       0.000999256 -0.0009990858 -0.0009989323 0.0009955141
000080 f4 93 82 3a ef fa 82 3a 47 f3 82 3a 9a cf 82 3a
       0.0009962306 0.0009992997 0.0009990715 0.0009980083
000090 24 ed 82 ba 77 9a 82 ba 79 f1 82 3a c4 08 83 3a
       -0.0009988886 -0.0009964247 0.0009990177 0.0009997119
0000a0 6c f9 82 3a 5a e9 82 3a 0b fa 82 ba 37 bb 82 3a
       0.0009992546 0.0009987757 -0.0009992732 0.0009974007
0000b0 dd 05 83 ba 3e d8 82 ba 67 a5 82 ba b5 ed 82 3a
       -0.0009996254 -0.0009982658 -0.0009967507 0.0009989055
0000c0 d4 e0 82 ba 20 ee 82 3a 93 0a 83 ba e0 13 7f ba
       -0.0009985217 0.000998918 -0.0009997658 -0.00097304396
0000d0 ca d9 82 ba bd b4 81 ba aa f9 82 ba b8 d6 82 3a
       -0.0009983119 -0.0009895783 -0.0009992619 0.0009982204
0000e0 fe fc 82 ba b8 cd 82 3a 28 f2 82 ba ab a7 82 3a
       -0.000999361 0.0009979522 -0.0009990381 0.0009968182
0000f0 f1 04 83 3a a8 db 82 ba 9b d6 82 3a c1 fc 82 3a
       0.000999598 -0.0009983676 0.000998217 0.000999354
000100 8a ea 82 3a 99 33 81 3a 49 fd 82 3a 39 96 82 3a
       0.0009988111 0.0009857296 0.0009993698 0.0009962983
000110 2e b9 82 ba 0a ee 82 3a da d8 82 ba 57 de 82 3a
       -0.0009973401 0.0009989154 -0.000998284 0.0009984475
000120 09 36 81 3a 0d 05 83 ba 0a f7 82 ba 09 07 83 ba
       0.0009858023 -0.0009996012 -0.0009991836 -0.0009996603
000130 60 e8 82 ba 5e eb 82 3a e6 6c 80 ba 21 c1 82 ba
       -0.0009987466 0.0009988358 -0.0009798079 -0.000997577
000140 bf e5 81 ba 80 71 82 3a a7 00 83 3a 6d e3 82 ba
       -0.0009910389 0.0009952039 0.0009994701 -0.0009985991
000150 d9 d6 82 3a 5b cb 7d 3a 6d 6c 82 3a 2b ed 82 3a
       0.0009982242 0.00096814864 0.0009950526 0.0009988894
000160 cf dc 82 3a 39 f4 82 3a f8 f7 82 3a c7 ce 82 3a
       0.0009984019 0.0009990997 0.0009992113 0.0009979837
000170 7d cf 82 3a 63 90 82 ba 2a fb 82 ba 49 01 83 3a
       0.0009980049 -0.0009961243 -0.0009993066 0.000999489
000180 b2 02 83 ba 15 04 83 3a e7 01 83 3a 46 ed 82 3a
       -0.000999531 0.0009995723 0.0009995074 0.0009988926
000190 2c fe 82 ba ec 04 83 ba fa f4 82 ba 27 0f 82 ba
       -0.0009993962 -0.0009995974 -0.0009991222 -0.0009922729
0001a0 e0 c3 82 3a 8c 00 83 3a f3 ef 82 3a d0 b1 82 ba
       0.0009976588 0.000999467 0.0009989723 -0.0009971205
0001b0 f7 e8 82 3a a2 de 82 ba e9 ea 81 ba ca e1 82 ba
       0.0009987642 -0.0009984563 -0.0009911928 -0.0009985503
0001c0 95 cc 81 ba d3 aa 82 ba cd 03 83 ba b3 f5 82 3a
       -0.0009902889 -0.0009969122 -0.000999564 0.0009991437
0001d0 53 e4 82 ba 57 fc 7d ba c7 01 83 ba 68 d4 82 3a
       -0.0009986259 -0.00096887856 -0.0009995037 0.0009981515
0001e0 0f e4 82 3a b9 f9 82 ba 06 f9 82 3a 41 ed 82 ba
       0.000998618 -0.0009992636 0.0009992428 -0.000998892
0001f0 85 77 82 3a 50 00 83 ba 80 09 83 3a d1 e9 82 3a
       0.0009953832 -0.00099946 0.0009997338 0.0009987896

layer1.1.running_mean f4 [128]
000000 15 ad 82 c1 07 b4 bd c1 47 79 10 41 03 1d 10 40
       -16.334513 -23.712904 9.029609 2.2517707
000010 a2 2e 6b c0 36 74 16 41 4e a4 5c c1 80 2f f9 c0
       -3.6747212 9.403372 -13.790113 -7.7870483
000020 ba 34 a6 40 94 b7 2b c0 c8 ea 56 3f 3c 82 a8 c0
       5.1939363 -2.6830797 0.83952 -5.2658978
000030 b4 32 23 bf 00 f5 82 40 56 4d 93 be f0 a0 59 40
       -0.6374924 4.092407 -0.2876994 3.4004478
000040 83 80 ce bf a4 45 9c 40 4d 4f 8e c0 ab 3f 72 c1
       -1.6132969 4.883501 -4.4471803 -15.140544
000050 df 03 c8 c0 cd 8c a4 c0 b6 77 2b bf 7f 3b cc 40
       -6.2504725 -5.1421876 -0.6697954 6.3822627
000060 d2 fe 80 c0 34 aa 82 be 08 71 66 c1 3f 12 2e 41
       -4.031106 -0.2552048 -14.4025955 10.879455
000070 03 84 c9 3f 96 ee 28 bf a0 06 d0 3f 02 8f eb c0
       1.5743412 -0.65989053 1.6252022 -7.361207
000080 b2 76 82 41 e3 60 53 40 6b 49 84 c1 ef c2 ac c0
       16.307957 3.3027885 -16.535849 -5.3987956
000090 35 ef 52 c1 af 12 28 c0 82 6b 1c 40 90 3c c7 40
       -13.1834 -2.6261404 2.4440618 6.226143
0000a0 63 1e 64 41 15 24 de c0 77 b5 16 41 2a b9 9b 40
       14.257419 -6.9419045 9.419303 4.866353
0000b0 8e 9b c3 40 3a 7b 2e c1 22 4b 0c c1 35 53 1a c1
       6.1127386 -10.905085 -8.768343 -9.645314
0000c0 ce b8 46 41 26 e1 c7 c0 16 39 93 41 b0 43 5a 41
       12.420118 -6.246234 18.402874 13.641525
0000d0 22 0f 79 bf 43 78 cc 3f 53 58 b9 c1 a3 68 db 40
       -0.97288716 1.5974201 -23.168127 6.856523
0000e0 07 f2 14 c1 0b 89 f2 40 30 73 54 41 ca 64 cf bf
       -9.309089 7.579229 13.278122 -1.6202633
0000f0 b2 be 6c c1 7d e2 b1 bf 23 2c 72 40 ba f3 a5 40
       -14.796556 -1.3897244 3.783944 5.186002
000100 fd ed f3 c0 b3 61 af 40 e5 e8 cf 40 78 77 71 41
       -7.6228013 5.480676 6.4971795 15.091667
000110 9d b5 d0 3f e2 f0 94 3f ce 44 c6 40 2b 51 39 41
       1.6305424 1.1636012 6.195899 11.582316
000120 8e 50 87 41 5f 75 8a c0 96 cb 36 c1 34 1c 47 c1
       16.914333 -4.3268275 -11.424704 -12.444386
000130 a6 97 a2 c0 39 f3 3e c1 ab 8e 6c 41 ae 07 cd 40
       -5.081012 -11.934381 14.784831 6.4071875
000140 2f d9 49 c1 c3 72 76 40 76 df 5d c1 f5 a3 6d c1
       -12.615523 3.8507545 -13.867056 -14.852529
000150 6d c1 0d c0 5e d6 42 3e 50 5a 65 40 2f 85 08 c1
       -2.2149308 0.19027087 3.5836372 -8.532516
000160 22 d1 d8 c0 72 c7 16 41 6e 56 0b c0 54 e3 ca c0
       -6.775529 9.423693 -2.1771502 -6.34025
000170 17 55 28 41 7d ee 5b c1 62 92 ac bf 4e a4 cb 40
       10.520774 -13.745725 -1.3482172 6.3638067
000180 82 9a ca c0 81 1d b8 40 f6 da c9 40 09 8d 2a c1
       -6.331361 5.7536016 6.3079786 -10.659432
000190 47 6a 22 c1 47 bb 98 40 50 f9 fd c0 9c 62 ba c0
       -10.150947 4.772861 -7.9366837 -5.8245373
0001a0 c5 06 e0 c0 98 f1 49 c1 9d 6d 1f c1 6f e2 ba 40
       -7.0008264 -12.621483 -9.964261 5.840141
0001b0 ea 83 19 c1 23 e0 78 c1 a9 be b8 3f c6 3d 15 41
       -9.594706 -15.554721 1.4433185 9.327581
0001c0 f0 16 22 c1 ca 8b 1a 40 55 20 75 c0 89 89 16 c0
       -10.1306 2.414782 -3.8300984 -2.3521445
0001d0 95 00 d4 c0 ad 53 10 c1 69 b5 2b c0 ea 68 0b c1
       -6.625071 -9.020429 -2.6829474 -8.713114
0001e0 b6 d2 66 c1 fa 46 29 c1 e2 b2 ca c0 ac 2f ba c0
       -14.426443 -10.579828 -6.3343363 -5.8183193
0001f0 bc 1a 22 c1 bb d8 d1 40 aa a0 42 41 a2 3c 3e c0
       -10.131527 6.5577064 12.164225 -2.9724507

layer1.1.running_var f4 [128]
000000 71 d5 22 44 e3 d8 90 44 ea c8 37 43 69 7b 69 42
       651.335 1158.7777 183.78482 58.370518
000010 85 d8 b2 42 67 62 99 43 cb 22 db 43 3b 63 3b 43
       89.42289 306.76877 438.27182 187.38762
000020 a3 1c 87 42 16 b2 15 42 3c 2e ce 41 9f f0 ad 42
       67.55593 37.423912 25.772575 86.96996
000030 6f c2 c4 41 6e c8 18 42 55 c9 79 42 6c c4 cb 42
       24.594938 38.195732 62.446613 101.88364
000040 6b 62 80 42 f6 62 ca 42 b7 13 b2 42 3b 11 f6 43
       64.19222 101.19328 89.038506 492.1346
000050 94 fe 1f 43 7d 36 d7 42 c3 ff e2 41 62 65 01 43
       159.99445 107.60642 28.374884 129.39603
000060 3e 21 87 42 98 89 8a 42 ec 6c 02 44 03 2f 81 43
       67.564926 69.26874 521.7019 258.36728
000070 b7 4c 8a 42 8c 0b 84 42 7d ed f4 42 af 14 29 43
       69.14983 66.02255 122.463844 169.0808
000080 1f 05 1f 44 89 a5 73 42 02 17 fc 43 d4 e6 de 42
       636.08 60.911655 504.17975 111.450836
000090 0e 88 cf 43 3f 33 11 42 c6 71 12 42 ca c9 1a 43
       415.06293 36.300045 36.611107 154.78824
0000a0 6a 91 07 44 64 91 03 43 8d 51 a4 43 51 2f cc 42
       542.2721 131.56793 328.63712 102.092415
0000b0 82 07 07 43 0d 0a b7 43 e1 ec 6d 43 76 c0 6f 43
       135.02933 366.07852 237.92531 239.7518
0000c0 cd 5f 98 43 ac 5e c6 42 d2 2b 43 44 01 8b d4 43
       304.74844 99.184906 780.6847 425.08597
0000d0 88 51 ba 42 6d e4 9f 42 ca fb 8e 44 f0 2e 04 43
       93.15924 79.946144 1143.8684 132.18335
0000e0 fc 30 35 43 8f 9a 0d 43 21 ff cb 43 a5 f4 a6 41
       181.19135 141.60374 407.9932 20.869455
0000f0 f1 3e f2 43 57 06 b9 42 0c 67 6c 42 70 06 a9 42
       484.49173 92.51238 59.10063 84.51257
000100 c8 62 5b 43 4a 65 dc 42 2d 41 31 43 76 36 fa 43
       219.38586 110.19783 177.2546 500.42548
000110 b8 a2 64 42 1d 42 8a 42 b3 38 13 43 14 95 b3 43
       57.158905 69.12913 147.22148 359.16467
000120 83 bf 25 44 06 c7 b7 42 19 54 a9 43 04 36 b1 43
       662.9924 91.88872 338.657 354.422
000130 ff f6 8d 42 d6 4e 8c 43 4e 48 f8 43 e4 67 0b 43
       70.982414 280.6159 496.56488 139.40582
000140 0e 4f de 43 86 e3 bf 42 c7 e0 d6 43 b9 a2 db 43
       444.6176 95.94438 429.75607 439.27127
000150 ad d7 e0 42 54 7a 12 42 17 d1 13 43 2e 6f 33 43
       112.42124 36.61946 147.81676 179.4343
000160 fe 24 e7 42 6f 83 87 43 d1 7b 00 42 3e cd 08 43
       115.57225 271.02682 32.120914 136.80173
000170 8a 93 9c 43 ea 07 d2 43 6f d9 64 42 52 31 45 43
       313.15265 420.06183 57.212337 197.19266
000180 0d c2 02 43 9e e7 f9 42 b5 5f 02 43 c6 a3 7e 43
       130.75801 124.95238 130.37386 254.63974
000190 77 d9 63 43 f8 11 ad 42 6c 1b 35 43 80 a4 24 43
       227.84947 86.535095 181.10712 164.64258
0001a0 23 9b 4f 43 cc c3 a6 43 44 1f 4c 43 9f f6 cb 42
       207.606 333.52966 204.12213 101.98168
0001b0 24 3e 73 43 a0 64 08 44 3d 13 49 42 df 83 53 43
       243.24274 545.57227 50.268787 211.51512
0001c0 9c d5 88 43 44 b2 5f 42 a3 a2 d2 42 74 53 f7 41
       273.66882 55.924088 105.31765 30.915749
0001d0 3a 30 e6 42 63 63 4c 43 3a 7a 4b 42 5b e0 51 43
       115.09419 204.38823 50.86936 209.87639
0001e0 3a e2 ef 43 3c c5 99 43 11 b3 df 42 a9 37 06 43
       479.7674 307.5409 111.84974 134.21742
0001f0 71 c3 84 43 15 37 04 43 cd 3b a7 43 b8 62 60 42
       265.5269 132.21516 334.4672 56.096405

layer2.0.weight f4 [64, 128, 3, 3]
000000 23 95 5b bc be ea de 3c e3 ef de 3c 75 4f 81 3c
       -0.013402256 0.027211543 0.027213996 0.015784958
000010 30 a1 ae bc f6 03 05 bc f5 7f 8d 3c 1c 38 93 3c
       -0.021317095 -0.00811862 0.017272929 0.017971091
000020 76 40 81 3c 47 c6 7f 3c 47 f0 d5 bc fc 59 d3 3c
       0.015777808 0.015611238 -0.02611555 0.025799744
000030 e4 27 a3 3c e4 1b 32 bc 74 8d e4 bc fe f4 31 bc
       0.019916482 -0.010870907 -0.027899481 -0.010861633
000040 d7 a9 8f bc c0 59 be bc 01 39 88 3c d4 4a d4 3c
       -0.01753704 -0.023236156 0.016628744 0.025914587
000050 5d af ca bc be 7c 7b bc 9c d5 ae 3c 78 fc 84 bc
       -0.024741823 -0.015349565 0.021342091 -0.016233668
000060 05 9f 84 ba b8 67 5b bc 15 8b d4 3c 91 5b 83 3b
       -0.0010118192 -0.013391428 0.025945226 0.0040087183
000070 7e 9c 8a 3b fe b5 8f 3c 00 64 dc 3c a1 3e b0 3c
       0.004230081 0.017542835 0.026903152 0.021514239
000080 7e 04 7c bc 50 48 9f bc 71 73 dd bc 7f 4e b1 3c
       -0.01538193 -0.019443661 -0.027032586 0.021643875
000090 5d 60 36 bc 78 80 38 bb 3f 77 5f bc 61 be c9 3c
       -0.011131373 -0.0028152745 -0.01363927 0.024626913
0000a0 08 ed 08 39 5e 16 da ba 53 25 ae bc 38 5a 94 bc
       0.00013058272 -0.0016638746 -0.021258032 -0.018109426
0000b0 f1 57 d1 3c ed 9a 88 bc 56 13 a4 3c c4 ac 6c bc
       0.025554629 -0.016675437 0.020028751 -0.014445487
0000c0 39 5d f3 bc 7e e4 93 3c 32 61 b1 bc c0 5f b1 3b
       -0.029707538 0.01805329 -0.021652792 0.0054130256
0000d0 d3 35 ee bc 64 80 5c bc 7e 81 73 3c eb f9 ea 3c
       -0.0290784 -0.013458345 0.014862416 0.028683623
0000e0 f0 06 04 3c ba c4 8d bc d5 09 a6 bc 4d b1 d2 bc
       0.008058295 -0.01730572 -0.02026836 -0.02571931
0000f0 a6 40 a0 3c d6 bf 8a bc 8f e4 95 bc b7 e7 70 bc
       0.019562077 -0.016937178 -0.018297462 -0.014703683
000100 88 77 ff 3b b1 c2 3f bb 3a 42 2e 3c ae 17 c7 bc
       0.0077962317 -0.0029260332 0.010635907 -0.024303284
000110 53 5b 6b bc 79 cf c2 3c 26 5f 08 3c bd 6b 65 3b
       -0.014365035 0.023780571 0.008323466 0.0035006844
000120 1d ea c3 bc ae e8 af 3c 19 cf 56 bc 80 78 dd 3c
       -0.023915345 0.021473255 -0.013110899 0.027034998
000130 31 5b 71 bc 9c ab 24 bc 56 ed 64 3c 24 0e 0f bc
       -0.014731214 -0.0100506805 0.013972601 -0.008731399
000140 f7 3f 54 bc 4c 97 3e bc d4 36 5a 3c 08 cb 39 3c
       -0.0129547035 -0.011632752 0.013318736 0.01133991
000150 80 cb 3f bc 98 42 53 3b 18 25 b0 bc a6 28 80 3c
       -0.011706233 0.0032235738 -0.021502063 0.015644383
000160 d9 47 85 3b 23 60 1b bc 74 25 57 3c 59 65 c3 3c
       0.004067403 -0.00948337 0.013131488 0.023852037
000170 78 6b b6 bb 56 11 29 3c 56 6c dd bc d8 92 ba bc
       -0.0055670105 0.010319075 -0.027029198 -0.022775099
000180 a0 a7 6d 3c 5c e2 a4 bc ee 8d 02 3c 40 9d 8b bc
       0.014505297 -0.020127468 0.007968409 -0.017042756
000190 58 8a 79 3c c7 79 a1 3c f7 3a a2 bc e9 16 ac 3c
       0.015230738 0.019711388 -0.019803507 0.021007018
0001a0 e6 02 aa 3c e2 d8 d5 bc 56 3c c4 bc 6e 71 df 3b
       0.020753335 -0.026104394 -0.023954552 0.006818942
0001b0 54 9f 62 3c 69 16 ae bc 91 e4 4b 3c 82 fa 9b 3c
       0.013831932 -0.02125092 0.012444631 0.01904035
0001c0 c9 35 77 3c c5 e5 e7 bc aa ec c5 3c 19 02 8e bc
       0.015088507 -0.028307805 0.024160702 -0.017334985
0001d0 b3 a2 15 bc 1d ec aa bc 27 39 c3 3c 83 7e 40 3c
       -0.009133029 -0.02086454 0.023830963 0.011748913
0001e0 ff d6 ca bc 66 cb fd bb a2 0c ca 3c e1 a4 bc 3b
       -0.024760721 -0.0077451942 0.024664227 0.00575696
0001f0 8d ff 96 bc 58 20 0f bb e0 aa a2 bc 5f cc a9 3c
       -0.018432403 -0.0021839347 -0.01985687 0.020727335
000200 1c 42 ca 3b e9 5a 0e bc 76 a9 a5 3c f2 ea b1 3c
       0.0061724316 -0.008688667 0.020222407 0.021718476
000210 66 42 ba 3c a8 41 16 bc 9f 9c f6 bb 32 21 3a bc
       0.02273674 -0.009170927 -0.007525995 -0.011360453
000220 cf b5 d5 3b 71 bc 5e bc e1 2d 92 bc 10 2e 4c 3c
       0.0065219174 -0.013594733 -0.017844142 0.012462154
000230 85 bf 17 3c 39 d7 8c bc 5b d1 9a bc 55 1c cc 3c
       0.00926197 -0.01719247 -0.018898657 0.024915854
000240 63 93 ba bc b0 03 8e bc 07 cd 1d 3c a6 bf ec bc
       -0.022775358 -0.017335743 0.009631402 -0.028899979
000250 9e aa 55 3c 7f a3 93 3c 8a 0c 8b 3c 23 9f 8b bc
       0.013041167 0.018022297 0.016973753 -0.017043656
000260 4b d1 dd bc 60 53 ab 3c 9e d9 eb bc d6 17 af bb
       -0.027077338 0.02091378 -0.028790291 -0.0053434176
000270 95 29 e0 bc 90 2a 3e ba 3a 69 82 3c 02 df f2 bc
       -0.027363578 -0.0007254267 0.015919317 -0.029647354
000280 c3 37 14 bb be 94 cf 3c 52 9f 93 3b 72 c0 be 3c
       -0.0022616244 0.02533948 0.0045050764 0.023285124
000290 a3 25 81 3c 98 85 a4 3c ef 93 c3 bc 0d 04 a6 3b
       0.015765017 0.020083234 -0.023874251 0.005066401
0002a0 5a 30 3a bc a4 ab 92 3c b4 3b a4 3a 00 97 3b 3b
       -0.011364067 0.01790411 0.001253 0.0028623939
0002b0 0f 1c ce bc 2e f9 c2 3c c6 e8 13 3c f7 91 e7 3c
       -0.025159864 0.023800459 0.0090276655 0.028267844
0002c0 a0 a7 75 3b 59 a5 70 bc 3b e2 e3 3b 2f 80 a9 3c
       0.0037483945 -0.014687859 0.006954459 0.020691006
0002d0 c5 0d 31 3c 75 51 e7 bc 25 59 c0 bc e2 51 c4 bc
       0.010806506 -0.028237084 -0.023480007 -0.023964826
0002e0 3c 11 79 3c 50 a3 75 bc 20 58 6f bc 14 4d 3f bc
       0.015201863 -0.01499255 -0.014608413 -0.011676092
0002f0 34 8e c4 3c 48 c3 d0 3c ad 1d d1 3c 60 1e 4a 3c
       0.023993589 0.025483742 0.025526846 0.0123363435
000300 b1 27 b4 3c 56 43 b8 3c 46 71 ab 3c 7f 8e 43 bc
       0.021991583 0.022493046 0.020928036 -0.011935829
000310 fe f3 9e 3c 16 ba 94 3c 0e 69 4e 3b c1 fd d4 3c
       0.019403454 0.018155139 0.0031495723 0.025999906
000320 c6 35 a5 bb cc c0 be 3b 57 44 a8 3b a9 be ad 3c
       -0.0050418107 0.005821323 0.0051351 0.021209078
000330 97 b3 ea bc 0b dc a8 bc 41 1a f2 bc bb 01 2f 3c
       -0.028650088 -0.020612737 -0.029553534 0.010681565
000340 50 05 0f 3c 50 8e c4 3c 6c a2 02 bc 8e 72 1a 3b
       0.008729294 0.023993641 -0.007973295 0.0023566815
000350 e1 72 bc 3c 8d 82 1d bc 14 a6 9b bc ee 19 a1 3c
       0.023003997 -0.009613645 -0.01900009 0.019665685
000360 a0 15 94 3c fc 69 ab 3c e3 f7 0c 3c ad 21 bd 3c
       0.018076718 0.02092456 0.008604023 0.023087347
000370 b5 d9 78 3c 60 dc 8c bc d5 c1 db bb ec 66 d6 3c
       0.015188624 -0.017194927 -0.006706456 0.026172124
000380 fa b1 b4 bc e6 90 bf bc a2 a6 ea bc 2e ab 6d 3c
       -0.022057522 -0.023384523 -0.02864391 0.014506144
000390 70 4c 9e 3c fc c7 06 3c cd f5 de bc d8 98 f9 3b
       0.019323558 0.008226391 -0.027216816 0.0076170973
0003a0 fc f7 10 3b 18 e2 0b b9 b8 67 a5 bc 46 ab 05 3c
       0.0022120466 -0.000133403 -0.020191059 0.008158511
0003b0 9a 83 f4 3b a6 6f 9a bc 94 5a 05 3c 5e 85 9f 3c
       0.007461977 -0.018852066 0.008139271 0.019472774
0003c0 d2 ee 54 3c d8 b9 e4 bc 2e 47 3e 3c 58 d7 26 3c
       0.012996392 -0.027920648 0.01161365 0.010183178
0003d0 ae 57 61 bb 74 89 ca bb 72 c0 47 bb c6 6e a0 3c
       -0.0034384537 -0.0061809365 -0.0030479697 0.01958407
0003e0 dd 35 3b bc 52 6e f6 bb 41 8b b8 bb 79 5a a9 ba
       -0.011426416 -0.0075204754 -0.0056318347 -0.001292064
0003f0 22 00 49 ba 0d f9 55 bc a1 ef 2b bc 67 67 bb 3a
       -0.00076675613 -0.013059867 -0.010494144 0.0014297784

layer2.0.bias f4 [64]
000000 f9 7b 20 3c a7 7b 3d bc 0f 0c c5 bc 27 54 ed bc
       0.009795182 -0.011565126 -0.024053602 -0.028970791
000010 bc 40 bb 3c 9d 75 b8 3b 56 ec 8c 3c 7a de 66 3c
       0.022858016 0.005629255 0.017202538 0.0140911285
000020 e6 c4 cd bb 87 28 87 3b 4f 75 bd 3c 40 03 33 3c
       -0.0062795756 0.0041247043 0.023127226 0.010926068
000030 c9 8b a2 bc c0 13 b1 bb 19 16 71 bc 1c 98 de 3c
       -0.019842045 -0.0054039657 -0.014714741 0.02717214
000040 71 09 f2 3b ff ac f7 bb 77 a0 33 3c 21 fd 35 bc
       0.0073863794 -0.0075584645 0.010963551 -0.011107714
000050 e6 52 fe 3b 5f 8f 0d bc 05 05 d4 3b 95 20 80 bc
       0.007761347 -0.008640139 0.006470325 -0.015640536
000060 45 f5 9c 3c 46 ca 49 3c 8a 5e bd 3b 88 20 32 3c
       0.019159922 0.012316292 0.005779092 0.010872014
000070 5e 6b b0 bc bc 7f e2 3c 38 bf d3 3c eb ae b2 ba
       -0.021535572 0.0276488 0.025848016 -0.0013632452
000080 bf 55 4d 3c 43 aa 12 3c 51 4b 1b bc 25 95 f1 3b
       0.0125326505 0.008951726 -0.009478406 0.0073725157
000090 98 78 e5 bc 9f 26 1b bc c1 c7 b2 b9 9b 50 9b bc
       -0.028011605 -0.009469657 -0.00034099634 -0.018959334
0000a0 80 26 d1 3c b8 15 bc bc 2f 04 e7 ba f7 fe ef bc
       0.025531054 -0.022959575 -0.0017625148 -0.029296381
0000b0 4d 42 e3 bc 6b 1a c0 3c 25 23 9c bc f2 ef 85 3b
       -0.027741576 0.023450097 -0.019059727 0.0040874416
0000c0 48 86 bf 3c ef 85 03 3c d5 58 00 3c a5 03 cb 3c
       0.02337946 0.008027538 0.007833679 0.024782011
0000d0 3a 8f 2f bc 20 98 1f bb d7 15 e9 3b 2e a9 97 bc
       -0.0107153 -0.0024352148 0.007113199 -0.018513288
0000e0 0f 5f 4e bc e6 f3 fd 39 25 5a e4 3c aa 4e 92 bc
       -0.012595906 0.0004843764 0.027875016 -0.017859776
0000f0 32 00 87 bc 3e 4d cf 3c 70 c1 a7 3c b2 09 c5 3c
       -0.016479585 0.025305387 0.02047798 0.024052475

layer2.1.weight f4 [64]
000000 72 03 27 3f 01 81 a3 3e a4 84 9e 3e 67 41 6b 3f
       0.6523963 0.3193436 0.30960572 0.9189667
000010 0a 70 41 3e 8c 26 d1 3e 9e 9a 16 3f 76 71 d2 3b
       0.18890396 0.4084972 0.5882968 0.006422217
000020 37 72 46 3e 38 6e 6c 3f ba 59 4d 3e 1a 77 15 3f
       0.19379507 0.9235568 0.20053759 0.5838486
000030 44 da 05 3f 8d 59 57 3f 43 f1 8f 3c 0b 8e 06 3f
       0.5228617 0.8412102 0.017571097 0.5256049
000040 7e 88 1d 3f 9e c4 3c 3e c8 a1 90 3e 9c 7e 52 3f
       0.61536396 0.18434379 0.2824843 0.8222444
000050 57 ac 5e 3f 18 02 24 3f e9 09 08 3e e8 fd 20 3f
       0.8698172 0.64065695 0.1328503 0.6288743
000060 a9 26 7a 3f 7a 52 1e 3f 97 48 e5 3e 02 df 33 3e
       0.9771524 0.618446 0.44781944 0.1756554
000070 85 97 5b 3f 2c 8d 75 3f 98 0e 09 3f 59 0f 59 3d
       0.85778075 0.95918536 0.53537893 0.052993152
000080 0a 6f 97 3d aa a5 c5 3e 3e 58 8f 3e dd f2 f4 3e
       0.07394226 0.38602954 0.2799701 0.4784154
000090 48 63 de 3d 47 92 de 3d 5d 22 5e 3f c3 1b 15 3f
       0.1085878 0.10867744 0.86771184 0.58245486
0000a0 7c 69 3d 3f 61 f3 de 3b 04 26 32 3e a0 6c 54 3f
       0.7398908 0.0068039154 0.17397314 0.8297825
0000b0 33 80 29 3e e7 14 c5 3e 3e 31 4a 3e 8f 7c 61 3f
       0.1655281 0.3849251 0.19745347 0.88080686
0000c0 da dd 09 3f 08 96 40 3f fd 1c eb 3e 64 2a c2 3e
       0.53854144 0.7522893 0.45920554 0.37922966
0000d0 07 f2 03 3f 8e 15 78 3f 87 bb e2 3e 8e ee 42 3d
       0.5154118 0.9690789 0.44283697 0.047590785
0000e0 7e 6d 06 3e b3 61 cf 3d 7d 0a 18 3d 32 1e 79 3f
       0.13127705 0.101260565 0.037119377 0.973117
0000f0 31 ed 4b 3f 1c ef 09 3f e1 a4 36 3e 2b b1 c4 3d
       0.796588 0.53880477 0.17836334 0.096041046

layer2.1.bias f4 [64]
000000 1a bc 82 3a ca d4 82 ba 88 f1 82 ba 38 e3 82 3a
       0.0009974272 -0.0009981629 -0.0009990195 0.0009985929
000010 a8 fb 82 ba 75 09 83 3a 54 dc 82 ba fa 09 83 3a
       -0.0009993212 0.0009997325 -0.0009983876 0.000999748
000020 4b ad 82 3a 4a f9 82 ba 06 5d 71 ba 49 d5 82 ba
       0.0009969858 -0.0009992507 -0.0009207282 -0.0009981777
000030 37 2e 81 ba 8c ee 82 ba 65 78 82 ba 15 e5 82 3a
       -0.0009855692 -0.0009989305 -0.0009954093 0.0009986485
000040 3d 0a 83 ba 9e 90 7f ba 6b 00 83 3a 7a 07 83 ba
       -0.0009997558 -0.00097490277 0.0009994631 -0.0009996735
000050 ad e0 82 3a 48 fe 82 3a 42 02 83 3a f6 0a 83 3a
       0.0009985171 0.0009993995 0.000999518 0.0009997773
000060 cf 90 82 3a 58 a6 82 ba db 02 83 3a 4e a4 82 3a
       0.0009961369 -0.0009967787 0.0009995358 0.000996718
000070 a7 f6 82 3a ff dd 82 ba 13 f2 82 3a 5a c8 82 3a
       0.0009991721 -0.0009984373 0.0009990357 0.0009977922
000080 cd df 82 ba 99 fe 82 ba cd f4 82 ba 54 c1 82 ba
       -0.0009984911 -0.0009994089 -0.0009991169 -0.0009975829
000090 a6 c5 82 ba aa 86 82 ba e8 fa 82 ba 4d 0f 82 ba
       -0.0009977117 -0.0009958346 -0.0009992989 -0.0009922773
0000a0 ad fb 82 ba f5 dd 82 3a 26 06 83 3a 47 da 82 ba
       -0.0009993218 0.0009984361 0.0009996339 -0.0009983265
0000b0 71 eb 82 ba 3e bb 82 ba d0 eb 82 ba fd fb 82 3a
       -0.000998838 -0.0009974015 -0.000998849 0.0009993311
0000c0 93 02 83 3a 6e de 82 3a 41 fb 82 3a 56 db 82 3a
       0.0009995274 0.0009984502 0.0009993092 0.000998358
0000d0 72 00 83 3a 0e 05 83 3a 5f f8 82 3a 38 fe 52 ba
       0.000999464 0.0009996013 0.0009992233 -0.0008048746
0000e0 6e 7a 82 ba ee f9 82 3a f2 fe 82 3a 67 d6 82 3a
       -0.00099547 0.0009992698 0.0009994193 0.000998211
0000f0 96 d8 82 3a 2e db 82 3a ce 01 83 3a 68 99 7b ba
       0.000998276 0.0009983534 0.0009995045 -0.00095977494

layer2.1.running_mean f4 [64]
000000 52 a6 b4 3b 29 93 18 3d 0a fc bc bc 92 d8 73 b9
       0.005512991 0.037249718 -0.0230694 -0.00023254965
000010 29 50 8f 3c 36 0a a0 bb f2 63 3b 3b be d8 a2 bc
       0.017494278 -0.0048840297 0.0028593508 -0.019878741
000020 d0 ef 24 bd 71 57 22 3d f8 ec 4e 3b 1f 66 a4 ba
       -0.040267766 0.039634172 0.003157435 -0.0012542641
000030 61 cd 33 3d f7 b1 0b bd e2 88 e9 3c ca eb 6e 3c
       0.043897036 -0.034105267 0.028507654 0.014582584
000040 d6 20 eb 3c 2a 4e b6 bc 1c e8 b5 bb b1 52 22 3b
       0.02870218 -0.022254068 -0.0055513512 0.0024768526
000050 4c 6d 17 3c 17 22 16 bc a6 58 45 bc 99 df 1e bd
       0.009242367 -0.009163401 -0.012045061 -0.038787458
000060 0d 2a d8 3c ee 8a 3f bd 9a 69 d8 bb cd c1 e1 b9
       0.026387239 -0.046763353 -0.0066043856 -0.00043059737
000070 c6 5c b6 bc 2d 5c 1a bd 45 01 7d 3a 60 60 b5 bc
       -0.022261035 -0.037685562 0.0009651373 -0.022140682
000080 13 45 28 3b a3 8e 9b 3b 95 45 68 3c 9a 06 87 bc
       0.0025675937 0.004747228 0.014176746 -0.01648264
000090 7e dc 16 bc ca cc 30 bd 16 6c 67 38 9d b0 5d 3c
       -0.009207843 -0.043164052 5.5175355e-05 0.013530877
0000a0 d3 cc 19 bc de 7f d9 3b 4b 4a 59 3c 60 0d 87 bc
       -0.009387213 0.0066375574 0.013262342 -0.01648587
0000b0 16 bc f1 bb e0 b1 d1 bc 29 26 b9 3c 7e 66 8c 3c
       -0.007377158 -0.025597513 0.022601204 0.017138716
0000c0 fa 92 67 3c 48 1a 1a bd 10 fc d4 bb 42 2e 86 b8
       0.014134163 -0.03762272 -0.0064997748 -6.398234e-05
0000d0 79 3e 28 ba ae aa 19 3b ba 4f 8f 3c f6 9c e0 3b
       -0.00064180006 0.002344768 0.017494071 0.0068546487
0000e0 0e 00 5d 3c d6 18 2d bd 72 ba 91 bc 05 cc 0b bd
       0.013488783 -0.042260014 -0.0177891 -0.034130115
0000f0 ab d9 94 bc 2c d9 13 3c 85 58 dc 3c d6 df e5 3b
       -0.018170198 0.009023946 0.026897678 0.0070152087

layer2.1.running_var f4 [64]
000000 fa 1b 67 3f c3 98 67 3f 6d 82 67 3f 16 98 67 3f
       0.90277064 0.9046747 0.9043339 0.9046644
000010 ad 75 67 3f 53 9d 67 3f 7e 8d 69 3f f4 b8 67 3f
       0.90413934 0.9047443 0.91231525 0.9051659
000020 ad e5 67 3f ed 0f 68 3f 38 2b 67 3f af 01 69 3f
       0.9058483 0.906493 0.9030032 0.91018194
000030 49 19 68 3f eb 28 68 3f 14 da 68 3f 93 f0 66 3f
       0.9066358 0.90687436 0.9095776 0.9021084
000040 f1 9c 67 3f ec 85 67 3f 0b 10 67 3f 8a 7b 67 3f
       0.9047385 0.90438724 0.90258855 0.9042288
000050 e9 26 67 3f 90 05 67 3f 54 eb 6a 3f 74 ec 6a 3f
       0.9029375 0.9024286 0.9176533 0.9176705
000060 88 63 67 3f 9d f5 67 3f c3 8b 67 3f e9 2a 67 3f
       0.9038625 0.9060915 0.90447634 0.9029985
000070 67 0e 67 3f 15 09 68 3f a5 b4 67 3f 3b 79 67 3f
       0.9025635 0.9063886 0.90510017 0.9041936
000080 2e 2d 67 3f 1a 40 67 3f 7f 2f 69 3f a1 b9 67 3f
       0.90303314 0.90332186 0.910881 0.9051762
000090 06 f0 66 3f bd 27 68 3f a8 b5 67 3f 84 42 68 3f
       0.90209997 0.90685636 0.9051156 0.90726495
0000a0 38 88 69 3f 50 ac 67 3f ac 36 67 3f 02 59 67 3f
       0.9122348 0.90497303 0.903178 0.9037019
0000b0 ae b5 67 3f 11 3a 68 3f 35 5b 67 3f fe 9d 67 3f
       0.90511596 0.907136 0.90373546 0.9047545
0000c0 00 49 67 3f 50 0e 68 3f e4 bc 67 3f 67 57 67 3f
       0.90345764 0.9064684 0.905226 0.9036774
0000d0 b9 ba 67 3f 7c 0c 68 3f e2 71 67 3f 18 54 67 3f
       0.9051929 0.9064405 0.90408146 0.9036269
0000e0 66 36 68 3f 61 1e 68 3f 2d c1 68 3f a0 c0 67 3f
       0.90708005 0.90671355 0.9091976 0.905283
0000f0 12 cd 67 3f ea 47 67 3f 8d 0a 69 3f 87 55 68 3f
       0.9054729 0.9034411 0.91031724 0.90755504

layer3.0.weight f4 [32, 64, 3, 3]
000000 c0 6b 14 3d aa 3e e6 3c 47 a8 ef bc 67 65 10 3c
       0.03623557 0.028106052 -0.029255046 0.008813239
000010 9e dd d8 bb dc 29 05 bd 7f 7c ef 3c 56 7b f5 3b
       -0.0066182157 -0.032510623 0.029234169 0.0074915094
000020 22 b3 0c bd 20 70 53 38 b9 44 ac bc 0d cc 24 3c
       -0.03435052 5.0410745e-05 -0.021028863 0.010058415
000030 6c c2 25 bd 04 56 d9 3c e7 09 29 bc 28 de 76 3c
       -0.04046862 0.026530273 -0.010317302 0.015067615
000040 44 a9 22 3d b0 55 90 3c ec 85 1b 3d f9 e7 f1 bc
       0.039712206 0.017618984 0.037969515 -0.029529558
000050 ee a1 f9 3c 2e 85 a8 3c e9 85 eb bc 62 53 01 bd
       0.030472722 0.020571318 -0.028750377 -0.03157366
000060 46 cf 09 3c d4 18 13 3d 5e 25 44 bc 2f 79 18 bd
       0.008411234 0.03591235 -0.0119718 -0.037224945
000070 80 2c a3 3c fe 2a 85 bc f2 c8 91 3c 3c 2a f5 3a
       0.01991868 -0.016255852 0.017796014 0.0018704603
000080 78 ea c3 3b 22 1d c8 bc 05 b9 ed bb 3a eb 52 3c
       0.0059788786 -0.024427954 -0.007254722 0.012873465
000090 b4 e7 4f 3c 8e 4c 48 bc 55 c7 0a 3d 2d 6e 52 3c
       0.01268952 -0.012225283 0.033881504 0.012843651
0000a0 55 aa 0c 3d fa a6 10 3c 32 96 56 3c 7c 1b 27 3b
       0.03434213 0.008828873 0.013097333 0.002549856
0000b0 ac 78 0f bd f7 5e 11 3d 06 16 bb 3b 7e f2 27 bd
       -0.03502719 0.035490956 0.0057094125 -0.041002743
0000c0 72 4b e4 bb ed cb 17 3b e1 9c 0d bd 3b d1 1e bd
       -0.0069670016 0.002316232 -0.03457344 -0.038773756
0000d0 2d 7d c5 3c a6 fe ef 3b 19 75 f0 bc 56 a1 84 bc
       0.02410754 0.0073240576 -0.029352712 -0.016190212
0000e0 0d 2a 27 bd eb 99 9e 3c 06 35 1a 3c e6 c9 8f ba
       -0.040811587 0.019360503 0.009412056 -0.0010970205
0000f0 69 26 ea bc a7 7e fc bc 10 47 ed 3c ec 37 c4 b9
       -0.028582769 -0.030822111 0.02896455 -0.00037425698
000100 af dd 7f bb 0e c6 f8 3c 40 dd 2d 3d e9 ff e1 3c
       -0.0039042046 0.030367877 0.04244733 0.027587848
000110 f2 a2 5d 3b c2 79 29 3b 3c 31 1f 3d 2a e0 8e 3b
       0.0033819047 0.0025859927 0.038865313 0.0043602185
000120 e8 f7 03 bd f0 1a 2d bc 52 6f 7d 3c 78 48 1e 3d
       -0.032218844 -0.010565504 0.015468435 0.03864333
000130 c0 cb 03 3d ca fd 9e bb d7 c1 d5 3c 03 7a b5 bc
       0.032176733 -0.0048520314 0.026093407 -0.022152906
000140 34 26 19 bd 58 17 0a bd c2 e0 ce 3c d2 b3 ca bc
       -0.03738995 -0.03371367 0.025253657 -0.024743948
000150 e5 c4 8c 3a 29 f6 1f bd aa 90 cb bc f1 db 15 bc
       0.0010739831 -0.039053116 -0.024849255 -0.009146676
000160 88 66 0a 3d 29 28 9e bc 0b 71 ea 3a 2e b4 07 3b
       0.033789188 -0.01930626 0.0017886473 0.002070676
000170 45 47 87 3c 1b e5 d9 ba 17 76 d7 bc f7 c1 8a ba
       0.016513476 -0.0016624065 -0.026301427 -0.001058637
000180 83 8a a5 bc 6e 6b cb 3b d4 eb 1a 3d d6 11 8a bc
       -0.02020765 0.006207875 0.03782256 -0.016854208
000190 e9 dd 57 3c dc d4 da 3c bc c7 59 3a fd 33 c8 bc
       0.013175466 0.026712827 0.0008307656 -0.024438852
0001a0 07 9b fd 3c c6 8a 80 3c c8 f6 ae bc a2 34 f3 3b
       0.030957712 0.015691172 -0.021357909 0.007422046
0001b0 88 d0 d2 bb 80 c0 02 3d 99 70 de bc f8 02 7f bc
       -0.0064335503 0.031921864 -0.0271533 -0.015564673
0001c0 10 a7 ed 3b 25 1a a7 bc 05 21 82 bc 6f 6c c5 3c
       0.0072525814 -0.020398209 -0.015884886 0.024099557
0001d0 5a f7 0e 3b 8f 95 2a 3d 42 97 03 3d eb c8 0e bd
       0.0021814913 0.041646536 0.032126673 -0.03485958
0001e0 81 28 b5 bc 55 48 11 3c 51 81 ab ba 2c 32 24 bd
       -0.02211404 0.008867343 -0.0013084804 -0.04008691
0001f0 e7 a4 21 bd a5 bb a0 bc bf 39 f0 3c 32 d6 94 3c
       -0.039463904 -0.019620726 0.02932441 0.018168543
000200 6f 89 86 3c 46 b1 2b bd 65 b3 23 3d af 69 20 3d
       0.016422955 -0.041917108 0.039966006 0.039163288
000210 69 f2 51 bc b1 22 f6 3c a6 ba ed bc 30 6a f4 bc
       -0.012814143 0.030045839 -0.029019665 -0.02983579
000220 db 2c b4 3c 1d cc 1b bc c5 f9 b7 bc 0c fe 00 3d
       0.021994045 -0.009509114 -0.022457967 0.031492278
000230 29 bd 75 bc 54 3f ae 3c 2d f4 be bb 1e d5 62 3c
       -0.014998713 0.021270432 -0.005827448 0.013844756
000240 9e 8d b6 3c 90 92 cb 38 d9 08 9e bc c7 12 be 3c
       0.022284325 9.707094e-05 -0.019291328 0.023202313
000250 58 b9 14 bc 55 f5 64 bc 45 3e 16 bd 49 7a f2 3c
       -0.0090773925 -0.013974507 -0.03668048 0.029599326
000260 eb 12 89 bc fb 07 fb bc f4 e6 13 3d 4b 17 28 bd
       -0.016732654 -0.030643454 0.036108926 -0.04103784
000270 62 ed 16 3d 5f 22 bd bb 33 cb 4e bc ef b4 34 3c
       0.03684748 -0.0057719196 -0.012621689 0.011029466
000280 06 09 44 3b 77 c8 1f bc 1f 08 e0 bc ad 58 84 bb
       0.0029912605 -0.009752384 -0.027347622 -0.0040388913
000290 4d fc 07 bd b5 34 12 bc 61 d2 22 3d 14 0a e9 39
       -0.033199597 -0.008923699 0.039751414 0.00044448732
0002a0 29 e7 86 3c c3 87 ce 3b 73 d2 9e bc 27 49 e1 ba
       0.016467648 0.006302805 -0.01938746 -0.0017187939
0002b0 49 c2 db bc a4 47 86 3b 83 e2 23 3d bb 42 10 3d
       -0.02682604 0.0040978957 0.04001094 0.03521989
0002c0 ae 3d 5f bc 2c 2f 05 bb 35 0b a4 bc 55 45 0f bd
       -0.013625545 -0.0020322306 -0.020024875 -0.03497823
0002d0 ba 96 a9 3b c2 91 34 3c aa b4 8f bc f2 e6 c6 bc
       0.0051754387 0.0110210795 -0.017542202 -0.024280045
0002e0 2a e3 62 bb 60 0c 34 bb 30 e4 10 3b 3f d1 39 bc
       -0.0034620264 -0.0027473196 0.0022108667 -0.011341392
0002f0 01 93 2d bd 14 45 05 bd ef c9 ed bc 38 0a 21 3d
       -0.042376522 -0.03253658 -0.029026954 0.039316386
000300 f3 f0 96 3c 04 e7 42 3b 4d 96 32 bc ec 77 09 bd
       0.01842544 0.0029739747 -0.010900092 -0.033561632
000310 d8 8b 00 bd f2 79 2b bd 06 fe 2b bd 75 6d 1d bd
       -0.031383365 -0.041864343 -0.041990303 -0.038434464
000320 dd e2 e9 3c 76 c1 82 bc e6 8a 14 3b b7 6f d2 3c
       0.02855056 -0.01596139 0.0022665798 0.025688035
000330 8a 83 0c 3c ec 77 13 bc b6 84 ce 3c cf b1 81 3c
       0.008576283 -0.00900076 0.025209766 0.015831856
000340 20 79 f7 bc 79 c7 1c 3d 45 1c 97 bc a3 8e 17 3c
       -0.030209124 0.03827617 -0.018446097 0.009250316
000350 16 10 f4 bc 32 55 f1 bc 27 16 e7 bc e4 c6 fc 3c
       -0.029792827 -0.02945957 -0.028208805 0.030856557
000360 80 40 ef 3c 68 25 0d bc 27 e6 23 bd 3d f5 51 3c
       0.02920556 -0.008614875 -0.040014412 0.012814817
000370 83 0f 7f 3c 02 f4 40 bc 93 db 07 bc 67 06 d4 3c
       0.015567663 -0.011776926 -0.008292097 0.02588196
000380 70 a4 80 bc 4d 7e 6d 3c 4b be af bb 48 4c 7c 3b
       -0.01570341 0.0144954445 -0.005363261 0.0038497616
000390 03 5d db 3c 6f 9e 1c bc bb 37 cf 3c d1 06 a9 3c
       0.02677775 -0.009559258 0.025295129 0.020633133
0003a0 41 d0 0b 3c a8 ae 18 bd 3d 8c cc bc f7 c1 ae 3c
       0.008533538 -0.03727594 -0.024969215 0.021332724
0003b0 37 a1 2f 3c e8 99 fb bc 33 88 08 bc 2e 16 77 bc
       0.010719589 -0.030713037 -0.008333254 -0.015080972
0003c0 13 79 42 3c b5 0e b8 3c 3f a8 05 3d ba e5 26 bb
       0.011869687 0.02246795 0.032631155 -0.0025466518
0003d0 35 23 4d bc ee 71 17 3d 66 55 03 3d 4a e8 e1 bc
       -0.012520601 0.036973886 0.032063864 -0.027576584
0003e0 60 66 11 3c 11 6f 92 bc 04 26 82 3c 89 80 6d bc
       0.008874506 -0.017875226 0.015887268 -0.014495977
0003f0 5a 79 3a bc bc ac 20 3d 87 cf c0 3c 45 77 d2 3c
       -0.0113814715 0.039227232 0.023536457 0.025691638

layer3.0.bias f4 [32]
000000 74 b0 25 bd 13 4a 6a 3b 74 e5 21 bd 3e 3f 95 bb
       -0.040451482 0.0035749718 -0.039525464 -0.004554658
000010 2d 79 c4 3c e8 c9 70 3b 32 51 db 3c 60 c9 9c 3c
       0.023983562 0.003674144 0.026772115 0.019138992
000020 66 00 c9 3c 72 b6 03 bd be 7f 6c 3c c5 ac 18 3d
       0.024536323 -0.032156415 0.014434753 0.03727414
000030 22 8d bc 3c f8 6f db 3c bb 0b f5 3c 24 e1 8e 3c
       0.023016516 0.02678679 0.02991282 0.01744134
000040 0f 17 c1 3c 68 14 cc 3c d5 c0 89 3c 07 c3 f7 bc
       0.023570566 0.024912074 0.016815582 -0.030244363
000050 97 55 8c 3c b0 a5 24 bd 05 3e 88 3b 60 f8 dc bc
       0.017130656 -0.040197074 0.004157784 -0.026973903
000060 1c 2a 00 bd d2 c5 1d bd 9b 67 07 bc 1b 8e bd bc
       -0.03129016 -0.038518734 -0.008264448 -0.02313905
000070 cf cb bc bc 7b e3 a7 3c c4 11 61 3c 6f 81 98 bc
       -0.023046402 0.020494213 0.013737146 -0.018616406

layer3.1.weight f4 [32]
000000 98 81 85 3e 5b a5 51 3f b0 3a 01 3d 7e 89 c2 3e
       0.26075435 0.8189294 0.03155011 0.37995523
000010 39 a9 46 3e f0 e1 3f 3e a6 41 03 3f 4b 8e 1f 3f
       0.19400491 0.18738532 0.51272047 0.62326497
000020 82 e2 96 3e 09 18 22 3f cb e0 15 3f 43 0e 32 3f
       0.29469687 0.63317925 0.5854613 0.6955301
000030 3c 96 c1 3e 08 b3 2d 3f 25 eb 5e 3f 16 e0 d6 3e
       0.37809932 0.67851305 0.8707755 0.4196784
000040 3c 89 3d 3f d0 b5 ed 3c 77 94 71 3f 8b e3 11 3f
       0.7403753 0.029017359 0.94367164 0.5698783
000050 23 90 11 3f 24 4c 07 3c 38 9c 6c 3f c1 63 b6 3e
       0.5686056 0.008257899 0.9242587 0.3562298
000060 10 54 41 3f 33 7f 14 3f ce d0 57 3f eb ba 26 3f
       0.75518894 0.5800659 0.84302986 0.65128964
000070 23 5d c6 3d dc 8f f6 3e 39 7d 0f 3f 7d 16 1b 3f
       0.09685733 0.4815663 0.5605045 0.6058119

layer3.1.bias f4 [32]
000000 65 eb 82 3a 0e 00 83 3a f3 f5 82 ba fa b7 82 3a
       0.0009988366 0.0009994523 -0.0009991511 0.0009973042
000010 7e 00 83 ba 90 f2 82 3a 48 01 83 3a b2 68 6f ba
       -0.0009994654 0.0009990502 0.0009994889 -0.0009132727
000020 63 07 83 3a db e6 82 3a 8c ee 82 ba 94 a9 82 3a
       0.0009996708 0.0009987013 -0.0009989305 0.0009968751
000030 a5 03 83 3a 7e dc 82 ba cb fd 82 ba 4b 05 83 3a
       0.0009995593 -0.0009983925 -0.0009993849 0.0009996084
000040 d0 c9 82 3a d5 fe 82 ba 06 04 83 3a fa f8 82 ba
       0.0009978358 -0.0009994159 0.0009995706 -0.0009992414
000050 3a e6 82 ba 9a fa 82 ba 0f e4 81 3a dc a6 82 ba
       -0.0009986826 -0.0009992898 0.0009909886 -0.0009967941
000060 0d 0d 83 ba 1f fa 82 3a f8 f2 82 ba 70 00 83 ba
       -0.0009998396 0.0009992755 -0.0009990623 -0.0009994637
000070 3d 0b 83 3a 27 fe 81 ba 72 f0 82 3a be 82 81 ba
       0.0009997856 -0.0009917662 0.0009989871 -0.0009880883
