5312332.b16e2.model (torch_old, 820387 bytes, 32 tensors)

layer1.0.weight f4 [128, 3, 3, 3]
-0.11859394 0.121556684 0.107674405 -0.09042838 0.02417933 0.18176726 -0.0051420196 0.16070653
0.02993447 -0.16109054 -0.085203715 -0.039074924 -0.039451785 -0.12170309 0.08442172 0.18474548
-0.119128704 -0.12302592 0.08137359 0.18891612 -0.07970731 -0.15373509 -0.13372682 -0.024625188
0.11803886 -0.049869232 0.07111706 -0.09235331 0.012530132 -0.06937919 -0.08674551 -0.0118122
-0.018027136 0.08812626 -0.0057364106 0.1862718 0.13308775 0.18153936 0.10707927 0.00940579
0.15625547 -0.16614531 -0.046186935 0.13934469 -0.09202918 0.09097232 -0.048013225 0.11488028
-0.028421352 -0.08568338 -0.027190575 0.178651 0.03951243 0.17828111 -0.1467668 0.14475174
-0.12488533 -0.14410745 -0.13573898 0.1561806 -0.012728101 0.18618523 0.004925942 -0.088244334
-0.17086294 -0.00012017798 0.14425008 0.099941276 -0.17373657 0.039835904 -0.17357345 0.11894053
0.068858705 -0.004056565 0.058322918 0.037057288 0.024337515 0.14216298 -0.07836521 -0.12052096
-0.19047472 -0.005573468 0.17010143 0.01902954 -0.03983189 -0.15716897 -0.05492586 -0.067062564
-0.009322622 0.19302915 -0.18230636 0.08734218 -0.056856375 -0.1602032 0.11953093 0.060356405
-0.13424724 -0.15056366 -0.06405321 -0.1575772 0.0024972586 0.10033516 -0.18524082 -0.06171572
0.17435148 -0.08168848 0.053738903 -0.07988819 -0.17902374 0.018834008 0.036774583 0.04847795
-0.036955502 0.07759515 0.056037903 -0.08497775 -0.14906353 -0.15654787 -0.014497025 0.14993146
0.055554893 -0.12519465 0.06524211 0.17911467 0.07046659 -0.07890421 0.04085022 -0.15792349
-0.059533447 -0.17713967 -0.03920889 -0.11850521 0.101938635 -0.14821593 -0.03908971 0.034769926
0.08268994 -0.10276708 -0.004779057 -0.070182286 -0.14091888 -0.0864521 0.17737521 0.17035379
0.07189963 -0.06910891 0.07439848 -0.09903557 -0.18159309 -0.06862123 -0.023555545 0.18712635
0.12944794 0.16461308 -0.13359189 0.120021276 0.17912254 -0.049300123 0.18769932 0.068842396
0.15916458 -0.12564076 0.12246888 -0.061844487 0.12781 -0.042574085 0.12879823 -0.08233856
0.03390474 -0.15076791 -0.10347168 -0.118839085 -0.024429668 0.17424272 0.12994552 0.13645698
0.19272421 -0.07966664 -0.1819825 0.11463953 0.1311208 -0.018885685 0.19205381 0.04227562
-0.12824939 0.1885486 0.12200331 -0.01853972 0.031566504 -0.0014104808 0.12268713 0.06324763
-0.017724302 -0.18322103 -0.09018706 -0.002602771 0.011836781 -0.10059181 0.054779556 0.1116492
-0.10934743 0.108524315 0.14717612 0.12189108 -0.10422801 0.14728068 -0.18159114 0.10123591
0.11782869 0.003618682 0.044259977 0.095631056 -0.18225111 0.122972116 0.120584555 -0.17830038
-0.038214855 0.07181711 -0.10681595 0.110591546 -0.15793332 0.14730158 0.06728624 -0.0030683682
0.061919007 0.18886551 -0.048899386 0.114656694 -0.11966499 -0.0151150115 -0.03907177 0.13326776
-0.021983266 0.124226555 0.16419971 0.021283682 -0.026053198 -0.051502034 -0.0058227223 -0.10670751
-0.01709325 -0.120286606 -0.088473864 0.16330793 0.05919465 0.16998264 -0.055402324 -0.08140518
0.093075894 -0.0003730529 0.087065965 0.072049186 -0.042722926 0.082791544 -0.089410484 0.0799504
00000000: 61e1 f2bd b6f2 f83d 6684 dc3d 8432 b9bd
00000010: bb13 c63c 3221 3a3e 637e a8bb 4190 243e
00000020: 2239 f53c ebf4 24be 497f aebd 070d 20bd
00000030: 3298 21bd 783f f9bd 4be5 ac3d eb2d 3d3e
00000040: c0f9 f3bd 03f5 fbbd 32a7 a63d 3a73 413e
00000050: 963d a3bd bb6c 1dbe afef 08be c3ba c9bc
00000060: 5cbe f13d ae43 4cbd d2a5 913d bb23 bdbd
00000070: 2f4b 4d3c ad16 8ebd a1a7 b1bd f587 41bc
00000080: a5ad 93bc 8a7b b43d 80f8 bbbb 09be 3e3e
00000090: 2848 083e 74e5 393e 604c db3d be1a 1a3c
000000a0: 6f01 203e ff21 2abe 832e 3dbd 60b0 0e3e
000000b0: cb79 bcbd b24f ba3d 84a9 44bd 5a46 eb3d
000000c0: e5d3 e8bc c57a afbd c5be debc 4af0 363e
000000d0: c9d7 213d 538f 363e 094a 16be cd39 143e
000000e0: e1c3 ffbd e790 13be 29ff 0abe cfed 1f3e
000000f0: 8689 50bc 57a7 3e3e cc69 a13b 72b9 b4bd
00000100: b2f6 2ebe 1008 fcb8 4bb6 133e 03ae cc3d
00000110: 00e8 31be f92a 233d 3dbd 31be 1897 f33d
00000120: cb05 8d3d efec 84bb 03e4 6e3d 62c9 173d
00000130: 785f c73c 2c93 113e f07d a0bd b1d3 f6bd
00000140: ce0b 43be a3a1 b6bb 122f 2e3e d6e3 9b3c
00000150: c426 23bd e7f0 20be f0f9 60bd 1958 89bd
00000160: e9bd 18bc 6fa9 453e 85ae 3abe 75e0 b23d
00000170: 3be2 68bd 4f0c 24be a2cc f43d 4738 773d
00000180: 1c78 09be 5c2d 1abe 542e 83bd eb5b 21be
00000190: 0ca9 233b 857c cd3d c5af 3dbe 9fc9 7cbd
000001a0: 3289 323e 4a4c a7bd 531d 5c3d 6b9c a3bd
000001b0: 0052 37be c749 9a3c f2a0 163d d190 463d
000001c0: a75e 17bd 35ea 9e3d 0088 653d d108 aebd
000001d0: 1ca4 18be 164e 20be ee84 6dbc a287 193e
000001e0: 878d 633d 0733 00be a89d 853d d669 373e
000001f0: ca50 903d 8898 a1bd 8f52 273d b2b6 21be
00000200: 58d9 73bd 1a64 35be 8099 20bd dcb2 f2bd
00000210: 34c5 d03d ebc5 17be 881c 20bd e96a 0e3d
00000220: 5859 a93d 8c77 d2bd a399 9cbb bbbb 8fbd
00000230: 0a4d 10be cc0d b1bd d9a1 353e 3971 2e3e
00000240: 1d40 933d f988 8dbd 3b5e 983d 29d3 cabd
00000250: 8af3 39be 4a89 8cbd 8ff7 c0bc 0d9e 3f3e
00000260: 008e 043e 5590 283e 50cc 08be b7cd f53d
00000270: e66b 373e edee 49bd 4034 403e 3efd 8c3d
00000280: 0afc 223e f9a7 00be f7d0 fa3d a550 7dbd
00000290: a0e0 023e 2a62 2ebd afe3 033e 1ea1 a8bd
000002a0: b2df 0a3d e762 1abe f6e8 d3bd e861 f3bd
000002b0: ba20 c8bc af6c 323e 7010 053e 61bb 0b3e
000002c0: 7f59 453e 4328 a3bd 9f59 3abe 21c8 ea3d
000002d0: 8844 063e 27b6 9abc c1a9 443e 3329 2d3d
000002e0: cf53 03be e212 413e dfdc f93d 9ce0 97bc
000002f0: e14b 013d e2df b8ba 6443 fb3d f987 813d
00000300: 8e32 91bc 4b9e 3bbe feb3 b8bd 4093 2abb
00000310: 0fef 413c 1403 cebd 8760 603d 56a8 e43d
00000320: 8cf1 dfbd ff41 de3d 56b5 163e 08a2 f93d
00000330: 7f75 d5bd bfd0 163e 07f3 39be c654 cf3d
00000340: 2b50 f13d 6927 6d3b f349 353d 37da c33d
00000350: 09a0 3abe ced8 fb3d 09f5 f63d 6094 36be
00000360: 2e87 1cbd d914 933d 52c2 dabd d27d e23d
00000370: 46b9 21be 3ad6 163e 5ecd 893d ad16 49bb
00000380: c99e 7d3d f665 413e b94a 48bd 21d1 ea3d
00000390: eb12 f5bd f4a4 77bc b809 20bd 5877 083e
000003a0: 4016 b4bc 7e6a fe3d f823 283e 1e5b ae3c
000003b0: 846d d5bc ccf3 52bd 89cc bebb 7889 dabd
000003c0: 2507 8cbc d358 f6bd c931 b5bd 323a 273e
000003d0: 1776 723d ee0f 2e3e 8ced 62bd c2b7 a6bd
000003e0: 939e be3d 5096 c3b9 a44f b23d 868e 933d
000003f0: 3cfe 2ebd 9d8e a93d d81c b7bd 09bd a33d

layer1.0.bias f4 [128]
0.13774942 0.036157507 -0.17152014 -0.029375087 0.15254433 0.09951713 -0.13981602 0.035611406
-0.18745328 -0.0052534556 -0.11692684 -0.018328419 0.18641116 -0.011701441 0.079736024 -0.19030291
-0.11389011 -0.024424866 0.1211767 -0.064241774 -0.025460087 -0.105145074 0.051297475 0.13206998
-0.0951489 0.17604263 0.022456305 -0.026998444 0.037773598 0.08075352 -0.18131685 0.08875386
-0.15075678 -0.032021504 -0.12281338 0.12458038 0.035430852 0.08627426 -0.15453218 0.04907651
-0.18289195 0.0048745805 0.022301905 0.024895733 0.06474735 0.04096701 -0.1003922 -0.082112506
-0.17992379 0.13985464 -0.15242524 -0.029348237 -0.07806574 0.19211324 -0.18787147 0.01542984
0.104185745 -0.021403618 0.030668668 0.17327338 -0.08928462 0.13907252 0.0038506861 -0.09942853
-0.04176372 0.09522324 -0.124999136 -0.097648025 -0.06887537 -0.16078967 -0.15971968 -0.080855265
-0.065273985 -0.17225935 -0.027466472 0.13828932 -0.10732337 0.07493898 0.15659471 -0.1111609
-0.021738403 0.062061362 0.14542626 0.033700455 -0.07667838 0.17119221 0.17530426 0.030859658
-0.19218409 0.1676213 0.10808654 0.09539538 0.1723776 -0.037351307 -0.123412974 -0.090991445
-0.09612714 0.18894851 -0.03766324 -0.080008715 -0.118806824 0.13156888 -0.07142224 -0.14273141
-0.065357454 -0.1269408 -0.078701 0.1632716 -0.14803244 0.045893725 -0.022974899 0.030686393
0.19114068 -0.029274942 0.069986865 -0.026287945 0.15098587 0.08947927 0.18362397 0.079174
-0.13357158 -0.021222746 0.13178228 0.13300374 -0.1478167 0.15827386 0.05229045 0.06320327
00000000: 2f0e 0d3e e519 143d faa2 2fbe 06a4 f0bc
00000010: 9534 1c3e a3cf cb3d ee2b 0fbe 44dd 113d
00000020: c1f3 3fbe 2e25 acbb 5777 efbd 7b25 96bc
00000030: 91e2 3e3e 67b7 3fbc a44c a33d c4de 42be
00000040: 383f e9bd a816 c8bc 7d2b f83d 3191 83bd
00000050: ac91 d0bc 4d56 d7bd 4d1d 523d 5a3d 073e
00000060: 6ddd c2bd 8544 343e 49f6 b73c d72b ddbc
00000070: 7db8 1a3d 1a62 a53d 20ab 39be 95c4 b53d
00000080: fc5f 1abe fb28 03bd 9585 fbbd 0024 ff3d
00000090: f11f 113d 8fb0 b03d af3d 1ebe 7304 493d
000000a0: 0748 3bbe f2ba 9f3b 7cb2 b63c 23f2 cb3c
000000b0: 429a 843d 06cd 273d 6d9a cdbd 9a2a a8bd
000000c0: f13d 38be 0e36 0f3e 5d15 1cbe b76b f0bc
000000d0: eee0 9fbd 55b9 443e 6161 40be 71cd 7c3c
000000e0: 565f d53d a456 afbc dc3c fb3c 946e 313e
000000f0: dbda b6bd 0769 0e3e cb5b 7c3b 2fa1 cbbd
00000100: 6f10 2bbd 6704 c33d 8cff ffbd b0fb c7bd
00000110: 880e 8dbd 0ca6 24be 8e8d 23be 7297 a5bd
00000120: 5eae 85bd c164 30be 5e01 e1bc b79b 0d3e
00000130: 5bcc dbbd 9c79 993d 5d5a 203e 53a8 e3bd
00000140: bc14 b2bc 0e34 7e3d 9fea 143e 7d09 0a3d
00000150: 8e09 9dbd 034d 2f3e f682 333e 65cd fc3c
00000160: e8cb 44be eba4 2b3e 7a5c dd3d a75e c33d
00000170: c183 303e affd 18bd f1bf fcbd b959 babd
00000180: 4ede c4bd b87b 413e c544 1abd 9cdb a3bd
00000190: fe50 f3bd feb9 063e d345 92bd 2f28 12be
000001a0: 21da 85bd c5fc 01be fd2d a1bd ac30 273e
000001b0: d195 17be 0ffb 3b3d db35 bcbc 0862 fb3c
000001c0: 62ba 433e 01d2 efbc 4655 8f3d d159 d7bc
000001d0: 0a9c 1a3e e840 b73d ec07 3c3e fa25 a23d
000001e0: fdc6 08be 53db adbc eff1 063e 2232 083e
000001f0: 435d 17be 8b12 223e 832e 563d b770 813d

layer1.1.weight f4 [128]
0.45541427 0.08638718 0.7250714 0.40036142 0.6681844 0.6169523 0.81145555 0.88943934
0.7546878 0.62789583 0.026195347 0.13149226 0.9121807 0.015902169 0.5609603 0.32184282
0.38852808 0.674289 0.094292946 0.96665734 0.32972607 0.7169605 0.84955466 0.8922423
0.9225098 0.35969764 0.8435847 0.3620466 0.39432466 0.48786923 0.6129583 0.34056243
0.9322608 0.4759837 0.654389 0.57914346 0.6116663 0.7549436 0.6214128 0.5579961
0.18730192 0.037273157 0.102923915 0.290854 0.7719264 0.34934533 0.6509633 0.74581695
0.54503995 0.35312372 0.8413304 0.7309352 0.63272816 0.94687426 0.46718767 0.79523754
0.29615825 0.8607996 0.38203448 0.07512697 0.2090507 0.98758584 0.7059895 0.3580669
0.5251367 0.1414643 0.58460253 0.84351116 0.20801298 0.40209433 0.44842154 0.41400248
0.03416736 0.11306855 0.44889227 0.5367377 0.9909553 0.75565165 0.9441138 0.3486587
0.64558995 0.13534363 0.4503759 0.56277364 0.1656853 0.08326874 0.3870562 0.22496957
0.985571 0.68758845 0.93941367 0.8710123 0.96654475 0.6022166 0.84210354 0.5176695
0.44411942 0.70673585 0.24437892 0.47540724 0.2016557 0.11861491 0.7326284 0.640121
0.7835384 0.8341471 0.70298594 0.43165562 0.33323306 0.9742242 0.44038385 0.45107916
0.057220902 0.68601185 0.2057267 0.0880177 0.17454712 0.6662701 0.43202657 0.054188967
0.14985904 0.9227643 0.49408215 0.398244 0.28855744 0.86704296 0.7756562 0.119222894
00000000: 0f2c e93e c3eb b03d 479e 393f 2cfc cc3e
00000010: 220e 2b3f 96f0 1d3f 8dbb 4f3f 4cb2 633f
00000020: 3833 413f c8bd 203f a097 d63c e8a5 063e
00000030: ad84 693f 4445 823c 189b 0f3f 95c8 a43e
00000040: 27ed c63e 349e 2c3f a91c c13d db76 773f
00000050: dbd1 a83e b98a 373f 6a7c 593f fe69 643f
00000060: 9a29 6c3f 4a2a b83e 2bf5 573f 2c5e b93e
00000070: ece4 c93e ffc9 f93e d6ea 1c3f 335e ae3e
00000080: a5a8 6e3f 23b4 f33e 0a86 273f bf42 143f
00000090: 2a96 1c3f fc43 413f e914 1f3f d5d8 0e3f
000000a0: 13cc 3f3e bdab 183d c6c9 d23d d1ea 943e
000000b0: f89c 453f 64dd b23e 88a5 263f dced 3e3f
000000c0: bd87 0b3f a2cc b43e 6e61 573f 921e 3b3f
000000d0: 79fa 213f 5a66 723f 3933 ef3e b094 4b3f
000000e0: 0ea2 973e 5d5d 5c3f 069a c33e 2bdc 993d
000000f0: 6311 563e 6dd2 7c3f babb 343f 8b54 b73e
00000100: 5c6f 063f 04dc 103e 83a8 153f 59f0 573f
00000110: 5b01 553e 4fdf cd3e 8297 e53e 22f8 d33e
00000120: 13f3 0b3d 7c90 e73d 35d5 e53e a467 093f
00000130: 3faf 7d3f 6372 413f 71b1 713f 6583 b23e
00000140: 6245 253f 8597 0a3e ac97 e63e ef11 103f
00000150: 68a9 293e cd88 aa3d 3b2c c63e 6c5e 663e
00000160: 624e 7c3f cc05 303f 6a7d 703f a9fa 5e3f
00000170: 7a6f 773f de2a 1a3f 1994 573f fd85 043f
00000180: 9f63 e33e a4ec 343f 783e 7a3e 9468 f33e
00000190: d57e 4e3e 60ec f23d 898d 3b3f f8de 233f
000001a0: f995 483f aa8a 553f e3f6 333f f701 dd3e
000001b0: 869d aa3e c266 793f fe79 e13e d9f3 e63e
000001c0: 7760 6a3d 799e 2f3f 05aa 523e a042 b43d
000001d0: 7bbc 323e ad90 2a3f 9632 dd3e 40f5 5d3d
000001e0: a674 193e 483a 6c3f 56f8 fc3e a3e6 cb3e
000001f0: cdbd 933e 87f6 5d3f 6891 463f 222b f43d

layer1.1.bias f4 [128]
-0.0002436256 -0.001185013 0.00030002982 -0.0019907267 -0.00046443724 0.00044186524 0.001816646 -0.001910351
-0.0016777988 -0.0019168562 0.0009198368 -0.001035763 -0.00089772756 -0.001560271 0.00045603362 0.00035376218
0.0018297273 0.0007078136 0.00049564755 0.0019551546 -0.0019942452 -0.0018727999 -0.0019351061 -0.0010137794
0.0019354522 -0.0016530154 -0.0005917256 0.0019468219 0.0015261855 0.0018871597 -0.0002876757 -0.00024947018
-0.00090195634 0.0010695464 -0.0017614487 0.00039743516 0.0017568122 0.0019859092 0.0019474579 -0.00025689183
0.00023530307 0.0008959016 -0.0005184052 0.00046714337 0.00035176636 -0.0004004212 -0.001975295 -0.00093112356
-0.00045309414 0.0004631682 0.00038975728 0.001988042 -0.0018413619 -0.0004972676 -0.0019801902 0.0018359232
0.0017776523 0.0018396322 0.0012260142 0.00050966 -0.00087138853 0.0014789418 -0.0018967243 -0.00063437904
0.0004226315 0.0004894293 -0.0018792956 -0.0019654194 -0.0019021282 0.00039198226 0.0015859273 -0.001980583
-0.00037071592 0.0009185839 -0.00037682342 -0.00188483 0.00031043903 0.0007130173 -0.0019270399 -0.001999799
0.0018809522 0.0009697903 0.0003523702 -0.0018460632 0.0018451718 -0.0015494325 -0.001821226 0.0018458252
0.0019239404 -0.0018859152 -0.0006996087 0.00034926168 0.00051922334 -0.00032882328 -0.0017547075 -0.0019326075
-0.0019052669 -6.0284103e-05 -0.001399406 0.000823891 0.00045175006 -0.0008943316 -0.00038073282 0.00026554143
0.0018383686 -0.0005672177 0.0019464548 0.0018951896 -0.0014933748 -0.0017732538 0.0012789754 -0.0017787262
-0.0004595407 0.0018146669 0.0004507692 -0.0012077224 0.0018320675 -0.00044031953 -0.0003277756 0.0019968816
0.0016429697 -0.0019568899 -0.0008747838 0.001822077 -0.00072189793 -0.00049036497 -0.0010638015 0.0004799344
00000000: c075 7fb9 7052 9bba 524d 9d39 da76 02bb
00000010: b67f f3b9 26aa e739 861c ee3a be64 faba
00000020: 96e9 dbba 053f fbba 3421 713a 70c2 87ba
00000030: 7a55 6bba 0282 ccba cc17 ef39 2879 b939
00000040: 76d3 ef3a 918c 393a 58ee 013a 0d22 003b
00000050: e2b1 02bb bd78 f5ba 63a3 fdba cbe0 84ba
00000060: 00af fd3a fea9 d8ba 081e 1bba 812c ff3a
00000070: 4a0a c83a 925a f73a 2ed3 96b9 52cb 82b9
00000080: 4471 6cba 0630 8c3a 69e0 e6ba d85e d039
00000090: d644 e63a 0726 023b d841 ff3a 70af 86b9
000000a0: b0bb 7639 f0da 6a3a 96e5 07ba ecea f439
000000b0: 486d b839 a0ef d1b9 f373 01bb a516 74ba
000000c0: 448d edb9 62d5 f239 5658 cc39 cf49 023b
000000d0: da59 f1ba 105b 02ba 14c6 01bb 5ca3 f03a
000000e0: 1d00 e93a d01f f13a 36b2 a03a b49a 053a
000000f0: e56d 64ba 0dd9 c13a 829b f8ba 754c 26ba
00000100: a494 dd39 0b4d 003a b252 f6ba 44ce 00bb
00000110: d550 f9ba f882 cd39 e4de cf3a abcc 01bb
00000120: a65c c2b9 1fcd 703a 6290 c5b9 660c f7ba
00000130: 6cc2 a239 c8e9 3a3a bb94 fcba 0f0f 03bb
00000140: 488a f63a 8639 7e3a 54be b839 9af7 f1ba
00000150: b1d9 f13a 5416 cbba 34b6 eeba 9eef f13a
00000160: ba2c fc3a d030 f7ba f265 37ba 1c1d b739
00000170: 7d1c 083a ea65 acb9 37fe e5ba 8c4f fdba
00000180: 26ba f9ba 90d9 7cb8 466c b7ba 64fa 573a
00000190: ded8 ec39 9471 6aba 189d c7b9 5e38 8b39
000001a0: 6af5 f03a 56b1 14ba 2f20 ff3a 0368 f83a
000001b0: 58bd c3ba 866c e8ba 4ba3 a73a 2624 e9ba
000001c0: 82ee f0b9 1eda ed3a 3855 ec39 704c 9eba
000001d0: fc21 f03a b0da e6b9 4cd9 abb9 1dde 023b
000001e0: ea58 d73a 2a3f 00bb bf51 65ba c2d2 ee3a
000001f0: c03d 3dba d68b 00ba 416f 8bba b49f fb39

layer1.1.running_mean f4 [128]
0.10626039 24.278967 -10.449063 -20.89341 -18.757137 18.635897 24.410744 9.999534
7.419202 -0.54531366 -16.37928 6.9340715 -3.3030508 1.0396544 -16.392641 -25.578129
-6.132313 13.937073 32.529152 -8.367895 -18.011362 -13.306992 3.1309524 -27.718004
47.810497 0.17741027 -5.3806376 -51.643894 -33.792812 1.1597513 -7.692319 -23.701199
-17.386686 10.905219 -34.505875 -15.579848 9.137544 18.997131 -11.506967 9.408188
2.31416 3.8791807 17.7219 16.335888 -39.055424 7.00998 -3.5778222 5.423075
0.033974573 -39.142822 0.44813457 1.5388148 -1.9169475 2.4240575 11.444197 -20.898506
-18.387135 -35.761925 -23.24257 14.4843855 -15.974691 3.0659347 -11.218189 8.486855
-28.520794 21.463469 -20.014797 3.3111775 -38.272076 8.261782 -2.0417426 11.950805
24.485388 -24.992691 -2.0276997 25.376205 31.369564 3.8082495 -7.488554 27.784014
15.653358 7.3144774 15.48101 -15.318712 15.359461 14.605165 6.7689304 -49.610764
-26.892319 19.018442 -3.6990817 22.227491 8.745683 -8.496876 11.319849 -13.073922
-4.198273 -18.03164 -0.09688654 -13.96376 -20.812666 5.612611 -8.141475 2.6043856
14.220779 -6.948427 8.767546 -6.559662 2.7935245 -23.206966 -16.511717 -12.68936
-19.239231 12.568788 -14.913538 -13.3348 -3.3428397 3.2362165 26.315868 -16.823647
-3.4957397 8.884415 46.63594 -19.630632 -6.976769 -7.8173084 -2.8224835 21.825405
00000000: 0c9f d93d 533b c241 5d2f 27c1 b425 a7c1
00000010: 9e0e 96c1 5116 9541 3449 c341 17fe 1f41
00000020: 1a6a ed40 ad99 0bbf c408 83c1 eae3 dd40
00000030: 2f65 53c0 6513 853f 2124 83c1 02a0 ccc1
00000040: e83b c4c0 40fe 5e41 da1d 0242 e6e2 05c1
00000050: 4517 90c1 70e9 54c1 8661 4840 79be ddc1
00000060: f33d 3f42 0aab 353e 2f2e acc0 5993 4ec2
00000070: d72b 07c2 bb72 943f 7a27 f6c0 0e9c bdc1
00000080: ef17 8bc1 c77b 2e41 0406 0ac2 0f47 79c1
00000090: 6133 1241 20fa 9741 891c 38c1 f087 1641
000000a0: 331b 1440 7f44 7840 74c6 8d41 e6af 8241
000000b0: c138 1cc2 c251 e040 0afb 64c0 d589 ad40
000000c0: ec28 0b3d 4092 1cc2 e571 e53e e2f7 c43f
000000d0: 895e f5bf c223 1b40 6e1b 3741 2430 a7c1
000000e0: da18 93c1 360c 0fc2 c9f0 b9c1 0bc0 6741
000000f0: 5698 7fc1 4638 4440 b47d 33c1 28ca 0741
00000100: 962a e4c1 2fb5 ab41 4e1e a0c1 55ea 5340
00000110: 9b16 19c2 4230 0441 e9ab 02c0 7f36 3f41
00000120: 13e2 c341 08f1 c7c1 d5c5 01c0 7802 cb41
00000130: def4 fa41 5cba 7340 3ca2 efc0 a945 de41
00000140: 2874 7a41 3310 ea40 38b2 7741 7219 75c1
00000150: 5ac0 7541 c1ae 6941 149b d840 6c71 46c2
00000160: 7823 d7c1 c525 9841 c1bd 6cc0 e7d1 b141
00000170: 51ee 0b41 34f3 07c1 1a1e 3541 c92e 51c1
00000180: 4158 86c0 cc40 90c1 736c c6bd 906b 5fc1
00000190: 5780 a6c1 829a b340 7b43 02c1 41ae 2640
000001a0: 5088 6341 8459 dec0 de47 0c41 c0e8 d1c0
000001b0: 1bc9 3240 dea7 b9c1 ff17 84c1 9e07 4bc1
000001c0: f2e9 99c1 c119 4941 da9d 6ec1 575b 55c1
000001d0: 16f1 55c0 2c1e 4f40 e686 d241 d496 86c1
000001e0: 33ba 5fc0 9026 0e41 348b 3a42 890b 9dc1
000001f0: b141 dfc0 6427 fac0 92a3 34c0 6e9a ae41

layer1.1.running_var f4 [128]
83.53508 757.09656 133.34016 698.5844 531.47516 553.11523 944.1675 327.44553
106.77078 86.11236 435.17642 155.08109 104.76402 158.46097 480.77792 872.1163
166.58554 338.67258 1230.0586 172.45705 391.22083 286.5132 204.14998 1064.1813
2601.9602 154.56047 290.25256 3133.2698 1271.0594 160.8244 107.56933 701.89905
380.4707 216.13637 1317.8649 384.43408 113.37004 584.78033 198.58018 237.76459
105.570114 101.4912 412.60553 437.1595 1929.0293 132.12431 100.87493 96.916954
95.677704 2033.1716 20.614967 54.919407 110.43217 252.72755 242.87152 534.1116
400.3127 1372.8391 672.08795 297.0262 384.42316 94.90339 290.97394 269.37885
836.4843 544.34485 554.38275 85.27173 1629.6781 244.56737 179.74095 212.9119
899.5319 761.5547 41.486603 769.4267 1158.7628 81.38421 152.1261 1052.1527
310.88516 104.33514 501.08633 426.95712 318.7638 458.30508 125.277176 2576.8047
922.6023 521.35565 149.34138 627.69403 132.25266 255.03424 188.98427 322.7421
148.19257 375.50482 151.78004 288.99353 637.4264 187.8075 181.40681 265.41257
314.77383 208.3312 200.78467 143.5952 165.28967 624.36176 449.95184 304.59927
470.5538 325.5988 259.9937 195.67558 108.91328 90.6448 895.39026 334.6951
184.41371 167.34454 2553.8806 461.99655 209.58406 212.81676 89.524216 708.0656
00000000: f611 a742 2e46 3d44 1557 0543 67a5 2e44
00000010: 69de 0444 6047 0a44 b80a 6c44 07b9 a343
00000020: a48a d542 8739 ac42 9596 d943 c214 1b43
00000030: 2e87 d142 0276 1e43 9363 f043 7107 5a44
00000040: e695 2643 1756 a943 e0c1 9944 0175 2c43
00000050: 449c c343 b141 8f43 6526 4c43 cd05 8544
00000060: 5d9f 2245 7b8f 1a43 5420 9143 51d4 4345
00000070: e7e1 9e44 0cd3 2043 7f23 d742 8a79 2f44
00000080: 403c be43 e922 5843 adbb a444 9037 c043
00000090: 76bd e242 f131 1244 8794 4643 bcc3 6d43
000000a0: e623 d342 7ffb ca42 824d ce43 6a94 da43
000000b0: f020 f144 d31f 0443 f7bf c942 7bd5 c142
000000c0: fc5a bf42 7e25 fe44 74eb a441 79ad 5b42
000000d0: 45dd dc42 41ba 7c43 1cdf 7243 2487 0544
000000e0: 0728 c843 da9a ab44 a105 2844 5b83 9443
000000f0: 2a36 c043 89ce bd42 aa7c 9143 7eb0 8643
00000100: ff1e 5144 1216 0844 7f98 0a44 208b aa42
00000110: b3b5 cb44 3f91 7443 afbd 3343 72e9 5443
00000120: 0be2 6044 8063 3e44 48f2 2542 4f5b 4044
00000130: 69d8 9044 b7c4 a242 4820 1843 e384 8344
00000140: 4d71 9b43 97ab d042 0d8b fa43 837a d543
00000150: c461 9f43 0d27 e543 ea8d fa42 e00c 2145
00000160: 8ca6 6644 c356 0244 6557 1543 6bec 1c44
00000170: ae40 0443 c408 7f43 f9fb 3c43 fd5e a143
00000180: 4c31 1443 9ec0 bb43 b1c7 1743 2c7f 9043
00000190: 4a5b 1f44 b8ce 3b43 2568 3543 cfb4 8443
000001a0: 0d63 9d43 ca54 5043 e0c8 4843 5f98 0f43
000001b0: 284a 2543 2717 1c44 d6f9 e043 b54c 9843
000001c0: e346 eb43 a5cc a243 32ff 8143 f3ac 4343
000001d0: 99d3 d942 234a b542 fad8 5f44 f958 a743
000001e0: e969 3843 3458 2743 179e 1f45 8fff e643
000001f0: 8595 5143 17d1 5443 660c b342 3304 3144

layer2.0.weight f4 [64, 128, 3, 3]
-0.0030165396 0.006241564 0.010554135 -0.027145505 -0.019349901 0.005335417 0.008290242 -0.017380018
-0.009764915 0.012753631 0.017314946 0.025293544 0.007079134 -0.012563075 0.026393073 0.01735656
-0.015224152 -0.0009841864 0.014505415 -0.01693157 -0.022921473 0.030963387 -0.0053505944 -0.013215276
0.029203353 0.013537238 -0.01442513 0.025177734 -0.026318662 -0.025275119 0.013794025 0.0068327785
0.0038700332 -0.007578073 0.015704386 -0.022332061 0.001956145 -0.008450756 -0.006975263 0.007075255
0.020118248 0.021585548 0.012215455 -0.012493589 0.018305505 -0.01304011 -0.004585392 0.012042926
0.007106407 0.009090733 -0.022848232 -0.00852956 -0.016083892 -0.018061664 -0.0057872795 -0.01248916
-0.01918048 -0.01910086 -0.013032897 0.023245146 0.014727511 0.004480175 -0.027370792 -0.007854953
0.0124082435 -0.019994512 -0.0063032554 -0.005848554 0.008963186 -0.0140425395 0.018427862 0.0042471997
0.027194828 -0.021740194 -0.019617733 0.026350895 -0.019684587 0.0040776026 -0.019935925 0.0020883498
0.023756376 -0.02287533 0.01009214 0.0073013785 -0.0005310369 0.009189435 -0.021069005 -0.008685497
0.016890425 -0.009313326 -0.012171408 0.024449712 -0.016781993 0.013755615 0.025137397 0.018682633
0.02347743 0.029675974 -0.021600047 0.009136392 -0.007930316 -0.02651756 -0.022173136 -0.0223626
0.01761473 0.023636699 -0.029682178 -0.0050294106 0.023911754 -0.008318544 0.028092496 -0.002751559
-0.021817213 0.028220449 -0.016713133 -0.0137886815 0.017676411 0.008567382 -0.010451157 -0.008431866
0.018638624 -0.021739567 -0.026022127 -0.030709732 -0.019294826 -0.0024438724 0.005322933 -0.025226831
-0.021961506 0.016366713 0.017659048 0.015512854 0.0030703682 0.027077263 -0.012884657 0.012545689
-0.02539857 0.02468045 0.014453563 -0.02579546 0.027422251 0.014858431 0.028459992 -0.025471652
-0.006627883 0.02702676 0.0117611 0.027898842 0.009705737 -0.022285044 -0.014395376 0.027573274
0.00922884 -0.01793049 -0.01347788 -0.028067397 -0.027026843 -0.010438957 0.002706821 0.009183119
-0.011432975 0.009041321 -0.028040804 0.0085697705 0.026587911 -0.022370894 0.005346281 -0.029248752
-0.00053809746 -0.0032778527 -0.0025748352 0.020451777 0.011527857 0.009378681 0.014016342 0.00028243876
-0.009503055 0.029192751 -0.015596246 0.0023879984 -0.0028947685 0.016175117 0.011715384 -0.003647263
0.013504032 0.0050901365 0.007099282 0.021721795 -0.022033354 -0.008316916 -0.015919847 -0.0006893701
0.010679787 0.019515732 0.0110530285 -0.023078825 0.02633435 -0.018555192 -0.008581939 0.009167245
-0.0099238325 0.010264431 0.010209769 -0.026837347 0.017913401 -0.0025001797 0.0051919594 -0.022240471
-0.012105813 -0.027738381 -0.003007583 -0.013406364 0.0067819157 0.025467962 0.030042233 0.002193811
-0.026741795 0.01413294 0.01186062 0.023012547 -0.0050745835 0.009849367 0.022271445 0.017822495
-0.011345679 0.009033632 0.01574907 -0.0027410064 -0.008388439 -0.023568925 0.02464071 0.023934748
-0.026152607 0.030125793 0.01808298 -0.025382284 -0.00821161 -0.021652037 -0.010790719 -0.018333085
-0.014284981 0.020247981 -0.00073482195 0.025420733 -0.0033234619 0.0059567736 0.022156345 -0.0029246286
0.011686277 -0.009611605 0.027662821 -0.0019211001 -0.02422844 0.026587216 0.008071279 -0.009480629
00000000: 23b1 45bb 0986 cc3b 40eb 2c3c 4060 debc
00000010: af83 9ebc b9d4 ae3b ccd3 073c 8a60 8ebc
00000020: 06fd 1fbc 9bf4 503c 13d8 8d3c 6834 cf3c
00000030: 15f8 e73b 5bd5 4dbc 4936 d83c 582f 8e3c
00000040: b96e 79bc d1ff 80ba 1fa8 6d3c 13b4 8abc
00000050: d0c5 bbbc eea6 fd3c 0a54 afbb e384 58bc
00000060: df3b ef3c 4bcb 5d3c 6157 6cbc 8941 ce3c
00000070: 3c9a d7bc c40d cfbc 5600 623c 80e5 df3b
00000080: 62a0 7d3b 7c51 f8bb 7ca6 803c baf1 b6bc
00000090: ab32 003b 0a75 0abc bf90 e4bb 8ad7 e73b
000000a0: 06cf a43c 2dd4 b03c 5523 483c e9b1 4cbc
000000b0: 6df5 953c 2fa6 55bc 0e41 96bb b14f 453c
000000c0: dddc e83b 4cf1 143c 372c bbbc 91bf 0bbc
000000d0: 5ec2 83bc 0ef6 93bc 38a3 bdbb 559f 4cbc
000000e0: 6220 9dbc 6879 9cbc ef87 55bc 9b6c be3c
000000f0: a94b 713c 6fce 923b b638 e0bc 10b2 00bc
00000100: f24b 4b3c 88cb a3bc 8a8b cebb 3aa5 bfbb
00000110: 54da 123c ae12 66bc 07f6 963c 182c 8b3b
00000120: b0c7 de3c 7e18 b2bc 5eb5 a0bc d5dd d73c
00000130: 9241 a1bc 699d 853b aa50 a3bc b2dc 083b
00000140: bb9c c23c 0b65 bbbc 8159 253c 6740 ef3b
00000150: 4835 0bba 498f 163c e898 acbc 9d4d 0ebc
00000160: ca5d 8a3c ec96 18bc 966a 47bc c34a c83c
00000170: 647a 89bc 3b5f 613c f1ec cd3c 520c 993c
00000180: bd53 c03c 071b f33c 95f2 b0bc ceb0 153c
00000190: 28ee 01bc 5b3b d9bc 70a4 b5bc c531 b7bc
000001a0: c44c 903c c0a1 c13c 0a28 f3bc c1cd a4bb
000001b0: 95e2 c33c 814a 08bc 3c22 e63c 8053 34bb
000001c0: 03ba b2bc 922e e73c fbe9 88bc ece9 61bc
000001d0: 1fce 903c 345e 0c3c 543b 2bbc cf25 0abc
000001e0: 07b0 983c 2d17 b2bc 5b2c d5bc fa92 fbbc
000001f0: 2f10 9ebc 6029 20bb 006c ae3b 80a8 cebc
00000200: 9ee8 b3bc 7c13 863c b5a9 903c a029 7e3c
00000210: 3b38 493b 23d1 dd3c 2b1a 53bc 6f8c 4d3c
00000220: a910 d0bc a82e ca3c a3ce 6c3c 0051 d3bc
00000230: a1a4 e03c c770 733c ee24 e93c eda9 d0bc
00000240: b62e d9bb 3967 dd3c a1b1 403c 1d8c e43c
00000250: d004 1f3c 208f b6bc 95da 6bbc 59e1 e13c
00000260: 8f34 173c f7e2 92bc 53d2 5cbc 99ed e5bc
00000270: 6667 ddbc 2908 2bbc ec64 313b cb74 163c
00000280: 5f51 3bbc 0d22 143c d4b5 e5bc 3968 0c3c
00000290: e4ce d93c 2a43 b7bc db2f af3b 149b efbc
000002a0: 1c0f 0dba 3ed1 56bb 91be 28bb 7c8a a73c
000002b0: 56df 3c3c 0aa9 193c cda4 653c 4a14 9439
000002c0: b4b2 1bbc a325 ef3c 6687 7fbc f77f 1c3b
000002d0: 28b6 3dbb ae81 843c e2f1 3f3c eb06 6fbb
000002e0: 0440 5d3c 29cb a63b 18a1 e83b e8f1 b13c
000002f0: 4b7f b4bc ad43 08bc 576a 82bc d8b6 34ba
00000300: 46fa 2e3c 75df 9f3c c317 353c ce0f bdbc
00000310: 23bb d73c 0f01 98bc 439b 0cbc 3632 163c
00000320: 9297 22bc 252c 283c e046 273c ffd9 dbbc
00000330: 20bf 923c 0eda 23bb 5021 aa3b a631 b6bc
00000340: 7657 46bc 9a3b e3bc df1a 45bb 5ea6 5bbc
00000350: d53a de3b 30a2 d03c 211b f63c 0ac6 0f3b
00000360: 9c11 dbbc d98d 673c 0c53 423c cf84 bc3c
00000370: b148 a6bb 3d5f 213c 9b72 b63c 7b00 923c
00000380: 3ae3 39bc cd01 143c 3204 813c 75a2 33bb
00000390: aa6f 09bc 9e13 c1bc 50db c93c ce12 c43c
000003a0: fe3d d6bc 5eca f63c c222 943c 82ee cfbc
000003b0: fd89 06bc 9d5f b1bc 8ecb 30bc 442f 96bc
000003c0: 8e0b 6abc 18df a53c 11a1 40ba 243f d03c
000003d0: 70ce 59bb 0a31 c33b 3981 b53c 20ab 3fbb
000003e0: cc77 3f3c fe79 1dbc 249d e23c 6ccd fbba
000003f0: b97a c6bc 6fcd d93c 663d 043c a454 1bbc

layer2.0.bias f4 [64]
-0.02020658 0.011613337 -0.026321543 -0.024173407 -0.014580225 -0.0050090826 -0.0152615495 0.013900073
-0.02395395 -0.0020988104 0.018645527 0.0109651685 0.017897578 0.0009526952 0.018524967 -0.021444408
0.011349675 0.015602645 -0.005971812 -0.027101127 0.014704625 -0.025213186 -0.01141998 0.023323791
-0.020524442 0.009328823 0.018615384 0.020526672 0.008310749 -0.013893403 0.0120258825 -0.021458132
-0.0002953499 0.015164005 -0.023914235 0.013530933 0.0057592536 0.009516273 -0.019095734 -0.024250895
-0.0018530745 -0.028518032 0.0005157327 -0.022158839 -0.029311148 -0.02505275 -0.028561547 -0.02852183
-0.001795549 0.009109137 -0.0027649202 -0.0061194133 0.02616303 0.025816478 -0.01342192 -0.026826
0.0076192357 -3.820748e-05 -0.022402516 0.021032615 -0.009372365 0.01495869 -0.0109284865 0.004986246
00000000: 4588 a5bc de45 3e3c 47a0 d7bc 4f07 c6bc
00000010: e5e1 6ebc 3b23 a4bb 940b 7abc 22bd 633c
00000020: 133b c4bc 328c 09bb 81be 983c 40a7 333c
00000030: f19d 923c 4bbe 793a acc1 973c 2fac afbc
00000040: fdf3 393c 3da2 7f3c 31af c3bb 2f03 debc
00000050: abeb 703c e28b cebc de1a 3bbc 8911 bf3c
00000060: e022 a8bc ebd7 183c 4a7f 983c 8d27 a83c
00000070: cf29 083c 28a1 63bc 3508 453c f7c8 afbc
00000080: 31d9 9ab9 7272 783c c9e7 c3bc d9b0 5d3c
00000090: 1fb8 bc3b 24ea 1b3c a86e 9cbc d0a9 c6bc
000000a0: dde2 f2ba a69e e9bc 3c32 073a 7486 b5bc
000000b0: ef1d f0bc 6d3b cdbc e8f9 e9bc 9da6 e9bc
000000c0: a058 ebba 7d3e 153c aa33 35bb 5c85 c8bb
000000d0: da53 d63c 147d d33c 9de7 5bbc 33c2 dbbc
000000e0: c8aa f93b f840 20b8 7b85 b7bc 974c ac3c
000000f0: 8c8e 19bc 4b15 753c 650d 33bc aa63 a33b

layer2.1.weight f4 [64]
0.51764935 0.8885434 0.68747884 0.22667477 0.23985557 0.31486294 0.1786346 0.16125573
0.3339248 0.77520037 0.82264215 0.17090143 0.93618846 0.24687234 0.6285611 0.99231696
0.5908766 0.87145084 0.07876747 0.5662206 0.4244058 0.48511603 0.35456207 0.61631745
0.15875146 0.6513951 0.12234824 0.6053862 0.46214786 0.8204334 0.9150192 0.36161864
0.030444253 0.31550807 0.5783705 0.74220407 0.44244295 0.42742562 0.0811784 0.34615636
0.6705185 0.13822204 0.24476144 0.14006348 0.7233732 0.2830682 0.53350407 0.2755704
0.31616488 0.81346375 0.8846484 0.7284419 0.39699465 0.6385369 0.7210669 0.27705434
0.24185994 0.55809766 0.4901479 0.44962493 0.34820378 0.22837101 0.024468271 0.3784559
00000000: ab84 043f 9577 633f 9dfe 2f3f 6e1d 683e
00000010: b39c 753e b735 a13e fdeb 363e 3920 253e
00000020: 31f8 aa3e 8873 463f ad98 523f c900 2f3e
00000030: 0caa 6f3f 1acc 7c3e 61e9 203f 7c08 7e3f
00000040: b043 173f 6717 5f3f d750 a13d d5f3 103f
00000050: b84b d93e 2161 f83e 2989 b53e fbc6 1d3f
00000060: be8f 223e d4c1 263f b791 fa3d 97fa 1a3f
00000070: a59e ec3e ec07 523f b33e 6a3f 1426 b93e
00000080: 3a66 f93c 468a a13e 1710 143f 1601 3e3f
00000090: e287 e23e 88d7 da3e dc40 a63d 683b b13e
000000a0: 1aa7 2b3f 148a 0d3e bea2 7a3e cd6c 0f3e
000000b0: fc2e 393f 51ee 903e b993 083f 9017 8d3e
000000c0: 5de0 a13e 293f 503f 5178 623f 2b7b 3a3f
000000d0: e242 cb3e 2777 233f d797 383f 11da 8d3e
000000e0: 22aa 773e 7ddf 0e3f aaf4 fa3e 3d35 e63e
000000f0: c447 b23e 17da 693e af71 c83c f9c4 c13e

layer2.1.bias f4 [64]
0.0018028277 0.0011737306 -0.001863315 -0.0010099967 -0.0017930651 -0.0009066146 0.00065396493 -0.0014028846
0.00097044674 -0.0019818707 -0.00049464765 -0.0019097752 0.0005486007 -0.0016084462 -0.0019206577 -0.00044861413
-0.000657746 0.0019576806 -0.0012868376 -0.0002694006 0.00036370568 0.0016929789 0.00035963015 -0.0017699106
-0.001956335 -0.0018885056 0.0011305375 -0.0008694079 -0.0018172472 0.0018961243 -0.0017570057 -0.00075571786
-0.001790518 0.001978004 0.0016741902 -0.0019307628 0.0005636973 -0.0012836964 0.0018150334 0.001863876
-0.00043045997 0.0018453305 0.0013264224 -0.0020009384 -0.0008926523 0.0019787597 -0.001967778 0.001994887
0.00046818063 0.0018825238 -0.0019424392 0.001816491 -0.001992809 0.0019961423 0.0020001158 -0.0008005185
0.0019992753 0.00030200224 -0.0019162479 -0.00031041232 0.0018231787 0.00054465095 -0.0018922852 -0.0019170989
00000000: dc4c ec3a ddd7 993a 7a3a f4ba de61 84ba
00000010: 4805 ebba e0a9 6dba d86e 2b3a ffe0 b7ba
00000020: 9465 7e3a 46e2 01bb 3eab 01ba 6c51 faba
00000030: f8cf 0f3a 80d2 d2ba 94be fbba f833 ebb9
00000040: 966c 2cba 6e4c 003b 1bab a8ba 563e 8db9
00000050: c0af be39 f2e6 dd3a be8c bc39 58fc e7ba
00000060: db35 00bb bc87 f7ba 8b2e 943a fae8 63ba
00000070: b330 eeba 6087 f83a 544b e6ba 5e1b 46ba
00000080: d1af eaba 66a1 013b 8070 db3a a611 fdba
00000090: 16c5 133a b441 a8ba 6ae6 ed3a 4d4d f43a
000000a0: 5caf e1b9 04df f13a 5adb ad3a 2d22 03bb
000000b0: e200 6aba 14ae 013b d6f5 00bb a6bc 023b
000000c0: 2476 f539 04bf f63a 7299 feba 5317 ee3a
000000d0: c999 02bb b6d1 023b 6014 033b e3d9 51ba
000000e0: 4606 033b 0e56 9e39 9c2a fbba d6be a2b9
000000f0: baf7 ee3a e8c6 0e3a 8e06 f8ba 2a47 fbba

layer2.1.running_mean f4 [64]
-0.038826484 0.005752038 -0.03741972 0.011438312 0.022790885 0.046455584 0.013590028 0.06073548
-0.061956413 -0.0526942 -0.020944411 0.026621407 0.06681966 -0.06554591 0.051833227 -0.07732261
0.019298017 0.008777373 0.06962885 -0.039690025 0.013746097 -0.03212901 -0.11672778 0.08343001
0.01724603 0.013474991 0.08037114 0.02708404 -0.010002693 0.018824931 -0.045361582 0.019859368
-0.038780477 -0.022955256 0.0009870483 0.016112162 0.055578884 -0.04491778 0.048050143 0.015449225
0.039814763 0.018479547 0.034742475 -0.11029528 -0.013193328 -0.065256074 0.024932751 0.055519924
-0.043832377 0.03419667 -0.022039944 0.045474276 -0.047229003 0.047934875 -0.048075702 0.032334067
0.038043723 0.06574008 -0.022610951 0.043237947 -0.084486604 0.034553446 0.0062833275 -0.030512154
00000000: 8508 1fbd 987b bc3b 6c45 19bd c267 3b3c
00000010: f3b3 ba3c 3648 3e3d b5a8 5e3c c4c5 783d
00000020: 02c6 7dbd e0d5 57bd 9d93 abbc 2315 da3c
00000030: bfd8 883d ef3c 86bd 144f 543d 515b 9ebd
00000040: e016 9e3c f8ce 0f3c 9299 8e3d 0292 22bd
00000050: 4f37 613c b599 03bd f90e efbd 5add aa3d
00000060: 8c47 8d3c 35c6 5c3c a099 a43d 59df dd3c
00000070: 56e2 23bc be36 9a3c 11cd 39bd 1db0 a23c
00000080: 47d8 1ebd a90c bcbc d85f 813a a7fd 833c
00000090: afa6 633d b5fb 37bd 3ad0 443d bf1e 7d3c
000000a0: ce14 233d 6b62 973c 204e 0e3d 7ee2 e1bd
000000b0: d428 58bc faa4 85bd c53f cc3c dc68 633d
000000c0: 9489 33bd cf11 0c3d 1d8d b4bc 3c43 3a3d
000000d0: 3373 41bd 5c57 443d 07eb 44bd ba70 043d
000000e0: bcd3 1b3d bca2 863d 9a3a b9bc 461a 313d
000000f0: 5007 adbd ea87 0d3d 5fe4 cd3b a0f4 f9bc

layer2.1.running_var f4 [64]
0.8225932 0.82615894 0.81954795 0.8242549 0.82071817 0.8355913 0.8244758 0.8222467
0.82998836 0.81492555 0.81841034 0.82301074 0.83026165 0.8185768 0.8243936 0.825554
0.8198271 0.8260537 0.8224544 0.81883186 0.8206137 0.8214381 0.8282749 0.8244319
0.81897795 0.828513 0.8327465 0.8349088 0.8279283 0.86027485 0.8195795 0.8339093
0.82115597 0.82618576 0.8196595 0.8175202 0.8217003 0.8427086 0.82079965 0.829554
0.844132 0.82738423 0.8258402 0.86190754 0.8196696 0.8253041 0.8255482 0.8256584
0.8293948 0.8222506 0.81981224 0.8169086 0.84254986 0.8290172 0.8339736 0.817449
0.8216739 0.8215315 0.82163244 0.8235426 0.8321495 0.8219942 0.81675553 0.81872106
00000000: 7895 523f 277f 533f e5cd 513f 5e02 533f
00000010: 961a 523f 50e9 553f d910 533f c27e 523f
00000020: 1e7a 543f f69e 503f 5783 513f d5b0 523f
00000030: 078c 543f 408e 513f 750b 533f 8257 533f
00000040: 30e0 513f 4178 533f 5f8c 523f f79e 513f
00000050: bd13 523f c449 523f d309 543f f80d 533f
00000060: 8aa8 513f 6e19 543f e02e 553f 95bc 553f
00000070: 1cf3 533f f93a 5c3f f6cf 513f 147b 553f
00000080: 4737 523f e980 533f 34d5 513f 0149 513f
00000090: f35a 523f c0bb 573f ed1f 523f a75d 543f
000000a0: 0919 583f 74cf 533f 436a 533f f9a5 5c3f
000000b0: ded5 513f 2147 533f 2057 533f 595e 533f
000000c0: 3853 543f 047f 523f 37df 513f ec20 513f
000000d0: 59b1 573f 793a 543f 4b7f 553f 5644 513f
000000e0: 3959 523f e34f 523f 8156 523f b0d3 523f
000000f0: c007 553f 366e 523f e416 513f b497 513f

layer3.0.weight f4 [32, 64, 3, 3]
-0.019081395 -0.043030147 0.023165196 0.007691479 0.03456323 0.031643376 0.030738428 0.0057170927
0.02489997 -0.000907258 0.0075376816 0.026650492 0.013676499 0.042693518 0.02593587 0.008659749
0.01833401 -0.033101443 -0.0108043505 0.036970012 -0.0009013001 0.005048462 -0.012932433 0.012172701
-0.023694424 0.031415597 -0.0038842063 0.0038603707 0.011620298 0.026796862 0.004476079 0.025955176
-0.039555266 -0.007111912 -0.002550283 -0.009435965 -0.0015461779 0.007917869 -0.018440306 -0.008539848
-0.0040571652 -0.028604262 0.009237997 -0.017480845 -0.0150794685 0.0037583178 -0.014635245 -0.03746323
-0.0024583526 -0.014823316 0.014189042 0.0054534003 0.015288874 0.03787112 -0.0032700312 0.014951733
-0.010243403 -0.0174567 -0.010882849 0.037437506 0.036402218 0.040496994 0.038698077 -0.0035376847
0.021171007 -0.019788073 0.0085889725 0.014404481 -0.021321343 0.004730165 -0.015743185 -0.039774816
-0.03161656 0.0077323895 -0.040054046 -0.0021229933 -0.016440174 -0.007700081 0.014036242 -0.0364181
-0.020086385 0.011304071 0.010090687 -0.010356588 0.008428764 0.03898003 0.0044416394 -0.035193577
-0.017987587 0.020204952 0.032882094 0.01078325 -0.005822849 0.036252704 0.011421923 0.015114384
0.009953281 -0.032099426 0.035254862 0.0032321825 0.005961866 0.035882477 0.008812348 0.029655159
0.014883654 0.014158797 0.02195438 0.0105599435 0.038509585 0.03534492 -0.0022993404 0.006177666
0.0039333575 -0.01597751 -0.037816904 0.038521845 -0.031279445 -0.027661111 -0.018073313 0.03968106
0.020861028 0.010010739 0.003192062 0.037304234 0.007945627 0.011853184 -0.028352385 0.040865637
-0.019389676 -0.02069675 -0.0043463903 0.0148235215 -0.032490183 -0.0039818673 -0.038661852 -0.039909467
0.022846768 0.036987938 -0.021334663 0.021759456 -0.01834625 -0.031409763 0.03567263 0.0010509192
-0.03586929 0.032561645 0.03932226 -0.004119621 -0.013475251 -0.040414948 0.0056488737 0.0324769
0.03938467 0.026456429 0.018183095 -0.0379575 -0.009446619 -0.04169974 0.006974365 -0.041075516
0.027408453 0.034608558 0.023577483 0.03498275 -0.03275418 -0.00096040906 -0.03582739 0.010196111
0.040034465 0.039156355 0.0021840858 0.017886981 0.031794786 -0.033146497 0.033612646 -0.007786744
0.0052080043 -0.010151222 -0.025691185 0.018910334 0.002909096 0.008596998 -0.019486593 0.0085402075
-0.017938977 0.040837783 0.029140797 0.03559699 0.02676307 0.033953905 -0.004554079 -0.02066384
-0.0025122848 0.04036228 0.03414926 -0.0176516 0.0019301127 -0.022593034 0.009375606 -0.0042743837
0.0041753375 -0.023564987 -0.031511113 -0.038101334 -7.6957745e-05 0.0046260776 0.013850004 0.033080675
-0.005810748 0.031257715 0.009686069 0.036150724 0.020588025 0.021908183 0.018873401 0.017211944
0.038738366 0.035490803 -0.013798473 0.028307792 -0.02734195 -0.038634527 0.034253374 0.002724486
-0.023318298 -0.036602657 0.03465855 -0.025850637 0.040653057 0.0047119046 -0.02571979 -0.0033905115
0.037784535 0.019084822 -0.040467456 0.011335406 -0.035206765 -0.033449 0.012825551 0.0019134316
-0.020393778 0.029509954 -0.012645449 -0.014295297 -0.0018573003 -0.010308847 -0.01550225 -0.022680072
-0.030126767 -0.014363614 0.0019237887 -0.0095107965 -0.017842585 0.026973765 0.001775526 -0.02075894
00000000: 9650 9cbc 6140 30bd f0c4 bd3c cd08 fc3b
00000010: 2c92 0d3d 7c9c 013d 28cf fb3c 7356 bb3b
00000020: 06fb cb3c 0ed5 6dba a8fe f63b 2252 da3c
00000030: 6513 603c 66df 2e3d 7677 d43c 9fe1 0d3c
00000040: 3531 963c 6195 07bd bb04 31bc de6d 173d
00000050: 3a45 6cba 926d a53b 8ee2 53bc 0270 473c
00000060: cf1a c2bc a4ad 003d 2b8e 7ebb 46fe 7c3b
00000070: 1063 3e3c 1885 db3c 12ac 923b f39f d43c
00000080: b404 22bd 0b0b e9bb a622 27bb 4e99 1abc
00000090: 1fa9 caba f3b9 013c 2010 97bc b8ea 0bbc
000000a0: f8f1 84bb 7c53 eabc f85a 173c fd33 8fbc
000000b0: e00f 77bc 1c4e 763b abc8 6fbc 0b73 19bd
000000c0: 501c 21bb 7edd 72bc 2879 683c 70b2 b23b
000000d0: 2f7e 7a3c bf1e 1b3d 054e 56bb 1df8 743c
000000e0: f2d3 27bc 5a01 8fbc fa4d 32bc 1258 193d
000000f0: 7e1a 153d 2de0 253d e081 1e3d 80d8 67bb
00000100: d26e ad3c 991a a2bc c3b8 0c3c c600 6c3c
00000110: 19aa aebc 80ff 9a3b daf7 80bc ebea 22bd
00000120: 5e80 01bd fc5f fd3b b60f 24bd eb21 0bbb
00000130: 8bad 86bc f650 fcbb 44f8 653c 252b 15bd
00000140: 348c a4bc b634 393c 6953 253c aeae 29bc
00000150: cc18 0a3c 86a9 1f3d 2c8b 913b 2427 10bd
00000160: b45a 93bc db84 a53c 60af 063d 3bac 303c
00000170: 99cd bebb b77d 143d 0423 3b3c 52a2 773c
00000180: 1613 233c b07a 03bd 6767 103d 06d3 533b
00000190: c25b c33b 81f9 123d ab61 103c 60ef f23c
000001a0: 92da 733c 4dfa 673c acd9 b33c 9d03 2d3c
000001b0: 3abc 1d3d d6c5 103d 88b0 16bb 056e ca3b
000001c0: 65e3 803b 44e3 82bc e6e5 1abd 15c9 1d3d
000001d0: e01e 00bd 8e99 e2bc 7c0e 94bc 9b88 223d
000001e0: bfe4 aa3c 1504 243c ea31 513b 53cc 183d
000001f0: 602e 023c db33 423c 4343 e8bc ba62 273d
00000200: 19d7 9ebc 3b8c a9bc 2a6c 8ebb 5bde 723c
00000210: 6d14 05bd 537a 82bb e45b 1ebd 1c78 23bd
00000220: 2529 bb3c aa80 173d 08c6 aebc e340 b23c
00000230: e04a 96bc 86a7 00bd 771d 123d ffbe 893a
00000240: adeb 12bd 5c5f 053d 6110 213d e3fd 86bb
00000250: 4dc7 5cbc 258a 25bd 301a b93b 7f06 053d
00000260: d251 213d 27bb d83c b7f4 943c 5379 1bbd
00000270: fec5 1abc 59cd 2abd 3789 e43b cd3e 28bd
00000280: b187 e03c b4c1 0d3d 9125 c13c 124a 0f3d
00000290: 3f29 06bd f6c3 7bba bebf 12bd 970d 273c
000002a0: 2efb 233d 6a62 203d e122 0f3b b887 923c
000002b0: 403b 023d 9fc4 07bd 6aad 093d f127 ffbb
000002c0: e8a7 aa3b 5051 26bc 5276 d2bc d8e9 9a3c
000002d0: 88a6 3e3b 6cda 0c3c 59a2 9fbc 3aec 0b3c
000002e0: c3f4 92bc 8545 273d aeb8 ee3c 26ce 113d
000002f0: 3a3e db3c 4013 0b3d 623a 95bb 3747 a9bc
00000300: 25a5 24bb eb52 253d 18e0 0b3d 179a 90bc
00000310: d6fb fc3a 0715 b9bc 249c 193c 2110 8cbb
00000320: 45d1 883b 5c0b c1bc cc11 01bd 2510 1cbd
00000330: 6064 a1b8 5a96 973b 21eb 623c 9a7f 073d
00000340: 1668 bebb 1708 003d 51b2 1e3c c812 143d
00000350: 38a8 a83c ca78 b33c 649c 9a3c 1000 8d3c
00000360: 1fac 1e3d ce5e 113d fe12 62bc bee5 e73c
00000370: 3afc dfbc 3d3f 1ebd 444d 0c3d 4a8d 323b
00000380: 0406 bfbc abec 15bd 20f6 0d3d b7c4 d3bc
00000390: d283 263d 5266 9a3b 4fb2 d2bc 5833 5ebb
000003a0: f5c3 1a3d c657 9c3c 34c1 25bd 24b8 393c
000003b0: f834 10bd d201 09bd 4322 523c 1ccc fa3a
000003c0: da10 a7bc dcbe f13c db2e 4fbc d236 6abc
000003d0: a870 f3ba 70e6 28bc 26fd 7dbc 8fcb b9bc
000003e0: 69cc f6bc 5d55 6bbc a327 fc3a 2cd3 1bbc
000003f0: 9d2a 92bc 16f8 dc3c c4b8 e83a a70e aabc

layer3.0.bias f4 [32]
0.010001496 0.024514796 0.025037365 -0.019915517 0.0038769387 0.0017952175 0.017898679 -0.030824361
-0.0031797772 -0.013576507 -0.021381281 -0.012496586 -0.039312392 -0.03856015 -0.0136896195 -0.013126037
0.012411539 -0.028629722 0.0195284 -0.021692777 -0.007618749 0.040314335 -0.040053256 0.03294611
0.032550205 0.002202162 0.014439836 -0.00600133 0.029941682 -0.0008989345 -0.030647105 0.026394023
00000000: 51dd 233c 41d3 c83c 291b cd3c de25 a3bc
00000010: 3d14 7e3b 814d eb3a 40a0 923c 5f83 fcbc
00000020: cf63 50bb ff6f 5ebc cc27 afbc 7bbe 4cbc
00000030: 0806 21bd 3ff1 1dbd 6d4a 60bc 970e 57bc
00000040: c559 4b3c e188 eabc 06fa 9f3c 0db5 b1bc
00000050: b3a6 f9bb a520 253d e20e 24bd 80f2 063d
00000060: 5d53 053d 2652 103b 1095 6c3c cea6 c4bb
00000070: 4248 f53c 79a6 6bba a30f fbbc 4738 d83c

layer3.1.weight f4 [32]
0.5298602 0.5775254 0.18579175 0.722304 0.9515243 0.5989029 0.92606586 0.63129234
0.029267173 0.13223672 0.9661224 0.40180436 0.6829871 0.30477476 0.8710097 0.49525276
0.7288103 0.4259863 0.6878035 0.9370314 0.006848298 0.8255163 0.19729628 0.9609035
0.37512124 0.107946105 0.7528416 0.77968484 0.9545533 0.20437042 0.8376665 0.58386767
00000000: eba4 073f b4d8 133f 3140 3e3e eae8 383f
00000010: 1997 733f b351 193f a712 6d3f 609c 213f
00000020: b6c1 ef3c 1069 073e cc53 773f 4db9 cd3e
00000030: 3ed8 2e3f 700b 9c3e 7efa 5e3f c591 fd3e
00000040: 5093 3a3f e01a da3e e413 303f 4ae1 6f3f
00000050: b067 e03b 0955 533f 0908 4a3e c6fd 753f
00000060: e40f c03e d912 dd3d 3aba 403f 6d99 473f
00000070: 9b5d 743f 7b46 513e 5071 563f 5a78 153f

layer3.1.bias f4 [32]
0.0015592168 0.0018643553 0.0009950182 0.0013562279 -0.0019836272 0.00026733172 -0.0019992334 0.0018590366
-0.0012102323 0.0019879527 -0.001980647 -0.0017902588 -0.0019946378 0.001903726 0.0003675851 0.0006038549
0.0019587732 -0.0018732289 -0.0017427057 0.0019133899 -0.0018493864 -0.0019711417 -0.000938792 0.0019461826
0.0019506601 -0.0016845779 -0.00035449333 0.0019567842 0.001976213 -0.0019761173 -0.0017132163 -0.0018466973
00000000: a25e cc3a 625d f43a 456b 823a 75c3 b13a
00000010: beff 01bb a828 8c39 9205 03bb ebaa f33a
00000020: a8a0 9eba 5048 023b becd 01bb 1ea7 eaba
00000030: 78b8 02bb 7286 f93a 70b8 c039 044c 1e3a
00000040: c35e 003b 2287 f5ba 806b e4ba b6ca fa3a
00000050: 1c67 f2ba 452e 01bb 4419 76ba 0d17 ff3a
00000060: 4bad ff3a 0ecd dcba 4adb b9b9 643d 003b
00000070: 5a83 013b bf81 01bb 008e e0ba e10c f2ba

layer3.1.running_mean f4 [32]
0.05046936 -0.0047372845 0.033702314 0.07046375 0.023213694 -0.020474603 -0.026139088 0.0047889347
-0.01721568 -0.047463354 0.049322456 -0.019506937 -0.0102469055 -0.11725109 -0.07605618 0.00336743
0.028534379 -0.027499288 -0.015580889 0.05743578 -0.065512925 0.07259856 0.008358651 -0.0063303937
0.07170047 -0.02581461 -0.014040302 0.045251798 0.016989395 0.052150413 -0.087285005 0.083724454
00000000: f6b8 4e3d 393b 9bbb 700b 0a3d 4c4f 903d
00000010: a52a be3c 5bba a7bc a421 d6bc 7fec 9c3b
00000020: e607 8dbc ef68 42bd 5806 4a3d 03cd 9fbc
00000030: a3e2 27bc 5721 f0bd 58c3 9bbd 1ab0 5c3b
00000040: eec0 e93c 3046 e1bc fc46 7fbc c841 6b3d
00000050: a42b 86bd 8eae 943d b9f2 083c 316f cfbb
00000060: b2d7 923d 2979 d3bc 4b09 66bc f359 393d
00000070: 582d 8b3c ac9b 553d 7bc2 b2bd ba77 ab3d

layer3.1.running_var f4 [32]
0.82074547 0.83120507 0.81798 0.8208344 0.81921774 0.8195292 0.8171014 0.81968844
0.82120645 0.8200865 0.83199793 0.8199779 0.81620044 0.8364 0.82736343 0.8178795
0.8222388 0.8174379 0.8278226 0.8233374 0.81996274 0.82701474 0.8270524 0.821123
0.83119094 0.8186911 0.82425475 0.8239466 0.82558525 0.8189151 0.8250244 0.8203332
00000000: 601c 523f dbc9 543f 2367 513f 3422 523f
00000010: 41b8 513f aacc 513f 8f2d 513f 1ad7 513f
00000020: 963a 523f 30f1 513f d1fd 543f 12ea 513f
00000030: 83f2 503f 4f1e 563f 17ce 533f 8d60 513f
00000040: 3e7e 523f 9c43 513f 2fec 533f 3dc6 523f
00000050: 14e9 513f 3db7 533f b5b9 533f 1e35 523f
00000060: eec8 543f bd95 513f 5c02 533f 2aee 523f
00000070: 8e59 533f 6ca4 513f cd34 533f 5b01 523f
