5312327.b16e3.model (torch_old, 820387 bytes, 32 tensors)

layer1.0.weight f4 [128, 3, 3, 3]
000000 43 29 32 3e f0 5d f3 bd ed f2 1d be 10 dc 54 3d
       0.17398553 -0.118831515 -0.154247 0.05196768
000010 40 17 09 be 3f 32 93 bc a5 52 2b be cd 07 f6 3d
       -0.13387775 -0.017968295 -0.16730745 0.12013207
000020 f2 7b c4 3c 98 b0 2f 3c a7 c1 a7 bd d4 85 12 bc
       0.023984883 0.010723256 -0.08191233 -0.00894304
000030 81 35 3d 3e 63 82 a3 3d 88 81 e5 bd c9 62 9e bd
       0.18477441 0.07983854 -0.11206347 -0.077336855
000040 43 a2 07 be 78 e7 36 3e 70 13 be 3d e6 b1 27 bc
       -0.13245492 0.17861736 0.09281051 -0.010235285
000050 5b de 2b 3e 98 5d b0 bd 5d c6 1f 3d 03 2d e0 3d
       0.1678404 -0.086116016 0.039007533 0.10946085
000060 43 3d c4 bd 3a 09 4e bd 6f eb 2e be 84 a1 4f bd
       -0.09581997 -0.050301768 -0.17081998 -0.050691143
000070 12 17 12 be a7 b9 b6 3d 8a df 9d bd 8a 29 10 3e
       -0.14266613 0.08922129 -0.07708652 0.14078346
000080 cb ba 74 3d fd d9 45 3e 18 c7 33 bc 7e 7d 9a 3d
       0.059748452 0.19321437 -0.010972761 0.07543467
000090 66 8a fd 3d 06 85 c1 bd 25 eb bb bd a9 05 20 3e
       0.12379913 -0.094492 -0.0917571 0.15627159
0000a0 3a 7c 1c be 5a 75 85 3d 5c 5b 85 bc bf ae 80 3d
       -0.15281764 0.06516524 -0.016278915 0.0628333
0000b0 0b bc da bd c2 28 01 bc 65 43 32 3d 6c d1 81 bd
       -0.106803976 -0.007883253 0.043521304 -0.06338772
0000c0 89 d1 03 3e 4f c4 75 3d 7c dd 3e be 0a 1a bd 3b
       0.128729 0.060001668 -0.18639177 0.0057709264
0000d0 97 df ef 3d 44 af 0b be 5e 12 be bd 08 49 fb bb
       0.11712568 -0.13641077 -0.09280847 -0.007668618
0000e0 60 f6 84 bb aa 6f 59 3c be 4e 17 be 2f 1f f5 bd
       -0.0040576905 0.013271252 -0.14776132 -0.119688384
0000f0 e6 7f d7 3d 8c 2c cc 3d 54 52 5d 3d 16 cd 97 bd
       0.105224416 0.09969434 0.054033592 -0.07412164
000100 95 37 2b 3e 5d 4c 06 3e 72 48 9c bc de 02 09 be
       0.16720422 0.13115068 -0.019077513 -0.1338
000110 0a fa 0e be d8 40 29 be 9e d4 02 3e a6 c0 31 bd
       -0.1396257 -0.16528642 0.1277642 -0.043396614
000120 88 ab be bd 74 a7 e2 bd 7e 7b 97 bd 7e ff ce 3d
       -0.09310061 -0.110670954 -0.07396601 0.10107325
000130 e1 f4 74 bd 8e d7 b5 bb 1d d7 20 3e b8 80 0e be
       -0.059803847 -0.0055493778 0.15707059 -0.1391629
000140 f7 9b 04 be 42 51 e5 bd 25 2c 40 bd d3 31 b6 bd
       -0.12950121 -0.11197139 -0.0469171 -0.08896222
000150 56 f4 a7 3d 38 7d 46 3d 85 1d 00 be 69 13 10 3d
       0.082009 0.04845926 -0.12511261 0.03517476
000160 b9 96 23 be 93 4f 2a be b2 a3 1d 3d 93 4f 2b 3e
       -0.15975465 -0.16631918 0.03848619 0.16729574
000170 6f ae b0 bd 20 8e 39 be 07 5b 38 bd 56 c3 d2 3d
       -0.086270206 -0.18120623 -0.045008685 0.102911636
000180 33 6e 19 bd 2b 3a 43 3e 99 b7 23 be 6f d7 2d 3e
       -0.03745861 0.19065158 -0.15988006 0.16976713
000190 4d 85 38 3d 43 86 10 be b6 34 ff 3c 7e 73 ea bd
       0.045049 -0.14113717 0.031153064 -0.1144781
0001a0 a3 4b 08 be c7 26 0a 3e 52 57 05 3e 02 b5 c3 3c
       -0.13310103 0.13491355 0.13021591 0.023890022
0001b0 27 95 1c 3e 80 be 88 bd 37 bf 88 bd a5 34 09 be
       0.15291272 -0.0667696 -0.06677096 -0.13398989
0001c0 8b 82 26 3d eb b3 b1 bc 59 8b f8 3d 4d 73 8f bd
       0.04065184 -0.021692237 0.121359535 -0.07004414
0001d0 c0 b2 01 3d 39 bb 40 3d ce 96 20 be 00 2f a5 bc
       0.03166461 0.04705355 -0.15682527 -0.020164013
0001e0 8d c0 eb 3d 26 69 dc 3d e4 da 12 be 20 55 0c 3e
       0.115113355 0.10762243 -0.14341313 0.13704348
0001f0 65 24 bf 3d d2 b5 17 3e bd 59 27 3e a2 88 18 be
       0.093331136 0.14815453 0.16342826 -0.14895871
000200 e7 fa de 3d f8 17 1c be 77 97 3f 3e 2e c4 e3 3d
       0.108876996 -0.15243518 0.18710123 0.11121403
000210 80 68 16 3e 89 4a 89 3d 98 ec 33 be 66 43 02 be
       0.14688301 0.067036696 -0.17570722 -0.12721023
000220 92 4c 09 3e 8c 90 e4 3d 57 06 36 be b9 03 1a bc
       0.13408116 0.11160383 -0.17775856 -0.009400302
000230 f4 0d 1c be 53 1d be bc 08 fe 1e 3e 6f 52 2c 3e
       -0.15239698 -0.023207342 0.15526593 0.16828321
000240 02 5c 45 3e 3d 95 27 3a 51 6d 33 3e 57 a0 3c bb
       0.1927338 0.00063927827 0.1752217 -0.0028782093
000250 2a a2 8b bd 00 ab 20 3e 1e bc 95 bd 0f 30 af bc
       -0.0681804 0.15690231 -0.07311271 -0.02138522
000260 f9 a8 0f bc aa f1 e1 3d ec 88 9a bd b0 20 28 3e
       -0.008768314 0.11032422 -0.07545647 0.1641872
000270 e9 02 2e be 8e d6 2d 3e 11 ac d9 bc ac 04 42 be
       -0.16993298 0.16976377 -0.026571305 -0.18947095
000280 3f b9 b6 bd d8 ab a5 bd c1 50 1b 3e 69 36 20 be
       -0.08922052 -0.08089417 0.15167524 -0.15645756
000290 f2 fa 2f be ee 45 23 be 6f cc b8 bd d1 05 51 3d
       -0.17185572 -0.15944645 -0.090233676 0.051030938
0002a0 b2 35 c3 3c 0a 07 2e be c5 9d 2d 3e 07 bd 3e 3e
       0.023829315 -0.16994873 0.16954716 0.18626796
0002b0 45 df 9d 3d 8d 20 07 3d 3f 76 db 3d 96 e0 24 3e
       0.07708601 0.032990027 0.10715913 0.16101298
0002c0 6b 93 a6 bd 1a c7 98 3d be 2e 34 3d 55 0c 97 3d
       -0.081335865 0.074598506 0.04398989 0.07375399
0002d0 56 73 d1 bd e9 cb bc bb 20 26 a0 3d c7 a5 99 bc
       -0.10227077 -0.0057616127 0.07819772 -0.018755807
0002e0 06 c5 8f bd 62 7c b3 bc d0 47 b5 bd a9 0e 2a be
       -0.07020001 -0.021909896 -0.08851588 -0.16607155
0002f0 f6 85 a1 bd 1f c8 17 be 74 1c 50 3d 5e ac 2d bd
       -0.07886879 -0.14822434 0.050808385 -0.04240071
000300 65 ee c6 bd d3 a4 2b 3e 27 6e 1c bd 72 90 92 3d
       -0.09713439 0.16762094 -0.038190987 0.07156457
000310 37 fb 75 3d ea 1c 0c 3e 76 91 14 3d 92 b2 1c be
       0.06005403 0.13682905 0.036271535 -0.15302494
000320 93 c6 2e be 2c 9e 27 3c fa 8d 16 be 50 2f b4 3d
       -0.17067938 0.010230582 -0.14702597 0.08798087
000330 cb be 29 3b 86 1b 3a 3e 04 d9 8b bd d5 ab fc 3d
       0.0025901075 0.18174562 -0.06828502 0.12337462
000340 6a a9 a5 3c f0 a8 f8 bd 6c c7 de bd 6f 4a c8 bd
       0.020222384 -0.12141597 -0.108778805 -0.09779822
000350 d3 76 cd bd 5a d4 34 3e 22 55 87 bd 3d fe 4d bc
       -0.100324295 0.1765913 -0.06608035 -0.012572822
000360 15 c9 8b 3c c9 77 14 be 36 82 50 3d 10 2b 4b 3d
       0.017063657 -0.1449882 0.05090543 0.049601614
000370 9f db 10 3d 3d 2d 4a 3d ca 89 63 3d 42 08 1c 3e
       0.035365697 0.04935955 0.055551328 0.15237525
000380 a3 f0 00 be c4 bd 95 3d c5 d6 b1 3d 8e 4e b6 3d
       -0.12591796 0.073115855 0.08683542 0.08901702
000390 fd ce b1 bd 19 c4 04 bd 1e c5 3a be e3 bb 68 bc
       -0.08682058 -0.032413576 -0.18239257 -0.014204952
0003a0 b6 24 03 be ee 04 75 bd 47 13 f9 bd 6d b6 94 bd
       -0.12806973 -0.059819154 -0.1216188 -0.072613575
0003b0 12 dd 4a 3c bd e7 e9 bd cd 50 09 be cf 5e 30 be
       0.012381809 -0.11421154 -0.1340973 -0.17223667
0003c0 24 58 5c bd 9f a9 32 3e 7c bf bd bd 1f 91 98 3c
       -0.053794995 0.17447518 -0.09265038 0.018623887
0003d0 88 ed 84 3d db c6 94 bc 8e 25 1a 3d 63 1f 85 bd
       0.06490618 -0.018161228 0.03763347 -0.06500127
0003e0 79 b2 39 3e 99 b2 2e 3e e4 99 13 be 25 0a 1d be
       0.18134488 0.17060317 -0.14414173 -0.15335901
0003f0 57 df 3e be fc 3c 50 bc a0 87 04 3d 80 5c 39 3e
       -0.18639885 -0.012709852 0.032355905 0.18101692

layer1.0.bias f4 [128]
000000 99 1a 35 3d e3 63 42 3e 0c 24 59 bd a2 21 09 3e
       0.04421482 0.18983416 -0.053012893 0.13391736
000010 03 c3 3a 3e a5 cc e8 3d e8 6e 0e be bf 38 ea 3c
       0.18238454 0.11367158 -0.13909495 0.028591512
000020 f4 39 f3 bc 41 e4 ff bd 04 9e 31 be 26 4e 0b be
       -0.02969072 -0.12494708 -0.17345434 -0.1360403
000030 b8 a2 da bc 5a a9 e9 bc df 4a 4e bd 40 da 05 3e
       -0.026688918 -0.028523136 -0.05036437 0.13071537
000040 96 b8 f1 3c 7f 2b 94 3b e3 0b 2a 3e 4b dc b1 bd
       0.029506963 0.0045217867 0.16606097 -0.08684596
000050 e3 df 95 bd eb db 3e be f6 2b f2 bc b9 66 27 be
       -0.07318094 -0.1863858 -0.029561978 -0.1634778
000060 7b 2b eb bd ec 62 f7 3d 6c f1 da bd 4c d9 2e be
       -0.114829026 0.12079415 -0.10690579 -0.1707508
000070 6a 48 8e bd f7 dd 1f 3e 13 7e 1d 3e 93 b6 83 3c
       -0.06947406 0.15612017 0.15380125 0.01607827
000080 db 92 34 3e fa 3d d8 bc ec 44 0e be 61 7a 32 bb
       0.17634146 -0.02639674 -0.13893479 -0.0027233588
000090 39 be 19 be 95 84 1c 3e 43 57 3c be d0 fd f0 3d
       -0.1501397 0.15284951 -0.18392663 0.11767161
0000a0 e5 4f 24 3e 95 1d 88 bd 7b 1f 07 3e 70 37 3a 3e
       0.16046102 -0.06646267 0.13195603 0.1818521
0000b0 23 19 60 ba 1c b3 3e 3e 14 79 24 3e db 13 4b 3d
       -0.00085486675 0.18623012 0.16061813 0.049579483
0000c0 10 15 32 3c ed 34 16 3d 98 2e 03 3d 3a ad 94 3d
       0.0108692795 0.036671568 0.032026857 0.07259603
0000d0 03 f3 c5 bc b2 81 82 3d 8f ba 22 3e 13 75 14 3e
       -0.024163729 0.06372394 0.15891479 0.14497785
0000e0 43 c8 1f be 8a f8 bc bd 3e 68 0e be ce 09 63 bc
       -0.15603738 -0.092270926 -0.13906953 -0.013857318
0000f0 af 4d e1 bd 33 4a 2c 3e c7 f9 8e bd aa 85 00 3e
       -0.11001145 0.1682518 -0.06981235 0.12550989
000100 aa fd 26 be 20 7b 3a be 7f 18 b9 3d d3 59 d6 3d
       -0.16307703 -0.18211031 0.090378754 0.10466351
000110 85 1c a9 bd 20 2b 3f 3e 01 be 37 3e bd f2 24 3e
       -0.08257393 0.18668795 0.17943574 0.16108222
000120 18 4f 44 3e f9 ad e1 3d a3 cf 43 3d 2f 37 9c bd
       0.19170797 0.11019511 0.04780544 -0.07627713
000130 18 8e a4 3d 64 79 d9 bd 2b 2f 90 bd 67 ec c3 3d
       0.08034915 -0.106188565 -0.070402466 0.095665745
000140 68 78 fd 3d e2 b9 3b be b5 83 37 be 6e 67 0e 3e
       0.12376481 -0.18332627 -0.17921336 0.13906643
000150 a5 1c 91 3d d9 fa 2c 3d c8 21 63 ba ee 20 dc 3d
       0.07085542 0.042231414 -0.00086643966 0.10748468
000160 c2 6d 9a 3d f2 38 a5 3b 62 d0 04 bb 8d dd 90 3c
       0.07540466 0.005042189 -0.0020265807 0.017683769
000170 ef 0d 2a 3e ef 1b df bc 05 8d c5 3d ad 3e b3 bd
       0.16606878 -0.027235 0.09646038 -0.08752189
000180 2a 8b ad 3c 27 f8 60 bc 90 26 00 be b6 aa 1d be
       0.021184523 -0.013731039 -0.1251471 -0.15397152
000190 03 54 de 3d aa 1a 49 3c d7 c3 3d bd 47 8e 3c be
       0.10855868 0.012274424 -0.046329346 -0.1841365
0001a0 86 95 16 3e 79 c6 44 be d6 54 63 3d 14 d0 e8 bd
       0.14705476 -0.19216336 0.055500828 -0.11367813
0001b0 ab be 08 be e9 6a 06 be 58 40 43 3e e2 4b c7 3d
       -0.13353984 -0.1312672 0.19067514 0.097312704
0001c0 0d 26 0f 3c 4c e9 b8 bd 48 3f cc 3c 2f e2 df 3d
       0.008737099 -0.09028873 0.024932519 0.10931813
0001d0 0d 4b 46 3d 8b bb b6 bd 36 24 c0 bd 05 c0 41 3e
       0.048411418 -0.0892249 -0.09381907 0.18920906
0001e0 88 76 35 be 46 f8 af 3d 84 3a c2 bd 41 7c 5e 3d
       -0.17720997 0.08592276 -0.09483817 0.054317717
0001f0 e7 d6 3a bd 2d 51 02 bd 28 c7 ee 3d 50 db 34 bd
       -0.045615103 -0.031815697 0.1165908 -0.044154465

layer1.1.weight f4 [128]
000000 e3 bb 80 3e e1 c0 02 3f 99 80 d9 3e 66 8e 64 3f
       0.25143346 0.5107556 0.42480925 0.8927978
000010 48 dc 79 3c c8 6e d7 3e 85 e7 59 3d 33 c5 c0 3e
       0.015250273 0.42076707 0.05319931 0.3765045
000020 cc 61 37 3f a3 00 66 3f 3a 5d 7e 3f ee cd 42 3f
       0.716336 0.8984472 0.99361 0.76095474
000030 65 c5 49 3e 7e bd 20 3f 1a a5 a3 3d 89 0a 54 3f
       0.19704206 0.6278914 0.07990475 0.82828575
000040 6c 31 71 3f e0 bb 1b 3e 10 2e c9 3e a4 09 a3 3e
       0.94216037 0.15208387 0.39292955 0.31843293
000050 8f 12 4b 3f 7d 66 64 3f c7 52 7b 3f 64 9b 42 3e
       0.79325193 0.89218885 0.98173183 0.1900459
000060 79 0a e2 3e d8 f7 0a 3f 38 21 5f 3f b9 e4 ec 3e
       0.44148615 0.5428443 0.8716006 0.46268252
000070 0a 32 0c 3f 7d bd 03 3e 3d 10 14 3f 89 bc 18 3f
       0.54763854 0.12865253 0.5783728 0.5966268
000080 a9 f9 13 3f 23 6b d4 3e 74 3b 19 3f 6a a3 0a 3e
       0.57802826 0.4148799 0.59856343 0.135389
000090 1a 0a 43 3f 95 cb b2 3e c6 67 11 3c b1 30 2c 3f
       0.7618729 0.34920946 0.008874839 0.672618
0000a0 c6 51 87 3e ba ba 65 3f f5 65 7e 3e 0f 22 69 3f
       0.26429576 0.8973805 0.24843581 0.91067594
0000b0 ad 55 0b 3f c9 ae 8a 3e 14 f7 1c 3f fd d5 30 3f
       0.54427606 0.27086475 0.6131451 0.6907652
0000c0 56 ce 7b 3d 5d 64 75 3f b1 10 16 3e 18 83 fb 3e
       0.061476074 0.9585627 0.14654805 0.49123454
0000d0 d1 35 40 3f 10 c2 45 3f 22 15 44 3f 20 45 4d 3d
       0.7508212 0.7724924 0.76594746 0.05011475
0000e0 61 86 81 3e e1 b0 87 3e 02 1e c9 3e 6a 83 3b 3f
       0.25297835 0.26502135 0.39280707 0.73247397
0000f0 dc a3 f1 3e 2c a3 2c 3f b7 dc c1 3e 9c 93 b9 3e
       0.47195327 0.6743648 0.37863705 0.3624543
000100 23 c2 63 3f 43 29 f3 3d e7 ab e9 3c 65 f6 55 3f
       0.88968104 0.118731044 0.028524352 0.83579093
000110 79 ee 30 3f 9b e3 17 3e b2 fc 8e 3e 88 8f 12 3d
       0.6911388 0.14832918 0.27927166 0.035781413
000120 1d 24 6d 3f 63 d5 26 3f 81 2a 47 3f db c4 7e 3f
       0.9263323 0.6516935 0.7779923 0.9951913
000130 2c 73 05 3f ba dc 1d 3f 45 a0 4e 3f e9 38 25 3f
       0.52128863 0.61664927 0.807133 0.64539963
000140 a6 3c 16 3f bf 48 ba 3e 24 df 7f 3e 80 9b 42 3e
       0.5868629 0.36383626 0.24987465 0.19004631
000150 a2 c5 17 3f fd fa f3 3c e2 e0 7d 3f 3c c5 28 3f
       0.5928594 0.029782766 0.9917127 0.65925956
000160 02 5d 1f 3f a6 19 ad 3e 05 b3 5e 3f e4 16 1d 3f
       0.62251294 0.3380863 0.8699191 0.61363053
000170 8a 94 d6 3e 8b 8c 5e 3d 8a 9d 25 3f 0d 8c 72 3e
       0.419102 0.05433325 0.6469351 0.23686238
000180 ff ac 6a 3f ea 6b 16 3f df d3 58 3f e5 35 3f 3d
       0.9167022 0.58758414 0.8469829 0.046682257
000190 5a 46 34 3f fb 30 76 3f 31 36 0c 3f d1 a9 72 3e
       0.7041985 0.9616849 0.5477019 0.23697592
0001a0 9b 52 56 3f c0 1b 0d 3f 30 69 6b 3f e2 81 04 3f
       0.83719796 0.5512047 0.9195738 0.51760685
0001b0 64 eb 1b 3f 74 0f 43 3f 20 35 01 3d fc ee 5d 3f
       0.6090605 0.76195455 0.031544805 0.86692786
0001c0 32 1a 3c 3c ef e4 6f 3d ae 07 e6 3e ed b8 2c 3f
       0.011480855 0.058567937 0.44927734 0.67469674
0001d0 77 29 17 3f 2c 4f 6b 3f b9 29 9d 3e dd 5b 2d 3f
       0.59047645 0.9191768 0.30695894 0.677183
0001e0 48 23 ad 3e 88 dd a0 3e 70 8d ca 3e 59 6b 23 3f
       0.3381598 0.31419015 0.39561033 0.63835675
0001f0 fe 03 51 3f c0 06 d7 3e 4d 3e 5c 3f 1c aa 6c 3f
       0.81646717 0.41997337 0.86032563 0.92447066

layer1.1.bias f4 [128]
000000 75 d1 09 ba 50 53 ca 3a 1c c7 db ba e2 ff b8 3a
       -0.0005257347 0.0015436206 -0.0016767713 0.0014114345
000010 7c b5 09 3b 12 9d 41 bb d2 88 d4 3a 2a 53 03 3a
       0.0021012714 -0.0029543084 0.0016215092 0.0005009646
000020 82 4d c7 3a b6 f2 1d 3b 7a 49 a1 ba 02 de d0 3a
       0.0015205594 0.0024100966 -0.0012305223 0.0015935304
000030 6e 59 b7 3a 49 79 22 ba 94 d4 ee ba c4 bc 3a 3b
       0.0013988444 -0.00061978825 -0.0018221312 0.002849386
000040 08 8d fb b8 da d7 d5 ba a3 9d 82 ba f4 1b 28 ba
       -0.00011994882 -0.0016314939 -0.0009965192 -0.0006412857
000050 01 86 f4 3a 40 55 46 ba de f8 ff b9 f2 26 c6 ba
       0.0018655659 -0.0007565804 -0.0004882281 -0.0015117808
000060 36 28 fd ba c4 a0 43 bb a6 26 f4 3a 00 5c a6 3a
       -0.0019314352 -0.0029850462 0.0018627241 0.0012692213
000070 d7 85 fe ba 15 02 17 bb fc e0 36 bb ff 5b 10 bb
       -0.001941855 -0.0023042012 -0.0027905097 -0.002202749
000080 19 71 4c 3a 97 e0 03 bb 79 10 2f bb ac 79 12 3b
       0.0007798835 -0.002012288 -0.00267127 0.0022350354
000090 2c af 63 3a 84 ea 27 3b b7 65 2e bb 23 9e d7 ba
       0.00086854654 0.002562196 -0.002661092 -0.0016450327
0000a0 ae f2 ef 3a c2 26 22 3b b6 d2 c3 3a 44 69 ac b9
       0.0018306577 0.002474234 0.0014940116 -0.00032884825
0000b0 b4 44 11 bb 4b dc da ba 8b 23 2b 3b 63 73 40 3b
       -0.0022166194 -0.0016697732 0.0026113715 0.002936565
0000c0 6d 7c 01 bb 57 55 15 bb 2c 02 20 bb 03 6f 19 bb
       -0.0019758001 -0.0022786462 -0.0024415357 -0.0023412115
0000d0 c8 9d 1a b9 d4 a3 95 ba 76 bd e0 ba 60 f5 0a 3b
       -0.00014745363 -0.0011416622 -0.0017146308 0.0021203384
0000e0 2a 8a 15 bb 7c c1 f5 ba 7c 4a 06 39 32 64 d0 3a
       -0.0022817948 -0.001874968 0.00012806983 0.0015899001
0000f0 ab fe 42 ba e6 1f d1 ba 91 01 98 3a 1e 43 13 3b
       -0.0007438461 -0.0015954941 0.0011597147 0.0022470425
000100 95 a9 3b 3a a0 25 33 bb c1 8e d0 3a 9d 90 97 ba
       0.00071587536 -0.0027335659 0.0015911685 -0.0011563484
000110 80 d9 f7 ba 90 f8 60 b8 48 aa 08 3b b9 72 3c bb
       -0.0018909425 -5.3637254e-05 0.0020853449 -0.0028754903
000120 cc da df 3a f2 97 b7 39 55 c1 67 3a 3e d8 bc 3a
       0.0017078756 0.00035017688 0.00088407594 0.0014407707
000130 28 87 85 3a df fb 18 3b bb 05 85 3a 9c a5 f0 3a
       0.0010187374 0.0023343486 0.0010148803 0.0018359902
000140 b5 fa 0b 3b d3 dc e0 3a 89 10 09 3b f9 3d e4 3a
       0.002135915 0.0017155654 0.0020914397 0.0017413489
000150 dd 1e db 3a 9c 9b c0 ba fe 23 a3 b9 43 02 db 3a
       0.0016717572 -0.0014694813 -0.000311166 0.0016709048
000160 c7 1d 38 3b ef b4 29 3b e8 fc 4d b9 95 c8 21 3b
       0.002809392 0.0025895198 -0.00019644538 0.0024686207
000170 75 f1 0e ba ad 4d dd ba 56 99 64 ba 58 2f 1b bb
       -0.000545285 -0.0016884111 -0.00087203586 -0.0023679342
000180 bb b8 be ba 6b b9 a2 ba 30 67 60 b9 00 66 8f 3a
       -0.0014550904 -0.0012414878 -0.00021400745 0.0010940433
000190 fa 9f f9 ba dc e6 8a 3a e6 59 37 bb 90 aa df ba
       -0.0019044869 0.0010597366 -0.0027977168 -0.0017064381
0001a0 e7 8c c1 3a f6 b0 1d bb 45 93 83 3a 0a 69 c5 ba
       0.0014766724 -0.0024061776 0.0010038397 -0.0015061211
0001b0 58 33 8c 3a f0 f7 31 3b 53 41 08 3b a5 12 ed 3a
       0.0010696454 0.002715584 0.002079089 0.0018087222
0001c0 1e a5 8c 3a 97 0f d4 3a 96 43 0f 3b b5 2b 20 3b
       0.0010730361 0.0016178963 0.0021860353 0.0024440114
0001d0 1b 37 de 3a e8 fe 15 3b f7 f9 2f bb 20 df 30 3b
       0.0016953679 0.0022887532 -0.0026851872 0.0026988462
0001e0 43 15 1a 3a 33 79 f0 3a f8 3d f3 ba 6e 36 38 3b
       0.0005877802 0.0018346667 -0.0018557897 0.0028108614
0001f0 ab 04 3d 39 e1 8c 18 bb fd 31 2e bb 33 25 ec 3a
       0.00018026184 -0.002327733 -0.0026580088 0.0018016457

layer1.1.running_mean f4 [128]
000000 76 2e 1d c1 a4 cc fb 40 82 5b dc c1 2e 9c a9 c1
       -9.823843 7.8687305 -27.544682 -21.20126
000010 2b 9b e3 41 71 93 28 41 33 d2 a3 c0 f2 e3 0c c1
       28.450766 10.535996 -5.119409 -8.805651
000020 4f fd dc c1 9d 92 93 41 3f 20 7b c1 95 a2 06 c2
       -27.623686 18.446589 -15.695373 -33.65877
000030 70 b5 be c1 40 fb 43 40 80 d6 ea 41 82 9f d3 c0
       -23.838593 3.06221 29.354736 -6.613221
000040 ee e4 d4 40 12 ef bf 40 1a 7b 11 c2 f4 ce 33 c2
       6.6529455 5.9979334 -36.370216 -44.952103
000050 bd 87 ad c1 d1 4c 33 c1 ff 21 35 42 76 c9 e6 41
       -21.691278 -11.206254 45.2832 28.84837
000060 3a 6b 8a 41 47 c7 49 42 32 2f d5 41 7c c9 44 c0
       17.302357 50.444607 26.648045 -3.0747976
000070 fb ab 6d c2 61 c0 87 41 0c 99 85 c0 c8 91 83 41
       -59.41795 16.968935 -4.1749325 16.446182
000080 69 3d 82 40 67 79 91 41 90 02 22 3e 29 00 3d c2
       4.0699964 18.184278 0.1582129 -47.250156
000090 b0 16 24 c2 f2 1e 99 40 27 42 e5 41 b4 6b 53 c2
       -41.022156 4.7850275 28.6573 -52.85518
0000a0 96 11 86 42 de e1 4f 41 93 7b 51 41 a0 2f f3 41
       67.03435 12.992643 13.0926695 30.398254
0000b0 3c 45 9c c1 96 d7 55 c2 82 bb 23 c0 48 4e 71 c1
       -19.533806 -53.460533 -2.5583196 -15.081612
0000c0 ef 5d 0a 41 f9 df 9c 41 33 eb 4f c2 0c 48 8a 42
       8.647933 19.609362 -51.979687 69.14072
0000d0 7b 88 1c c1 4a 34 f7 c0 6d 13 81 c1 0d 84 2a c1
       -9.78332 -7.725133 -16.134485 -10.657239
0000e0 ee e0 18 42 44 38 91 3f 13 26 8e 40 c6 da f6 c0
       38.219658 1.1345296 4.4421477 -7.7142057
0000f0 2b 85 2c c1 bd 16 e2 c1 eb 5f 49 41 72 7b 29 42
       -10.782512 -28.261103 12.585917 42.370552
000100 cb c3 9a 41 09 d3 90 3f b2 9d d6 c1 37 c3 8f c0
       19.345602 1.1314403 -26.827 -4.49258
000110 8d 29 3e 41 08 d3 7e 3f 9e aa 28 41 e0 ed 73 c1
       11.885144 0.9954076 10.541655 -15.245575
000120 07 4f e5 c0 47 6a 4c 41 8d 49 2b 40 ae 91 0a c1
       -7.165897 12.775947 2.6763642 -8.660566
000130 5b 90 56 c1 c4 f6 2c c1 6a 7f 72 41 41 6b a8 41
       -13.410243 -10.8102455 15.156107 21.05237
000140 1e dc 77 40 e9 d3 03 42 5a 15 d3 41 b4 35 73 40
       3.87281 32.956944 26.385426 3.8001528
000150 52 19 cd 41 8a 03 07 42 bf 35 89 41 ee 9f db 40
       25.637363 33.753456 17.151243 6.8632727
000160 10 e2 65 c2 5f a5 82 41 ff 97 cd c1 32 5f e6 3e
       -57.470764 16.330748 -25.699217 0.44994503
000170 74 6d 5a c1 52 d3 4a 41 39 27 37 c1 9a 02 31 c2
       -13.651722 12.676592 -11.447076 -44.25254
000180 d6 fd 8b c1 7f 1d 0a 40 36 37 8a c1 f3 9d b7 c1
       -17.498943 2.1580503 -17.276958 -22.952124
000190 52 86 95 41 dc d3 af 41 a0 cb 8e c1 30 44 36 41
       18.690586 21.978447 -17.849426 11.391647
0001a0 da 98 cb 41 bf 8f 5f 42 f8 ef b6 41 ac 95 c8 41
       25.449635 55.890377 22.867172 25.073082
0001b0 d9 e4 bb c1 6a 4d 96 41 18 24 2b c2 b6 86 8c c1
       -23.486742 18.7878 -42.785248 -17.565777
0001c0 4f 62 1d c1 83 fa 0f 42 ca 1d 21 42 6a 23 82 41
       -9.836501 35.99464 40.27909 16.267292
0001d0 62 fb d3 c1 5c bc 15 c2 28 37 80 40 46 95 8d c0
       -26.497746 -37.433945 4.006733 -4.424472
0001e0 19 59 39 c1 aa 97 f0 41 c6 10 a5 42 1f df 81 41
       -11.584252 30.074055 82.53276 16.233946
0001f0 95 95 d4 41 6e 77 21 42 82 1e 20 c1 b3 9e cd c1
       26.573038 40.36663 -10.007448 -25.70249

layer1.1.running_var f4 [128]
000000 36 04 1e 43 b0 99 14 43 60 d5 36 44 e2 32 de 43
       158.01645 148.60034 731.334 444.39752
000010 45 5e 55 44 85 6b ad 43 e3 26 d0 42 76 bc 83 43
       853.47296 346.84 104.07595 263.47235
000020 cf 55 55 44 ad cd c8 43 16 53 87 43 10 2c 8f 44
       853.34076 401.60684 270.6491 1145.377
000030 32 87 0e 44 fa c2 17 43 1e 63 61 44 c6 94 6d 43
       570.1124 151.76163 901.5487 237.58115
000040 09 6e 2a 43 a1 e2 5e 43 30 30 a1 44 2a 55 cf 44
       170.42982 222.88527 1289.5059 1658.6614
000050 79 f2 42 44 da 09 9d 43 f4 75 d0 44 75 3e 69 44
       779.78864 314.07697 1667.686 932.9759
000060 33 c5 da 43 c2 a4 0c 45 b0 41 35 44 4f 96 22 43
       437.54062 2250.2974 725.02637 162.58714
000070 51 d5 3f 45 fd 31 e1 43 24 9e 6a 43 d0 01 95 43
       3069.3323 450.39053 234.61774 298.01416
000080 5c 5b 9e 42 5c 74 f3 43 aa 9a e3 43 6e 75 e4 44
       79.17844 486.90906 455.2083 1827.6697
000090 fa 58 d0 44 1a 4d 5a 43 69 c6 75 44 1a 29 12 45
       1666.7805 218.30118 983.10016 2338.5688
0000a0 68 f9 79 45 72 81 ce 43 c3 00 e0 43 16 eb 50 44
       3999.588 413.0113 448.00595 835.6732
0000b0 e5 0f 93 43 c1 b7 11 45 1a 43 fe 42 1d 43 ed 43
       294.12418 2331.4846 127.13106 474.52432
0000c0 1d 57 88 43 ca 37 a5 43 38 2d 08 45 10 d7 56 45
       272.68057 330.43585 2178.8262 3437.4414
0000d0 90 43 45 43 37 a2 46 43 a7 67 f4 43 33 29 9e 43
       197.26392 198.63365 488.80978 316.32187
0000e0 75 c7 b3 44 7b 8e 23 43 fa da 03 43 7b 65 cf 42
       1438.233 163.55656 131.85538 103.698204
0000f0 5e 98 a9 43 8f 05 42 44 7d ac 19 43 f8 d9 d2 44
       339.19037 776.08685 153.67378 1686.8115
000100 7d c4 e3 43 6b 6b 40 43 01 36 38 44 16 45 8d 42
       455.53506 192.4196 736.8438 70.63493
000110 6d 0f 86 43 54 4b d3 42 b9 74 13 43 37 60 ae 43
       268.1205 105.647125 147.45595 348.75168
000120 6a d1 7f 43 86 15 97 43 a5 39 b7 42 c9 07 73 43
       255.81802 302.16815 91.61259 243.03041
000130 52 3a 7e 43 3e 5b 62 43 78 55 59 43 31 ad 05 44
       254.22781 226.35641 217.33386 534.7061
000140 7d a4 48 43 e8 e0 82 44 01 cf 19 44 a9 21 15 43
       200.64253 1047.0283 615.23444 149.13148
000150 e7 70 0e 44 6c 9c 60 44 c2 cd a5 43 cf ec 2c 43
       569.7641 898.4441 331.60748 172.92503
000160 64 ae 44 45 b4 07 bc 43 cc 2c 12 44 ff 0b 6b 43
       3146.8994 376.06018 584.69995 235.04686
000170 4c 53 55 43 bd 86 66 43 0c 5f 43 43 33 2b dc 44
       213.32538 230.52632 195.37128 1761.35
000180 68 2a 92 43 1e e8 4b 43 71 ef 05 44 93 83 e3 43
       292.3313 203.90671 535.7413 455.02792
000190 db b6 e4 43 3c c9 2b 44 c6 a6 96 43 39 bf 67 43
       457.42856 687.1443 301.30292 231.74696
0001a0 5d ff 3e 44 c3 d9 18 45 c3 8d 28 44 ec 63 07 44
       763.99005 2445.61 674.215 541.5613
0001b0 27 49 dc 43 ac ec d2 43 32 02 d4 44 cb 51 a4 43
       440.5715 421.849 1696.0686 328.639
0001c0 c3 dd 25 43 ad a8 7e 44 34 4f bc 44 4c ee 9a 43
       165.86626 1018.63556 1506.4751 309.8617
0001d0 ed 16 23 44 13 29 8e 44 49 81 b9 42 32 57 e6 42
       652.3582 1137.2836 92.75251 115.1703
0001e0 82 a0 bb 43 7b 13 63 44 19 03 a8 45 68 10 84 43
       375.25397 908.3044 5376.387 264.12817
0001f0 22 a8 eb 43 b1 ee 98 44 52 f4 02 43 1f 03 1c 44
       471.31354 1223.4591 130.95438 624.04877

layer2.0.weight f4 [64, 128, 3, 3]
000000 73 3a 99 bb 5c 48 08 3c 81 5e 02 bd 67 cb bd bc
       -0.004676157 0.008318033 -0.031828407 -0.023168279
000010 ff 2b 89 bc aa 35 be 3c dd 0d 38 bc 23 04 a8 3c
       -0.016744612 0.023218948 -0.011233774 0.020509785
000020 82 a3 b5 bc 32 de df bc da ca f2 3b b3 9d bb bc
       -0.022172693 -0.02732763 0.0074094357 -0.022902345
000030 3d a1 a4 bc 27 5d 8e 3c c3 86 fc bb d7 62 53 bc
       -0.020096416 0.017378403 -0.0077064945 -0.012901983
000040 74 8d 77 3b e3 86 a1 3c 4a 2e f5 bc e1 6c 46 bc
       0.0037773522 0.01971764 -0.029929299 -0.01211092
000050 c4 c8 a6 bc 64 eb 8e ba e8 36 a0 bc f8 da 85 3c
       -0.020359404 -0.0010903892 -0.019557431 0.016339764
000060 f6 1e 23 bc 64 6d 50 39 aa 6f 97 bc 40 07 04 bc
       -0.009956112 0.00019877177 -0.018485863 -0.008058369
000070 12 a2 c3 3c 09 ec 82 bc 53 de a8 3c cd 57 f0 bc
       0.023880992 -0.015981691 0.020613825 -0.029338742
000080 d2 fc c4 bb 59 96 e6 bc 4a 48 a9 bc 69 4c 37 bc
       -0.006011584 -0.028147863 -0.020664353 -0.011187651
000090 42 7c db 3c ee d4 30 bc bf d8 84 bc 92 e2 d9 bc
       0.02679265 -0.010792954 -0.016216634 -0.026597295
0000a0 b9 89 c2 3c cb 1b 3b bb c8 38 d9 bc c3 6d 24 bc
       0.023747312 -0.0028550501 -0.026516333 -0.010035935
0000b0 1a 17 8d 3c 34 7f 74 3c 66 9d 81 3c e4 c8 bd 3c
       0.01722293 0.014922906 0.015822124 0.023167081
0000c0 92 49 48 3c 39 f8 b8 bc 69 34 30 bc 5a 63 88 3c
       0.012224572 -0.0225793 -0.010754683 0.016648937
0000d0 27 d0 48 3c d4 3c 7a bc 4f cd b2 3c e3 e7 c2 3b
       0.012256659 -0.015273292 0.021826414 0.005948053
0000e0 b1 31 d0 3c a3 c7 a4 3b 49 2e 2d 3c db d2 5c 3a
       0.02541432 0.0050286814 0.010570117 0.0008423754
0000f0 cc 3a 53 bc 90 c4 f3 bc 88 6f af bb 13 eb 91 bc
       -0.012892436 -0.029756814 -0.0053538717 -0.017812287
000100 f0 43 58 bc a7 72 67 3c 90 9b e7 bc 11 88 01 bc
       -0.013199791 0.014126456 -0.02827242 -0.007905976
000110 57 26 89 3c 4a fe f4 bc 62 ad b8 3c 99 f7 8f bc
       0.016741915 -0.02990641 0.022543613 -0.017574118
000120 02 21 be b8 52 b4 f3 bc 2a 5c 03 bc 97 1e 22 bc
       -9.066054e-05 -0.02974907 -0.008017579 -0.0098949885
000130 72 45 b8 3c 62 e3 c8 3c b6 ac c6 3c 68 91 8a ba
       0.022494052 0.024522487 0.024252277 -0.0010571899
000140 26 51 2d bc d0 25 99 bc 19 3c e5 3c 78 7f ce bc
       -0.010578429 -0.018694788 0.027982758 -0.025207266
000150 a4 c2 42 bc ba 6c 2a bb 9b 16 47 3c 97 eb 9e bc
       -0.011887226 -0.0026004747 0.012151386 -0.019399447
000160 8d 9b b6 3c c2 f9 3c bc 96 30 1d 3c 43 d0 a0 bc
       0.02229097 -0.011534156 0.009594103 -0.019630557
000170 f3 d4 69 bc 1a fa 9c bc cc 54 de bc 20 02 a7 bc
       -0.014271962 -0.019162226 -0.027140044 -0.020386755
000180 47 11 c2 3c 69 f0 2b bc 3d 6c f2 bc f1 5c ff 3b
       0.02368988 -0.01049433 -0.029592628 0.007793062
000190 ca 4b 77 bc f0 fd 12 bc 26 87 de bc 35 9f 8b 3c
       -0.015093753 -0.008971676 -0.027164053 0.01704369
0001a0 bd af f7 3b 6c a0 f4 bc 7b 90 b6 3c 48 41 8b 3c
       0.0075587914 -0.029861651 0.02228569 0.016998902
0001b0 ef 00 10 bc 3a 9b 00 bd cd 3a c8 bc bc bc e2 bc
       -0.008789285 -0.031398036 -0.0244421 -0.027677886
0001c0 50 9a ff bc ac 26 ea bc 50 db b2 3c ec 49 f5 3b
       -0.031201512 -0.028582893 0.021833092 0.007485619
0001d0 fe 7f b2 3c 91 fd d9 3c 1e 00 58 3c da b1 03 b9
       0.021789547 0.026610168 0.013183622 -0.00012559388
0001e0 d0 cd c2 ba 76 1e 46 bc 6a 41 fb bc b9 20 20 bc
       -0.0014862362 -0.012092223 -0.03067084 -0.009773427
0001f0 c9 0e b9 bc b1 7d 2d bc c2 56 4b 3c 92 7d fe bb
       -0.022590058 -0.010589049 0.012410821 -0.007766434
000200 65 84 c3 bc 61 5a 91 3c ce 1e d3 3c d8 d2 c3 bc
       -0.023866842 0.017743291 0.025771525 -0.02390425
000210 08 4a 20 3c 5e 69 3e bc e4 18 1f bc 46 ce f2 bb
       0.009783275 -0.011621801 -0.009710524 -0.0074098436
000220 f2 0e be bc a7 a6 93 bc e5 d1 dc bc 8d 17 51 bc
       -0.023200486 -0.018023802 -0.026955554 -0.012761963
000230 a9 c7 75 3c e1 f1 8f bc 20 7a 7e 3c 1f 6f c2 bb
       0.015001216 -0.017571392 0.015532047 -0.005933657
000240 db e6 54 bc 1e c8 78 bc 4d 8d 7e bc 6f d0 2c bb
       -0.012994493 -0.01518443 -0.015536618 -0.0026369353
000250 7d ea 19 bc fc 93 aa bc 84 01 c1 3b 2f 00 e4 bb
       -0.009394285 -0.020822518 0.0058900733 -0.0069580297
000260 13 61 05 bc 4f 40 2e 3c 9c 08 bd 3c be 90 bc bc
       -0.00814082 0.01063545 0.023075394 -0.023018237
000270 b7 78 cf bc 4e ab fa bc 84 d3 cd 3b 6c eb 74 bc
       -0.025326116 -0.030599263 0.006281318 -0.014948707
000280 bc 0f 2c bc d1 27 bd bb 27 d5 7f bb 59 7e f8 bc
       -0.010501798 -0.0057725688 -0.003903696 -0.030333685
000290 16 d9 8e 3c 1a 05 dd 3c 1b 65 91 3c 22 f4 c0 3c
       0.017437499 0.026979972 0.017748406 0.023553912
0002a0 49 c5 8f bc f5 31 c5 bb 6f 18 a9 3c ec 1f 54 3c
       -0.017550128 -0.006017918 0.020641534 0.012947064
0002b0 ef 57 dc 3c da bb 90 bc b0 92 4a bc aa d3 f4 bc
       0.026897399 -0.0176677 -0.012364075 -0.029886086
0002c0 78 b2 fb bc 32 1b b3 bb d0 e4 a9 bc 0c 46 d8 3b
       -0.030724749 -0.0054658884 -0.02073899 0.006600147
0002d0 b2 31 7a bc 61 c9 95 3c 77 bf 1c bc 93 fa fc ba
       -0.015270637 0.018284502 -0.009567133 -0.0019300751
0002e0 ef 22 4b bb 26 3a 8e 3b e5 bd c0 bb 10 81 88 37
       -0.0030996164 0.004340428 -0.005882012 1.6272563e-05
0002f0 e2 e5 02 3c f8 69 cf bc 8b 3a 49 bc 6a d1 8d 3c
       0.007989379 -0.025319085 -0.012282024 0.01731177
000300 58 76 ab bc c0 5c 79 bc 6e 52 10 bc 78 eb 11 bc
       -0.020930454 -0.015219867 -0.008808715 -0.008906238
000310 6d e4 de bc 67 ee 63 bc 37 52 34 3c b9 b0 25 bc
       -0.027208531 -0.01391182 0.01100593 -0.010112935
000320 c4 91 31 3b 4c 63 98 bc 47 dc fe 3c 88 e9 0e bc
       0.002709494 -0.018602036 0.031110896 -0.00872267
000330 75 6e 9f 3c 4e 46 c2 3c 65 cc 2a bc 92 5c 88 3c
       0.01946185 0.023715165 -0.010424708 0.016645703
000340 85 fc a5 bc e1 28 f8 3c 6d f0 44 3a d7 fa 04 3c
       -0.020262012 0.03029293 0.0007512633 0.0081164455
000350 c9 13 99 3c b8 eb c5 3c 70 8a 22 bc dc 82 83 bc
       0.018686192 0.024160251 -0.009920701 -0.01605361
000360 b6 ee 02 3c 1e 20 b3 ba 33 cb d1 bc 34 cd 96 bc
       0.007991483 -0.0013666188 -0.025609588 -0.018408395
000370 c0 e5 c1 3c 41 10 ac 3c 33 e5 25 3b be b2 7e bc
       0.023669124 0.021003844 0.0025313615 -0.015545545
000380 0c 38 d9 bb 6d b2 77 bc 70 a4 11 bb a0 27 ce 3c
       -0.0066289958 -0.015118224 -0.0022223257 0.025165379
000390 78 63 51 bb 92 44 d9 bc d1 39 9a 3c c8 09 f5 3b
       -0.0031950157 -0.026521955 0.018826397 0.0074779727
0003a0 f2 cc 96 3c 78 41 f4 bb 3a f9 52 3c a2 8f 8f bb
       0.018408272 -0.0074540935 0.012876803 -0.004381136
0003b0 a6 63 46 bb 10 65 1c 3b 4a 36 f0 3c 04 68 ae bc
       -0.0030271797 0.002386395 0.029322762 -0.021289833
0003c0 0d 2b e5 3b a1 d5 b1 3c 1c f6 be bc 3a c5 15 bc
       0.0069936574 0.021708312 -0.023310713 -0.009141261
0003d0 9a 28 b4 bc e5 ce 1b bb 70 ad ae 3c 53 9f 85 bc
       -0.021992017 -0.0023774442 0.021322936 -0.016311323
0003e0 68 d9 a3 3b 7b 96 c0 3c b5 cd a1 3b 7d 5f db 3b
       0.005000282 0.023509255 0.0049378523 0.0066947327
0003f0 88 f6 ad bc f8 85 ab ba ed 38 de bc e7 7c 48 bc
       -0.02123572 -0.001308619 -0.027126754 -0.01223681

layer2.0.bias f4 [64]
000000 6b 70 80 bc bf 1c dc 3b 29 41 a3 bc be c0 9c bb
       -0.015678605 0.006717294 -0.019928532 -0.004783719
000010 82 d0 ff 3b 8c 63 db bc 01 7d 9a 3c 06 af ec 3c
       0.0078068385 -0.026780866 0.018858435 0.028892051
000020 e7 a7 8d bc 3f 81 e2 3c 6b 93 1d bc 99 c1 e7 3c
       -0.017291976 0.02764952 -0.009617667 0.028290557
000030 c7 d1 cc bc d8 7d 75 3c f2 fc 35 bc 3d 5a 96 bc
       -0.025002373 0.014983617 -0.01110767 -0.018353576
000040 d2 19 92 3c ed 31 1e 3c bf 10 06 3c 3b f5 11 3b
       0.017834578 0.009655458 0.0081827035 0.0022271413
000050 70 a3 a6 3c 69 c6 3f bc 05 ee c7 b9 93 32 8f 3c
       0.020341605 -0.0117050195 -0.00038133576 0.01748017
000060 5a 36 8c 3c 89 42 95 bc 9b ce 03 ba 0d f3 d9 bc
       0.01711576 -0.018220203 -0.000502804 -0.026605153
000070 f6 ec e5 3c 3e df ef bc d5 13 86 bc 38 8f 39 3c
       0.028067093 -0.029281255 -0.016366879 0.01132565
000080 38 90 03 bc 2b 01 7b bc 3d 55 3c 3c d7 76 ef 3c
       -0.00802999 -0.015320103 0.011494932 0.029231472
000090 48 b8 db 3c a5 5a bf bb fe 3d b4 bc b2 e0 9f bb
       0.02682127 -0.005839663 -0.022002216 -0.0048790807
0000a0 57 0e 7d bc 6b 0b d5 ba 14 60 2a 3c 67 57 de bc
       -0.015445313 -0.0016254013 0.010398883 -0.027141286
0000b0 44 f6 1e bc e7 ed 4f 3c 52 84 ac bb 48 86 2c bc
       -0.009702269 0.012690998 -0.0052647972 -0.010530062
0000c0 4d 25 d5 3c dd d5 ee bc 25 43 31 bc 8c e5 cf ba
       0.026018763 -0.029154712 -0.010819231 -0.0015861257
0000d0 72 4f 05 ba fc cb 8c 3c be 4a 48 3c 08 62 d9 3c
       -0.00050853856 0.017187111 0.012224851 0.026536003
0000e0 f2 a2 71 bc 71 b7 ac bc 70 48 81 bc 26 f9 76 3c
       -0.014748322 -0.021083565 -0.015781611 0.01507405
0000f0 a6 4f d4 bc b7 1f c1 3b d6 41 08 3c 9e 52 46 3c
       -0.025916886 0.0058936733 0.008316478 0.012104658

layer2.1.weight f4 [64]
000000 8c 83 42 3f 7f 79 5b 3f 48 97 1a 3f dd df 20 3f
       0.75981975 0.85732263 0.60387087 0.6284159
000010 ec 8b 5a 3f 17 9b 1d 3e 5a e7 20 3e 82 76 6c 3f
       0.85369754 0.15391193 0.15713254 0.9236833
000020 c0 15 a5 3e dd c7 3b 3f 28 e7 e3 3e 88 c5 80 3e
       0.32243156 0.7335184 0.44512296 0.25150704
000030 28 03 d4 3e cc 19 68 3f 32 e9 56 3e 08 dc 3c 3f
       0.41408658 0.9066436 0.20987394 0.7377324
000040 1e f7 45 3f 6d 0d da 3e f7 18 b8 3e 53 37 7d 3f
       0.77330196 0.42588368 0.35956547 0.98912543
000050 fc af 86 3e 3f e6 69 3f 88 cc 58 3f d8 89 4b 3f
       0.2630614 0.9136695 0.8468709 0.7950721
000060 a5 dc 52 3f 9b 46 10 3f 44 b8 22 3f 34 39 c9 3e
       0.82367927 0.56357735 0.6356242 0.39301455
000070 06 81 e5 3d 11 dc cc 3e 0a ec 31 3e fa 08 20 3f
       0.1120625 0.40011647 0.17375198 0.625137
000080 d0 be 49 3f 77 6c 73 3f 44 65 7e 3f e8 27 0d 3e
       0.7880678 0.9508738 0.9937327 0.13784754
000090 d6 d2 3d 3f e0 26 71 3e 4f e7 d6 3e f2 6f 69 3f
       0.74149835 0.23549986 0.4197335 0.9118644
0000a0 b6 c6 c3 3e f8 ab 65 3e b2 d3 9e 3e be 1a 53 3f
       0.38237542 0.22428882 0.31020886 0.8246268
0000b0 32 61 1e 3e 32 2b 57 3f f0 04 a3 3e 27 e3 30 3e
       0.15466765 0.84050286 0.31839705 0.17274152
0000c0 8a ff 3d 3e c4 c2 e3 3e 29 6b b2 3e 8f 85 41 3f
       0.18554512 0.44484532 0.34847382 0.7559442
0000d0 a9 a8 13 3f 60 97 7b 3f 19 b4 41 3f c4 8e 36 3e
       0.5767923 0.98277855 0.7566543 0.17827898
0000e0 7b 5f 70 3f 07 37 48 3e e0 6a 8f 3d 0e 85 b7 3b
       0.9389569 0.19552241 0.07002807 0.005600578
0000f0 b8 31 63 3e f4 ae 78 3f bb 6c f4 3e d6 ae 20 3e
       0.22186935 0.9714196 0.47739205 0.15691695

layer2.1.bias f4 [64]
000000 48 a3 19 b9 a6 f4 43 bb 88 dd ef ba f6 3d 9b 3a
       -0.00014652044 -0.002990046 -0.0018300274 0.0011844027
000010 bc 0d 4a b9 5f 8b 36 bb ea e3 af ba 14 aa 93 3a
       -0.00019269338 -0.0027854068 -0.0013419364 0.0011265897
000020 66 0d 21 bb ac b9 4b ba 54 c7 b4 ba ca 64 08 bb
       -0.0024574636 -0.0007771503 -0.0013792315 -0.0020812028
000030 52 c6 3f 3a d3 a1 b9 ba 3f d7 22 3b 5a b5 38 3b
       0.0007315624 -0.0014162607 0.0024847535 0.0028184266
000040 e4 6c ca 3a 5c 57 98 b9 fc 99 2a 3b ca c3 cc b9
       0.0015443829 -0.00029056787 0.0026031723 -0.00039055786
000050 e8 60 bf 39 70 b6 ba b9 70 37 5f b8 02 98 d3 39
       0.0003650256 -0.0003561261 -5.3218973e-05 0.0004035831
000060 1a 12 10 3b 3b 91 2f bb 12 6f 32 3b d8 38 44 bb
       0.0021983446 -0.0026789445 0.0027226848 -0.0029941108
000070 85 09 11 ba 23 56 01 bb b1 38 34 3b 9b ee 2c bb
       -0.00055327296 -0.001973518 0.002749961 -0.0026387337
000080 72 3a 08 3b 0a 93 44 3a 7e 25 22 bb d7 4f 06 3b
       0.002078679 0.0007498717 -0.0024741585 0.0020494366
000090 4e 96 17 bb 46 b0 43 3b 5b 28 12 ba ae da 3b 3a
       -0.002313036 0.0029859706 -0.00055754714 0.00071660697
0000a0 de f2 95 39 44 8f e6 ba d8 99 e8 39 62 c8 99 b9
       0.00028600445 -0.0017590304 0.0004436511 -0.0002933173
0000b0 6d e7 ef ba ae 0b e5 b9 a1 f9 a0 3a 69 ee 3f bb
       -0.0018303223 -0.00043686986 0.0012281426 -0.002928639
0000c0 35 e0 86 3a 44 69 8e ba 8e 58 27 bb a6 09 c1 ba
       0.0010290208 -0.0010865112 -0.002553496 -0.0014727607
0000d0 9a fb 2f 3b 24 ff 15 bb 86 a3 1e bb ac 2c f3 39
       0.0026852847 -0.0022887671 -0.0024206354 0.00046381855
0000e0 f0 38 28 bb f0 d1 9c 39 24 f9 da 3a d4 a9 87 39
       -0.0025668703 0.00029911054 0.001670633 0.00025875738
0000f0 54 c4 27 bb b6 30 c9 3a a2 68 28 3a 22 3f 40 3b
       -0.0025599198 0.00153496 0.0006424283 0.0029334505

layer2.1.running_mean f4 [64]
000000 94 75 fb bc e7 1a 7c bd 81 08 1e bd 7a ac ca 3d
       -0.030695714 -0.061549094 -0.03858233 0.098961785
000010 ef 97 5b bc 30 78 c7 3c e7 fa a5 3d 93 12 58 3d
       -0.013402923 0.024349302 0.081044964 0.05275209
000020 05 1e 92 bd 49 c3 9b bd 45 20 b3 3c 5b 23 19 3d
       -0.07134632 -0.07605607 0.021865973 0.037387233
000030 92 37 70 bd 5a 12 c9 3d 55 fc 06 be 62 ab e3 bd
       -0.058646746 0.098179534 -0.13182195 -0.11116673
000040 4e 49 05 3e 74 f7 66 3d 15 3f d0 bc f0 9e 82 bd
       0.13016245 0.056388333 -0.025420705 -0.06377971
000050 27 83 f0 3d 0c 07 70 bd cb 0a 95 3d 56 7c a3 3d
       0.11743765 -0.05860047 0.07277449 0.079826996
000060 56 e6 0b 3e c8 be 9a bc 28 eb ff bd f6 22 b5 bd
       0.13662085 -0.0188898 -0.12496024 -0.08844559
000070 33 a0 05 be b2 3d 2c bc f7 81 05 3d e6 ff 0b 3d
       -0.13049392 -0.010512756 0.032594647 0.03417959
000080 28 2f f2 3d 32 b5 87 3c 4b 13 85 3d bc 4b a5 bd
       0.118254006 0.016565893 0.064978205 -0.08071086
000090 63 17 bf bc f4 e9 60 3d a1 1d 84 bc 77 86 dd 3c
       -0.023326581 0.054910615 -0.01612741 0.027041657
0000a0 f9 82 fd 3c 2b b6 ed bd f3 71 ab bd 98 fe 41 3c
       0.030946242 -0.116070114 -0.083713435 0.011840485
0000b0 fe 98 72 bd 97 ac 54 bd 6b 39 bb bd 0d 47 1d be
       -0.059227936 -0.051922407 -0.09141811 -0.15359135
0000c0 3f de 0c be 42 64 31 bd 57 de db bd a9 69 09 3d
       -0.13756655 -0.043308504 -0.10735767 0.03354803
0000d0 00 63 f3 bd 77 30 69 bd 46 96 8a bd 0c 8d 4c bd
       -0.11884117 -0.056930985 -0.06766944 -0.0499392
0000e0 a2 91 d7 bb 33 62 dd ba 14 9c 9f 3d 20 91 c9 3d
       -0.00657864 -0.0016890228 0.077934414 0.098421335
0000f0 af 5c 3f 3d 50 aa ea 3c 2a 8a f2 bc a5 9b 43 3d
       0.04671925 0.028645664 -0.029606897 0.047755856

layer2.1.running_var f4 [64]
000000 f7 bd 4d 3f 46 23 3e 3f ad 06 4a 3f 24 ff 3d 3f
       0.8036799 0.74272573 0.78916436 0.7421744
000010 34 c2 40 3f bb c4 4a 3f 55 bf 41 3f a0 4d 40 3f
       0.7529633 0.79206437 0.75682575 0.75118446
000020 27 b8 3e 3f 7d 5e 43 3f b7 9d 3c 3f 23 6c 3e 3f
       0.74499744 0.7631605 0.73678154 0.74383754
000030 cc f5 43 3f 39 da 42 3f a7 52 3f 3f 76 78 46 3f
       0.7654693 0.7611423 0.7473549 0.7752756
000040 8a 66 3f 3f f7 9c 40 3f 2b af 41 3f 55 03 43 3f
       0.7476584 0.7523951 0.7565791 0.7617696
000050 83 3f 45 3f 75 e3 42 3f a9 fc 3e 3f 07 f7 40 3f
       0.77050036 0.7612832 0.7460428 0.75376934
000060 ad 28 41 3f 3e 8a 43 3f 81 ff 47 3f 63 00 41 3f
       0.7545269 0.76382816 0.78124243 0.75391215
000070 50 89 47 3f 74 19 4b 3f 35 bd 3e 3f fe 78 3d 3f
       0.779439 0.79335713 0.74507457 0.74012744
000080 60 2e 41 3f 9b 1e 4b 3f 5e 1f 3d 3f 83 5a 42 3f
       0.7546139 0.79343575 0.7387599 0.7591936
000090 72 14 49 3f c6 14 43 3f 6e 46 3f 3f f4 64 3e 3f
       0.7854682 0.7620357 0.7471684 0.7437279
0000a0 a2 cc 3d 3f b5 55 3f 3f 3c 16 3e 3f 8c 8b 42 3f
       0.7414037 0.74740154 0.74252677 0.7599418
0000b0 d4 25 3e 3f 11 21 41 3f 29 98 43 3f 43 b1 45 3f
       0.7427647 0.7544108 0.7640405 0.77223605
0000c0 c8 27 49 3f 95 5a 3f 3f 04 bb 43 3f ab 70 3e 3f
       0.78576326 0.7474759 0.7645724 0.7439067
0000d0 e3 ac 4b 3f 4f 47 3f 3f 72 42 3f 3f bc ca 43 3f
       0.7956068 0.74718183 0.7471076 0.76481223
0000e0 bd af 40 3f 4e 63 40 3f 7b 3a 40 3f 99 74 3e 3f
       0.75268155 0.75151527 0.75089234 0.74396664
0000f0 85 7b 41 3f 3f f1 46 3f d6 34 42 3f 06 cc 43 3f
       0.755791 0.7771186 0.7586187 0.7648319

layer3.0.weight f4 [32, 64, 3, 3]
000000 d0 9c 5c 3c 6b e6 2b 3d 22 07 75 3c d6 d0 03 3c
       0.013465121 0.04196779 0.014955314 0.008045396
000010 7e d6 be ba 18 29 f6 3c 8b 7f 47 bc 60 2f 72 bb
       -0.0014559773 0.030048892 -0.012176405 -0.0036954507
000020 4d ab 2c 3c aa 37 1b bd 49 0c a4 bc a6 83 48 3b
       0.010538888 -0.037894882 -0.02002539 0.0030596047
000030 89 bc 1b bd 66 c7 23 3c ac ab 9b bc 5e 7e db 3b
       -0.038021598 0.009996271 -0.019002758 0.0066984138
000040 64 3d ec bc c1 3f 79 3c 03 c7 0d bd c4 ec 14 3c
       -0.028837867 0.015212954 -0.03461362 0.009089652
000050 52 1e 17 bd 00 c3 64 bc 35 6f c0 3c 49 87 09 3d
       -0.03689415 -0.013962507 0.023490528 0.033576284
000060 78 fd 2e bd 7e ee 22 3d 50 97 d9 bc 88 22 0f 3c
       -0.042722195 0.039778225 -0.02656141 0.00873626
000070 57 2a 1b 3c bc 14 cc bc 4b d8 1c bd 4a 1c 6b bc
       0.009470544 -0.02491223 -0.03829221 -0.014350006
000080 7c 68 29 3d e8 da ee bb 22 bc 3d 3b ca f8 85 3c
       0.04135941 -0.0072892793 0.0028951247 0.016353983
000090 20 fa c8 bc 19 92 6d 3a d2 c9 19 3d 58 27 13 bd
       -0.024533331 0.0009062603 0.037545986 -0.035926193
0000a0 82 30 29 3d b9 79 da bc 4d e4 94 bc 28 7e c0 3c
       0.041306026 -0.02666937 -0.018175269 0.023497656
0000b0 8b b5 05 bd 1c 2c bd bc 7a c4 2f bb 9d c2 ca 3c
       -0.032643836 -0.023092322 -0.002681999 0.024751002
0000c0 a5 df fa bb 75 12 28 3d 6c c3 34 bc 94 49 11 3c
       -0.007656055 0.041033227 -0.01103292 0.00886764
0000d0 21 53 8e bc 6e 8c 61 3c 04 52 1a b9 3c 15 11 3d
       -0.017373623 0.013766391 -0.00014717138 0.03542064
0000e0 e8 1c 08 3d d7 03 84 bc f3 13 f0 3b 2b bc d0 3c
       0.033230692 -0.016115112 0.007326597 0.02548035
0000f0 20 95 36 3c ff aa 1d 3c ec a6 a7 bc 5a ba 4a bc
       0.011143953 0.009623288 -0.020465337 -0.012373531
000100 fb 88 cc 3c e4 1d 90 3c f9 40 2a 3d f2 a6 0a bd
       0.024967661 0.017592378 0.04156587 -0.033850618
000110 bf 07 16 3d b1 fe 24 bd 68 d0 bf bc 8c f4 b7 b9
       0.03662848 -0.040281955 -0.023414806 -0.00035086682
000120 1a 50 60 bc f1 cd f8 bc c6 89 23 3d 2e d9 3e 3c
       -0.013690973 -0.030371638 0.039926313 0.011648459
000130 fe d0 e4 bb c6 6e 0a 3d 26 93 12 bc bc 29 c6 3b
       -0.0069829216 0.033797048 -0.008946216 0.0060474556
000140 84 bf 36 bc 85 c0 04 bc 7b dd f0 bb ac ea 24 bb
       -0.011154059 -0.008102541 -0.0073506213 -0.002516429
000150 4e 4d 0a bd 7c a4 f1 bc 48 ca d6 3b d9 44 1d 3d
       -0.03376513 -0.029497378 0.0065548755 0.038395736
000160 b6 b2 07 bc 2a 59 c5 bc 49 52 a5 3b 47 64 6c 3b
       -0.008282354 -0.024090368 0.0050452095 0.0036070512
000170 6f 1c cd bc f3 03 a5 ba 8d e4 1b bd 1a 10 85 ba
       -0.025037972 -0.0012589678 -0.03805976 -0.0010151893
000180 74 21 fa 3c 32 b0 66 3c 29 ee 8d 3c 02 4b 6d bc
       0.03053353 0.014080094 0.017325478 -0.014483215
000190 2d f0 84 bc 94 08 f6 ba b2 a7 84 bc b2 17 02 bd
       -0.016227806 -0.0018770867 -0.016193245 -0.03176088
0001a0 8a b9 09 3c 29 e0 11 bd 99 99 f0 3c 73 1e 26 3d
       0.008406052 -0.035614166 0.029370116 0.040556382
0001b0 70 c3 1a bb 69 e9 99 bc 13 6f 18 bd 1d f9 09 3d
       -0.0023615025 -0.018788056 -0.037215304 0.03368484
0001c0 1d 5e 35 bc f7 a1 8c 3b cc 57 32 bb f4 0d 22 3d
       -0.011069802 0.0042917687 -0.0027212976 0.039564088
0001d0 9b 39 91 bc 24 4b ec bc 5d 2f 56 bb 4e a5 2a bd
       -0.017727664 -0.028844424 -0.003268204 -0.041661553
0001e0 2d f8 e9 bc 91 98 22 bd b8 0b 03 bd 2a 6e 0b 3d
       -0.028560722 -0.03969628 -0.031993598 0.034040608
0001f0 57 42 ee bc ef 6a ff 3c b0 37 d3 bb 2c fb 68 3b
       -0.029084368 0.03117892 -0.0064458475 0.00355501
000200 52 46 1d bd d5 7e d5 bc d4 68 b4 bc 5f f1 c1 3a
       -0.03839714 -0.026061455 -0.022022642 0.0014796666
000210 e6 8d a9 bc eb f0 8a 3c 65 d9 96 3c 87 8f 79 bb
       -0.020697545 0.016960582 0.018414209 -0.0038079934
000220 95 9a 1f 3d 95 49 d2 bc 53 9f a5 3c 90 29 01 3c
       0.03896578 -0.025669852 0.020217573 0.007883444
000230 fc 1e cd 3c d8 ce 6d bc 37 b5 53 bc 9a d6 aa ba
       0.025039189 -0.014514647 -0.012921623 -0.0013033927
000240 93 80 0d 3d e1 d2 81 bc 46 93 92 bc 08 72 b6 bb
       0.034546446 -0.015847625 -0.017892491 -0.005567793
000250 56 b2 04 bd 58 aa 00 3d 56 bf d1 3c 4f e3 da 3c
       -0.032396637 0.031412452 0.025603931 0.026719717
000260 48 88 b9 3c eb 03 4f bc 09 2a e8 bc 89 bb 12 3d
       0.022647992 -0.012635211 -0.028340356 0.03582338
000270 d0 4c da 3b f4 51 57 bc 50 c7 3b 3c 59 e5 22 bd
       0.006661989 -0.013142098 0.011461094 -0.039769504
000280 92 b0 f2 3c 02 ad 86 3c db 19 e2 3c f1 8d 00 3d
       0.02962521 0.016439918 0.02760022 0.031385366
000290 2c f1 d2 bc b0 ad cb 3c 3a c3 03 3d 55 9f 55 3c
       -0.025749765 0.024863094 0.032168604 0.013038476
0002a0 44 e1 15 bc bd c9 8c 3b bd 5a 52 3c 3b d2 65 3c
       -0.009147946 0.00429651 0.0128390165 0.014027174
0002b0 bf 9a 5c 3c 10 b7 26 39 04 ce 15 3d 4e 13 4f 3c
       0.013464629 0.0001589919 0.036573425 0.01263888
0002c0 8e 1a 99 3c c4 b7 00 bd ea dc 27 3c 46 e1 98 bc
       0.01868942 -0.031425253 0.010245541 -0.018662106
0002d0 32 e6 cc bc 24 60 7f bc 2b e5 fd 3c 6b 37 52 3c
       -0.02501211 -0.015586887 0.030993065 0.0128305955
0002e0 bb b9 50 3c b0 d4 9c 3c 33 9b cf bc ce 43 53 bc
       0.012739594 0.019144386 -0.02534256 -0.012894584
0002f0 2a 21 da bc 5b c0 10 bd 14 83 2f 3b f6 d6 16 3d
       -0.026627142 -0.035339694 0.002678101 0.036826096
000300 a4 52 0b 3c 8c 3a fe 3c 60 95 08 3d 82 a3 9c 3c
       0.00850359 0.031033777 0.03334558 0.019120935
000310 e3 b1 12 3d 82 bc 2d bc 2e f2 25 bd c9 2f 89 bc
       0.035814177 -0.010604026 -0.040514164 -0.016746419
000320 37 99 cd 3c 5a fa 17 bd b1 2e 87 bc 02 56 61 3c
       0.025097473 -0.03710399 -0.016501756 0.013753416
000330 e5 c0 0c 3d b8 a6 9c 38 35 3e b8 3c 3a c7 1a bd
       0.034363646 7.4697135e-05 0.0224906 -0.037787654
000340 03 b2 9e 3c 4d 40 92 bc 76 1d c5 bc 08 82 0c 3d
       0.019371992 -0.017852927 -0.0240619 0.034303695
000350 7e 89 a3 bc 42 96 c9 bc 9a 42 b0 bc 2a 6c bd 3c
       -0.019963022 -0.024607781 -0.021516133 0.023122866
000360 18 28 d6 bc 27 a8 cc 3c 93 9b 10 bd cb ff ad bb
       -0.026142165 0.024982525 -0.035304617 -0.005310034
000370 a9 d5 e3 bc bb 39 07 bd 94 09 d5 3c e0 3e 9e 3c
       -0.027811842 -0.03301404 0.026005544 0.01931709
000380 63 95 dd 3b 97 24 24 bd 24 15 e8 3c 72 a5 a6 bc
       0.006762193 -0.040073957 0.028330393 -0.020342562
000390 68 26 f5 3c 26 ba 67 bc 09 b4 19 bd f9 ef 7a bc
       0.02992554 -0.014143502 -0.03752521 -0.015316003
0003a0 76 87 25 bc 9d 75 ef bc 38 06 92 3b 13 7c 15 bd
       -0.010103097 -0.029230887 0.0044563077 -0.03649528
0003b0 47 d7 f0 3c 91 05 06 bc c5 52 0c 3d ca 75 2e 3c
       0.029399527 -0.008180038 0.034258623 0.0106482
0003c0 7f e3 ce 3c 6a 09 d3 bc 84 a2 1e 3d 82 cd 55 bc
       0.025254963 -0.025761325 0.038729206 -0.013049485
0003d0 e1 24 0e 3d 4a 0c de bb 66 c3 f7 bc b0 12 4e b9
       0.03470314 -0.0067763673 -0.03024454 -0.00019652653
0003e0 2b c8 17 bd dc 47 f7 39 9f 41 a8 3b e9 6b 18 bd
       -0.03705613 0.0004716505 0.005134776 -0.037212286
0003f0 7a d4 16 bc 90 ef 0b bd 88 42 ae bc af 7e e9 bc
       -0.009205932 -0.03416401 -0.021271959 -0.02850279

layer3.0.bias f4 [32]
000000 dc 5b f6 b9 5f c0 e2 3c 4b 65 3f 3c 41 33 92 3b
       -0.00046989217 0.02767962 0.011681865 0.0044616763
000010 85 cd 23 3d 84 64 e5 3c 96 7c 85 3c 52 d9 7b 3c
       0.03999092 0.028002031 0.016294759 0.015371637
000020 ed f0 e4 3c c2 fd 10 bc 45 6b 47 3c 84 5a 03 3c
       0.027946914 -0.008849563 0.012171571 0.008017186
000030 e5 0e 9b 3c f8 aa d4 3c 9c e8 09 3d eb 78 b1 3c
       0.018928 0.02596043 0.0336691 0.021664103
000040 77 b4 bf 3c 57 b3 6e bc cf 77 e1 3c 79 40 a0 bc
       0.023401482 -0.014569125 0.02752295 -0.019561993
000050 b4 42 8f bc c9 a0 18 3c 5b 5e 1f bd 8a 08 ce 3b
       -0.017487861 0.009315678 -0.038908344 0.006287639
000060 99 1b 09 3d a8 60 92 3c 23 66 0f bd ea 05 f7 bb
       0.033473585 0.017868355 -0.035009515 -0.007538547
000070 0b 4d f0 bc f0 90 8f bc db e8 8b 3b 19 c3 d2 ba
       -0.029333612 -0.017525166 0.004269702 -0.0016079872

layer3.1.weight f4 [32]
000000 7b 89 1d 3f a5 f8 dd 3e 97 99 0d 3f 0b 0b fb 3e
       0.61537904 0.43353763 0.55312485 0.49031863
000010 14 88 04 3e fb 02 06 3f 30 49 b5 3e 67 fb 10 3f
       0.12942535 0.523483 0.354074 0.5663361
000020 8f ee 7b 3e 98 b4 47 3f 0b 2f 75 3f e2 a2 23 3f
       0.24602722 0.7800994 0.95774907 0.63920414
000030 41 71 83 3d 71 74 76 3f 66 ec a7 3d 36 d4 18 3f
       0.06418086 0.96271425 0.08199386 0.5969881
000040 6c 7d 02 3d c5 ce 66 3f da 2c 04 3f bb c6 2b 3f
       0.031857893 0.90159255 0.5163094 0.67100114
000050 67 11 11 3f d8 bf eb 3e 79 7b 78 3f 0e 0b 6e 3f
       0.5666718 0.46044803 0.97063404 0.9298562
000060 64 f8 74 3e bc e1 57 3f e0 37 7b 3f a1 84 5d 3f
       0.23922879 0.8432882 0.98132133 0.865305
000070 ac 2d d1 3e c3 f8 3d 3f 45 82 10 3f ee 8a e1 3d
       0.40855157 0.74207705 0.56448776 0.11012827

layer3.1.bias f4 [32]
000000 2d 32 32 ba ce 67 0f ba de 79 da ba ec cb e8 ba
       -0.0006797638 -0.0005470485 -0.0016668399 -0.0017760969
000010 13 7e f4 39 27 15 29 bb 78 c9 af b8 e9 23 80 3a
       0.0004663324 -0.0025799961 -8.382177e-05 0.0009776327
000020 58 be 32 3b ba 83 a1 b9 c7 7b 2c 3b 20 d7 ba 37
       0.0027274098 -0.00030806457 0.0026318894 2.2273103e-05
000030 40 72 dc 39 e7 d0 34 bb a4 7e 63 39 6c e9 f1 b9
       0.00042046793 -0.0027590336 0.00021695584 -0.00046141015
000040 f5 78 3f bb 23 68 30 bb 40 83 3b 3b 54 95 28 3b
       -0.0029216383 -0.002691754 0.0028612167 0.0025723772
000050 06 4a b5 b9 f8 e3 e4 b8 57 79 36 3b 09 03 33 bb
       -0.00034578162 -0.0001091435 0.002784332 -0.0027315042
000060 88 0c cc ba 22 59 36 bb 70 5b e4 39 29 e8 33 3b
       -0.00155677 -0.0027824123 0.00043555675 0.002745161
000070 44 9e 1b 3b ff 9a 05 ba 8d 5e 38 bb 78 2f 1d 39
       0.0023745457 -0.00050966436 -0.0028132529 0.0001499037
