5312323.b2e4.model (torch_old, 820387 bytes, 32 tensors)

layer1.0.weight f4 [128, 3, 3, 3]
00000000: 8e5d 023b cf35 00be 8ac5 413e 0899 473c
00000010: a059 413e 08b4 21bd 6c3f 423d e1c9 eb3d
00000020: d152 8a3d e552 cbbd 409d 8a3c e5ae 23bb
00000030: 003c 073e 4ece 87bb 85ba bbbc d0ce 213d
00000040: a5d9 5abc 8881 31be 7d89 f7bb 53d0 10be
00000050: 6d1f 02be 4437 6739 93a6 163d 6f0f 98bd
00000060: 9c97 9abd 2117 fabd 6420 c2bd 0061 98bd
00000070: 0da5 243e 89e1 7b3d 3d11 d3bd b40a 30be
00000080: 4c80 92bd f3e4 2a3e e9b8 01be d27a 43be
00000090: b539 d43c 7d6f bd3c 469c fb3d cfd2 7d3d
000000a0: c720 3abe c90a b0bc 55a7 db3d 9162 2b3e
000000b0: 535c c83d e722 eabd 5881 7cbc 9a63 f1bd
000000c0: 8941 5b3d abdc 2d3e 4ea5 6b3d b07b f63d
000000d0: 2106 01be 1a6b 193d cc2f d43c a97b 473e
000000e0: 103e b83d c3e7 0abd a65c 02be d36a df3d
000000f0: d91f 2abe f75f ce3d f940 3ebd b5ef 87bd
00000100: 7749 a33b d8cf 68bd 2a10 21be 0616 38bc
00000110: c008 21be 6203 133e 4b71 ccbd e833 3a3e
00000120: a614 833c 8366 21be 298f 67bc 360f 1f3e
00000130: 4e27 ae3d aacf cb3d 1e75 eabd 5f5b 2fbe
00000140: 38e1 45bd 787c 723d 3ff5 b03d e690 3f3e
00000150: fa3b ec3d 6916 b4bd bfd4 ffbd 7d87 cfbc
00000160: 5aba a03c 146d 3cbe 28ed 31bc cf6b b83d
00000170: c65b 45be 03a8 d43d 1a8f 13be 70d6 0d3e
00000180: 60a1 083e 6623 033d 8d1e b6bd bcc4 afbd
00000190: 260a c33d b74c 02be 7ee2 7fbd dd9f ad3d
000001a0: 8f7e 6d3d e874 f43c ab4b 243e 4401 0bbe
000001b0: 7235 843d 340d e5bc de53 393e a6c9 be3c
000001c0: 87f8 3f3e 2b2c b9bd 68f1 8c3a 74cd f3bd
000001d0: 5716 d9bd cf1a 14be f82f 043e e584 11be
000001e0: d135 0ebe c54c 123e 0bb7 0b3e 0137 d5bd
000001f0: abbb 193e e5ca 94bd fd72 8ebd 399d 9d3c
00000200: 2b04 413d ea51 003e d07d cd3d 0e2b 053d
00000210: b0da 12be 8450 c83d fcef b63d 736e 46bc
00000220: 394a d2bd 8c57 9cbd fdb4 c3bd e59a 8dbd
00000230: ffee e13d 7d10 7ebd 1993 0939 4242 2abe
00000240: 47e3 c63d 6ebb c13b 14b1 c7bd 9a62 0dbd
00000250: 4536 363d 3446 c6bd 4677 b73d 00d9 01be
00000260: 0694 0e3e 29f3 46bd 5704 6abd a247 85bd
00000270: da2d 2fbd 60d2 3fbe 71d7 0c3e 77c3 ce3d
00000280: 2719 0bbe 9e1f adbd 415a 70bd caab 98bd
00000290: 0886 273e c012 bbbd eda7 ff3d c21d 19be
000002a0: 8ef1 d6bb 084c 1dbe f298 eb3d 4b26 ca3c
000002b0: 3914 1cbd 81e6 2a3e 547d 47bd db98 13bd
000002c0: 1726 fc3d 6fa9 53bd d9c3 d13d afa0 eb3d
000002d0: a88b 8e3d d3d4 973d d30f 2dbd 82cf 1c3e
000002e0: 3c22 08be 6af6 2dbe 7cb7 72bd ee83 e33c
000002f0: 7eb8 303e ee0b 133e 76c3 ab3d f32d 313e
00000300: 7350 573d e989 9a3d 4747 e83d bce2 fa3d
00000310: 07de f6bd 17a3 003e 6761 273d 129c 06bc
00000320: b859 06be c207 203d f977 f0bd 724d 12be
00000330: 60a4 d53c 3eb1 b0bc 5e34 c5bd f388 683b
00000340: 1661 cc3d b963 2ebe d405 c03d 8a66 923c
00000350: b64b 99bc e4ce 39bc 8f20 3d3e 741e 6f3d
00000360: fef8 9ebd 71c6 1a3e 9d97 0d3d 6d96 a43c
00000370: f129 123e c3e7 473d b607 bf3d 453e 073e
00000380: d061 cfba 44a6 27be 2a65 493d 3c15 afbd
00000390: 0333 113e f4a0 353e 0f2e afbd a35b 393e
000003a0: 7bf9 27be 671c 953d d65b e9bd fa64 3dbe
000003b0: 7d2d 063d ce78 1e3e eda2 773d ef7d 42be
000003c0: 2500 243e 230a bdbc c4a5 77bc fd6b 3abe
000003d0: d5da 1ebe c35c 2fbd 0d96 873d 09cb 233e
000003e0: 70a9 863d ead5 cd3d 7b43 01bd 1afb 92bd
000003f0: 5d08 403e 320b 42bc 4ab6 073e d2f6 9cbb
0.0019892189 -0.12520526 0.18923011 0.012182482 0.18881845 -0.03947833 0.047423765 0.11513115
0.06754077 -0.0992792 0.016920686 -0.0024976071 0.13206482 -0.0041444665 -0.022916088 0.039503872
-0.013357555 -0.17334569 -0.0075542317 -0.1414197 -0.127073 0.00022050465 0.03677995 -0.07424819
-0.075484484 -0.12211443 -0.09478834 -0.07440376 0.16078587 0.061494384 -0.10306022 -0.17191583
-0.07153377 0.166889 -0.12668194 -0.19089821 0.025906423 0.02312445 0.12285666 0.06196862
-0.18176566 -0.021489518 0.107252754 0.16736819 0.097832344 -0.11432438 -0.015411697 -0.117865756
0.053529296 0.1697871 0.057530694 0.1203531 -0.12599994 0.037455656 0.025901698 0.19480766
0.089962125 -0.03391243 -0.12730655 0.10909047 -0.16613711 0.100768976 -0.04644868 -0.06637517
0.004983123 -0.05683884 -0.15728822 -0.01123572 -0.15725994 0.14356759 -0.099825464 0.18183863
0.016001057 -0.15761761 -0.014133253 0.15533146 0.085035905 0.09951718 -0.114481196 -0.17124699
-0.04831049 0.059200734 0.08640527 0.18707618 0.11534877 -0.08793337 -0.1249175 -0.02533316
0.01962011 -0.18400985 -0.010859765 0.09004938 -0.1927329 0.10383608 -0.14410058 0.13851333
0.1334281 0.03201618 -0.08892546 -0.08582446 0.0952342 -0.12724577 -0.06247186 0.08477757
0.057982024 0.029840901 0.1604449 -0.13574702 0.064555064 -0.027960397 0.18098399 0.023289513
0.1874715 -0.090416275 0.0010753097 -0.119044214 -0.10599964 -0.14463352 0.12908924 -0.14210851
-0.13887717 0.14287098 0.13644044 -0.10410882 0.15012996 -0.072652616 -0.06955526 0.019240009
0.047123116 0.12531248 0.100337625 0.032511763 -0.14341235 0.09780982 0.08932492 -0.012111294
-0.10268063 -0.07633886 -0.09556005 -0.069143094 0.11031913 -0.062027443 0.00013120136 -0.16626838
0.097113185 0.005912236 -0.09750572 -0.034517862 0.04448535 -0.09681359 0.089582965 -0.12680435
0.13923654 -0.04857174 -0.057133045 -0.065078035 -0.042768337 -0.18732595 0.1375406 0.10095876
-0.13583814 -0.08453296 -0.058679823 -0.07454641 0.16359723 -0.09134436 0.12483201 -0.14952758
-0.0065595573 -0.15361035 0.115037814 0.024676463 -0.038105223 0.16689493 -0.048703507 -0.036034446
0.123119526 -0.051675256 0.10242433 0.11505257 0.06960231 0.0741364 -0.04225142 0.15313533
-0.1329431 -0.16988531 -0.059257016 0.02777287 0.17257878 0.1436002 0.083868906 0.17302684
0.052566957 0.075458355 0.1134172 0.122502774 -0.12054067 0.12562214 0.040864374 -0.008215921
-0.13120162 0.0390699 -0.11741633 -0.14287356 0.026079357 -0.02156889 -0.09629129 0.0035482019
0.09979455 -0.17030229 0.093761116 0.01787116 -0.01871286 -0.0113408305 0.18469451 0.05837865
-0.07762335 0.15114762 0.034568418 0.02009126 0.14273812 0.04880501 0.093276426 0.13207348
-0.0015821997 -0.16372019 0.049168743 -0.08548972 0.14179616 0.1773718 -0.08553707 0.18101363
-0.16403763 0.07280808 -0.113944694 -0.18495551 0.032758225 0.15475771 0.060458113 -0.18993352
0.1601568 -0.023076123 -0.015115205 -0.18205257 -0.15513165 -0.042813074 0.06620417 0.1599542
0.065752864 0.100505665 -0.031558495 -0.071768 0.1875319 -0.0118434895 0.13253132 -0.0047901655

layer1.0.bias f4 [128]
00000000: 215c 523d f296 8d3d 0058 8f3c d63c 14be
00000010: bffc 4e3d fcd4 353e 09f1 aabd 4a0a bcb9
00000020: 0f96 b03d 95c0 af3d ff56 a7bc 8b81 053e
00000030: 6276 02bc a1da 923d 702b 20be a5c4 fabd
00000040: 98fa 0b3d 0fed 783d 25ab 33be cc51 4fbc
00000050: 114b f73d 62b3 c2bd bae0 c0bd eb67 b2bd
00000060: 4ee9 b9bc fac4 2bbe b142 3dbd d76b a4bd
00000070: bfe3 ecbd e806 26be d9f4 f9bd e3b4 39be
00000080: acc5 383e 166f 66bb 8e81 823d 63ff 113e
00000090: 466c 0abc 1b1b 19be 9459 41be ea24 003e
000000a0: 4049 a3bd 852f da3d a8b9 eabc 94d3 823d
000000b0: 6568 333e f6de 85bd 76e5 bb3d 3afd ba3d
000000c0: a9be b7bc 4ffc df3d a219 e23d 3ad9 3cbe
000000d0: e738 1f3e 64e6 86bd f630 8bbd 4ec5 973d
000000e0: f997 153e 05fe 913c 44a7 a23c 166a 383e
000000f0: 0e2f bf3d 1014 12be a717 ddbd 8a39 923d
00000100: 8f68 163e d0a2 0c3d 9155 3d3e cc32 a3bc
00000110: 2ca6 383e dc6c bcbd 2e72 d6bd de69 5ebd
00000120: bcf9 dcbc 4a96 323d 6bd7 d23c 7054 3fbd
00000130: 1ebb 1cbe 45db 3d3e 9065 0f3e a6ef 3f3e
00000140: 0e36 d73d a4ae 36bd 791b 2ebd 41ff d0bd
00000150: f32d 213e bb0e a23d adc7 6f3b 71c1 c13d
00000160: a1e8 a539 e1c6 7abd 62f7 76bd 92ce ddbd
00000170: c8cd d3bd 8171 a6bc 4649 9bbd 91b1 123e
00000180: 5606 3b3e 5030 933c cf04 073d 8e00 173e
00000190: 3514 be3c 2c7e 29be 3282 a5bd 6660 293e
000001a0: bd44 173d f5e2 133e 11c8 8138 5799 593d
000001b0: 1ebf 29be b2d0 dd3a 5865 66bd 9694 d43a
000001c0: 847a 2f3e 0210 01be c679 833d 8f9e 38bc
000001d0: b0be c2bd 8ae7 2dbe 5f4c d8bc cd8f e53d
000001e0: 7a90 0d3e ac12 0d3e bda1 43bc 2701 63bd
000001f0: 00bd acbd ab28 413e 3508 433e 8385 24be
0.051357392 0.06913556 0.017498016 -0.14476332 0.050534006 0.17757028 -0.08346755 -0.0003586582
0.086223714 0.08581654 -0.020427225 0.13037698 -0.007962795 0.071706064 -0.1564157 -0.12244538
0.03417453 0.06077295 -0.17545755 -0.012653779 0.12074865 -0.09506871 -0.09417863 -0.08711227
-0.022694256 -0.1677436 -0.04620618 -0.08028381 -0.115668766 -0.16213572 -0.12204904 -0.18135409
0.18044156 -0.0035161427 0.06372367 0.14257579 -0.008448666 -0.14951746 -0.18881828 0.12514082
-0.07972956 0.10653595 -0.02865298 0.063880116 0.17520292 -0.06536667 0.091746256 0.091303304
-0.022429781 0.10936796 0.11040045 -0.1844224 0.1554905 -0.06586912 -0.06796448 0.0741068
0.14608754 0.017821321 0.01985515 0.18009219 0.09335147 -0.14265466 -0.10795527 0.07139881
0.14688323 0.034334958 0.18489672 -0.019921683 0.1803214 -0.09200451 -0.10470997 -0.05430018
-0.026974551 0.043600358 0.025737485 -0.046711385 -0.15305755 0.18540676 0.14003587 0.18743762
0.10508357 -0.044600144 -0.04250667 -0.10204936 0.15740184 0.07912966 0.0036587522 0.09460724
0.00031644574 -0.061224822 -0.060294516 -0.10830416 -0.10341984 -0.020317795 -0.07582335 0.14325549
0.18264136 0.017967373 0.03296357 0.14746305 0.023202995 -0.16552037 -0.080814734 0.1654068
0.03693079 0.14442046 6.1884646e-05 0.053124752 -0.16576812 0.0016923158 -0.056248993 0.0016218598
0.1713658 -0.12603763 0.06419711 -0.011268272 -0.09509027 -0.16982856 -0.026403604 0.112090684
0.13824645 0.13776654 -0.011940417 -0.05542102 -0.084344864 0.1886317 0.190461 -0.16066556

layer1.1.weight f4 [128]
00000000: a6be 813e 7249 973e 2615 ab3e f77d 923d
00000010: 7925 b43e 654a 6b3f ba20 613f 4701 3c3d
00000020: 8a5f ff3e ef7a 013f 02d2 fe3e f148 283f
00000030: bcfb 233f 1770 243f aa8d 0f3e b85d 973e
00000040: b1e7 b93e 0d07 133f 4e4f 3c3f 270d 243f
00000050: d559 973e aa5b 303f 641d 363e 4756 6d3f
00000060: fbdc aa3e 3fb9 7e3f c76d c33e 6644 2f3e
00000070: 3140 793f 6f8c 6e3f e50f 7a3e fda0 473f
00000080: c17f f03e 49f8 6f3f bdd1 173f b649 863e
00000090: 05d4 9a3e a2c3 3a3e f685 593f a2ed 033f
000000a0: a577 413f e83f f03e 7c55 553f 7263 9a3e
000000b0: b6fb a73e 21f4 7d3d 36e7 3e3a 8143 333e
000000c0: 0cd4 0b3f 10b1 c93e a59c 723f 9fc4 0d3f
000000d0: a2b8 413f 4699 8e3e 876a 453f 9d1d 1f3f
000000e0: a1c2 4d3e 2145 1c3e 6591 023f e3a5 a83c
000000f0: 61e3 5b3f 5966 bd3e 1378 653f f307 cc3e
00000100: 35da 213f ef57 923e 7506 743e 265d d73e
00000110: de2a 113f 4c58 ff3e 9186 1e3f 141b b43e
00000120: 0ea3 483f bcc0 243f 0edb 283e a6df 573f
00000130: 0216 2a3f 14f5 be3e 165e 883e 52c4 2c3f
00000140: c6d7 343d 4fce 623f 44a2 c33e 749b 3e3f
00000150: 15c0 813e 75dd 3d3f 9f04 753e 90b5 593d
00000160: 8f1a 093f c8db 793f 4516 5f3f ea20 cc3e
00000170: 82a6 503f 495b 833e aefd 2a3f 7721 523f
00000180: 38bf 543e 1f32 b53d 950e 623c 223e f83e
00000190: a4e3 dd3e 96e0 093f de10 7e3e 1076 253f
000001a0: c56e 9f3e 0a06 3b3f 37de 2f3e a649 893e
000001b0: 4614 663f 4b56 e43e 6305 443f c786 6c3f
000001c0: 1bca 353f ad91 723f 5aaf 013e c66d d73e
000001d0: a62c d43e 25fa 733e e06a 1a3e c45a f83e
000001e0: f35e 0a3f ce33 0a3f 7fab 773f 39f1 433e
000001f0: da29 ba3d d996 233f 64ef 043f 5b45 d23c
0.25340766 0.29548222 0.33414572 0.07152932 0.3518484 0.9191039 0.8794056 0.045899656
0.49877578 0.50578207 0.49769598 0.657363 0.6405599 0.64233536 0.14018884 0.2956369
0.3630958 0.57432634 0.7355851 0.6408257 0.29560724 0.6888987 0.17784649 0.92709774
0.3337172 0.99501413 0.3816969 0.17115936 0.97363573 0.93183035 0.24420126 0.77980024
0.46972468 0.9373823 0.5930441 0.26228112 0.30239883 0.1823869 0.84970033 0.51534474
0.7557319 0.46923757 0.83333564 0.30153996 0.32809228 0.062000398 0.0007282378 0.1750622
0.5462043 0.393929 0.9477027 0.55378145 0.7567235 0.27851313 0.7711567 0.6215456
0.20093776 0.15260746 0.51003104 0.020586913 0.8589383 0.36992148 0.89636344 0.39849815
0.6322358 0.28582713 0.23830588 0.42063254 0.56706035 0.49872053 0.6192408 0.3517691
0.783738 0.6435659 0.16489813 0.84325635 0.6643983 0.37296355 0.26634282 0.6748706
0.04415109 0.8859605 0.38209736 0.7445595 0.2534186 0.7416604 0.23927544 0.053151667
0.5355615 0.97600985 0.87143356 0.3986886 0.8150407 0.25655583 0.66793334 0.82082313
0.20776069 0.088474505 0.013797422 0.48484904 0.4333774 0.53858316 0.24811122 0.64633274
0.31139198 0.7305609 0.17174612 0.26814002 0.89874685 0.44597086 0.7657072 0.92393154
0.71011513 0.94753534 0.12664548 0.42075938 0.41440314 0.23825891 0.15079832 0.4850675
0.5405113 0.539853 0.9674606 0.19134988 0.09090014 0.6390205 0.5192778 0.025667837

layer1.1.bias f4 [128]
00000000: 25d2 92bb 6942 4ebb fcf3 f8b9 a739 1d3c
00000010: 30ff 7b3b 211c 89bb 3831 313b 11f8 3b3a
00000020: 6ece 6dba 9969 003c 9e65 c03a 5539 063c
00000030: 6a26 0aba ba39 09bc 0d31 5a3b 8dc9 63bb
00000040: 222c a63b a5d7 1cbb a91a b9ba f912 0aba
00000050: 7c41 103c 063b e03b 44e0 93ba 147f 153b
00000060: d4b6 a6bb 574e 8dbb 82f9 ab3b 2dbe eebb
00000070: 188f 5e39 7e7a d6bb f7ad 7ebb 0540 d53b
00000080: dba5 39ba 9e90 943a d953 933b 6d9e 703b
00000090: 6390 853b b564 afbb d208 f4ba d091 ad3b
000000a0: a815 75ba 01df c6bb fdc9 813b 8adf 48bb
000000b0: ddfc 1f3b c00b fbbb de4a b6bb 2d09 073c
000000c0: a1a8 a03b 70db 933b 4b70 4dba 9606 6e3b
000000d0: e723 96bb 8277 54bb be64 8e3b 5e51 373a
000000e0: c811 9cbb 31ee 23bb b239 eb3a 8ff2 0bbc
000000f0: a9f7 eb3b c9a2 80bb 9b95 8039 e509 a23b
00000100: cfd8 faba b5ea 87bb 9015 523a ff21 d7bb
00000110: 542b 5f3b 54d6 2fbb 442f 8ab9 117f 733b
00000120: 1198 eb3b f3dc 97bb 39f4 1f3c a453 a8ba
00000130: 921b 09ba ece4 abbb 9a24 ecbb 179c bcba
00000140: e6a0 a13b 0e35 533a eddf 9bbb a65c 76ba
00000150: 0f3c 77b9 edee 30bb de84 94bb 4bf7 043b
00000160: f0b4 4538 42d8 3abb ad68 813b b836 cf3a
00000170: 640a 00bc e261 83bb fb07 90b9 7b26 05bb
00000180: 8e0c 87b8 e55e dabb a265 32bb bce6 de3a
00000190: 6478 dc3b 9790 a2bb 878f 7e3b b56e aabb
000001a0: 098e 833b 5730 ddba 1002 413a 6c51 d03a
000001b0: bcb5 0abc 924a e0ba a7bd 953b ef55 e9bb
000001c0: 8c73 8f3b 23ad 67bb 611c a73a 6867 16bb
000001d0: a08e 03bb 6401 c23b ed82 da3b b8de 90ba
000001e0: 26d2 f1bb 161f c2b8 3476 06ba dc1e 003b
000001f0: 5452 b8bb d2da c0bb f0a8 fbba 7acb 0f3b
-0.0044806176 -0.003147269 -0.0004748403 0.009596265 0.0038451664 -0.0041842614 0.0027037393 0.00071704487
-0.0009071593 0.007837676 0.0014678722 0.00819238 -0.00052700064 -0.0083755795 0.0033293397 -0.0034757585
0.005071179 -0.0023932245 -0.0014122325 -0.00052671094 0.008804675 0.0068429736 -0.0011282046 0.002281134
-0.005087713 -0.0043123174 0.0052482495 -0.0072858543 0.00021224876 -0.006545364 -0.0038861015 0.006507876
-0.00070819043 0.0011334603 0.0044960794 0.0036715523 0.00407605 -0.0053525814 -0.0018618351 0.005296923
-0.00093492353 -0.0060690646 0.0039608465 -0.0030650818 0.0024412193 -0.007661313 -0.005563124 0.008241934
0.0049029146 0.004512243 -0.00078368624 0.0036319843 -0.0045819166 -0.0032419865 0.0043455055 0.00069930207
-0.004762862 -0.00250138 0.0017946272 -0.008541717 0.0072011543 -0.0039256555 0.00024525527 0.004945027
-0.00191381 -0.0041478523 0.00080140773 -0.006565332 0.0034052925 -0.002683063 -0.00026356627 0.0037154595
0.0071897586 -0.0046344935 0.009762817 -0.001284231 -0.00052302436 -0.0052457955 -0.0072065117 -0.001438978
0.0049325107 0.0008056917 -0.0047569186 -0.0009397961 -0.00023578129 -0.002699788 -0.0045324406 0.0020289
4.713697e-05 -0.0028510247 0.003949246 0.0015809154 -0.007814977 -0.0040094713 -0.00027471766 -0.0020317126
-6.43964e-05 -0.0066641443 -0.0027221222 0.001700602 0.006728219 -0.004961084 0.0038842873 -0.0052011856
0.0040147346 -0.0016875368 0.0007362673 0.0015893406 -0.00846618 -0.0017112067 0.0045697275 -0.00712084
0.004377788 -0.0035351 0.0012749546 -0.0022949819 -0.0020074025 0.005920576 0.0066684396 -0.0011052703
-0.007379788 -9.256431e-05 -0.0005129308 0.0019549644 -0.0056250487 -0.0058854604 -0.0019200128 0.002194135

layer1.1.running_mean f4 [128]
00000000: 4b1f a2c1 18a2 2041 2353 c7c1 15af 8d41
00000010: 1af4 2442 2175 b8c2 6532 2e42 d517 a442
00000020: 1e14 9842 24e8 2441 ae05 fa41 bd76 0742
00000030: b251 d9c2 1e1f 7ec1 9b7d f1c1 9f5b d4c2
00000040: 01d2 2e42 cbde 2042 afcd a7c2 3455 ce41
00000050: 1929 7742 8448 8d42 1434 9c42 6035 6042
00000060: 0aac adc2 5062 d741 af2d 4f42 5f49 0d43
00000070: 429e f4c1 3af3 0fc3 bdd0 9cc1 3899 1dc0
00000080: 940f 09c3 0fb8 4fc1 1fe3 b3c2 f5da 23c2
00000090: 142f 60c1 65b1 fb42 d705 c540 c725 eb40
000000a0: 03b2 43c2 b158 0dc3 a8b4 67c0 357c c142
000000b0: 8077 05c2 ddda 56c2 a3f4 6fc2 e3da 7442
000000c0: d638 1942 2efa 5d42 7ea7 31c1 b261 0142
000000d0: 681c a442 4620 1cc2 5fa0 6e41 964d cf42
000000e0: c8fd 15c3 e4d6 c841 65fe 36c3 1a19 5e42
000000f0: 2440 853f f957 1642 fcd1 82c2 edfd 9cc2
00000100: b6cb bfc1 d3b7 68c2 ba83 3641 66fd 0643
00000110: 1765 3a42 10a9 72c2 cbc9 2443 5f16 2142
00000120: 6390 aa42 23d4 4241 b754 e741 1cd5 05c2
00000130: efd2 b242 0072 bec1 fc4d 7042 7a19 5141
00000140: 313d 8dc2 94ab 8b42 f8e9 3bc2 bac3 d9c1
00000150: b5bd 5740 1f08 3e42 af6a adc1 e8ac e5c1
00000160: 961d 0841 bcb5 4fc2 fdd1 bcc1 f544 9ec1
00000170: 2fcc 3bc2 7d28 cec2 aad5 d241 9f13 b441
00000180: 1560 b5c2 82d9 b6c1 bc21 9ec1 b88d 8b42
00000190: 1231 06c1 4534 06c2 53a4 0a42 6da3 f542
000001a0: 037a 3e42 1036 2342 69fc 4a41 f5e6 f940
000001b0: 41bf a741 b1bd b242 7171 0ec2 1a09 e9c1
000001c0: 357a 5242 e610 a3c2 572d c1c2 660f 1d42
000001d0: ef6f 64c2 6ea5 7841 8974 0742 94e9 3442
000001e0: c11f 9ec2 2935 e5c1 7e35 18c1 d7f6 cfc2
000001f0: fcd5 d041 1515 02c2 cc94 f3c1 114c f942
-20.26528 10.039574 -24.915594 17.71049 41.23838 -92.22877 43.549213 82.04655
76.03929 10.306675 31.252773 33.865955 -108.65956 -15.882597 -30.18633 -106.17895
43.705082 40.21757 -83.901726 25.791603 61.790134 70.64163 78.101715 56.052124
-86.83601 26.923004 51.794613 141.2866 -30.577274 -143.9501 -19.601923 -2.4624767
-137.06085 -12.982436 -89.943596 -40.963825 -14.011494 125.84647 6.156963 7.3483615
-48.92384 -141.34645 -3.6204014 96.74259 -33.3667 -53.713734 -59.988903 61.213757
38.305504 55.494316 -11.103392 32.345406 82.05548 -39.031517 14.914153 103.651535
-149.99133 25.104927 -182.99373 55.524513 1.0410199 37.58591 -65.410126 -78.49595
-23.974468 -58.179516 11.40716 134.98984 46.59872 -60.6651 164.78825 40.271847
85.282005 12.176791 28.916365 -33.458115 89.41198 -23.805664 60.076157 13.06872
-70.619514 69.83511 -46.978485 -27.22057 3.3709538 47.50793 -21.677092 -28.709427
8.507223 -51.927475 -23.602533 -19.78367 -46.949398 -103.07908 26.354328 22.50958
-90.68766 -22.856205 -19.766472 69.776794 -8.38698 -33.551044 34.660473 122.81919
47.619152 40.802795 12.686624 7.809443 20.968386 89.37049 -35.610783 -29.129444
52.619343 -81.533005 -96.588554 39.265038 -57.10931 15.540388 33.863804 45.228104
-79.06202 -28.650957 -9.51306 -103.98211 26.104485 -32.520588 -30.447655 124.64857

layer1.1.running_var f4 [128]
00000000: 9a36 0744 95ad 8743 3385 8e43 edcb d043
00000010: 890c 5f44 3612 1045 9d8a 3c44 e06e d344
00000020: 800c f844 5dd3 9343 3a0d c843 4b10 2c44
00000030: 4363 4d45 eff5 d143 721d 7144 c7cf 6145
00000040: 4691 8744 f69b 2c44 1267 0f45 07a8 0b44
00000050: bf52 a344 1498 bc44 6ef0 ee44 2fbd 8744
00000060: 9cfe 3445 79b0 3044 5dae 7344 9aa3 a845
00000070: 9509 9943 4e18 a645 c83a 6d44 daad 4744
00000080: 8413 9d45 f1b0 dd43 bde5 1745 ed4d 1344
00000090: 2cac 6d43 c35e a045 a90b 8443 5fb4 0a44
000000a0: 6bc4 3b44 0d1b ba45 1dcb 9943 ccd0 2e45
000000b0: 7f64 2144 8409 6a44 fbb7 9744 8cf9 ab44
000000c0: 5700 1844 02c5 8544 fe91 4644 35df a944
000000d0: f3e7 0245 5093 2b44 0432 3643 5942 2745
000000e0: b42e af45 d06c e643 8b40 1046 73a5 8944
000000f0: 73a2 ad43 5c74 e843 f4e4 dc44 d924 1845
00000100: 2311 1f44 7387 9a44 8a48 1f43 e177 9345
00000110: 722b 4e44 1328 a844 a13b e545 d6e6 3a44
00000120: 0127 fe44 6ea9 1944 8e09 0d44 824e 1044
00000130: 75f3 2d45 62ad e843 3aef 9444 6d17 d143
00000140: cd69 c144 001e a844 2a2d 7844 51a3 eb43
00000150: 211e e643 3303 6e44 25cc a643 60c8 0a44
00000160: 1f85 af43 df70 b944 8583 cb43 e4e9 2644
00000170: 7086 9344 2d23 3a45 3036 2144 c214 b243
00000180: 7e6e 1145 3141 e243 149b fe43 a0f7 b944
00000190: 8b25 5b43 7767 7c44 205a 5344 d758 6c45
000001a0: 3ec6 7e44 3cb6 2044 44a5 8543 2b52 9243
000001b0: 33d1 1c44 54a1 0745 cd8b 5944 d587 f243
000001c0: 5095 8c44 ca1d e044 3a81 2745 319c de43
000001d0: 93e3 c944 8910 0644 5738 f643 9a0c 5144
000001e0: de30 0d45 4356 0844 b549 c243 8640 3e45
000001f0: b697 b543 7b69 d743 99d1 c043 e3c9 8945
540.85315 271.3561 285.04062 417.59317 892.19586 2305.1382 754.16583 1691.4648
1984.3906 295.65128 400.10333 688.2546 3286.2039 419.92136 964.4601 3612.986
1084.5398 690.4369 2294.442 558.6254 1306.5858 1508.7524 1911.5134 1085.912
2895.913 706.7574 974.7244 5396.45 306.07486 5315.038 948.91846 798.71643
5026.4395 443.38235 2430.3586 589.2176 237.67255 5131.845 264.0911 554.8183
751.06903 5955.3813 307.58682 2797.0498 645.57025 936.1487 1213.7494 1375.7983
608.0053 1070.1565 794.2811 1358.9752 2094.4968 686.30176 182.19537 2676.1467
5605.838 460.8501 9232.136 1101.1703 347.26913 464.90906 1767.1548 2434.303
636.26776 1236.2328 159.28336 4718.985 824.67883 1345.2523 7335.4536 747.6068
2033.2189 614.64734 564.1493 577.2267 2783.216 465.35455 1191.4758 418.183
1547.3063 1344.9375 992.7057 471.2759 460.23538 952.05 333.59488 555.13086
351.04 1483.5272 407.0275 667.65454 1180.2012 2978.1985 644.8467 356.16217
2326.9058 452.5093 509.21155 1487.7383 219.14665 1009.61664 845.4082 3781.5525
1019.09753 642.8474 267.29114 292.64194 627.26874 2170.083 870.1844 485.0612
1124.666 1792.9309 2680.0767 445.22025 1615.1117 536.25836 492.44016 836.1969
2259.0542 545.34784 388.57584 3044.0327 363.18524 430.82407 385.63748 4409.236

layer2.0.weight f4 [64, 128, 3, 3]
00000000: 8b93 40bc 7c15 b43c 542e e8bc efb9 9b3c
00000010: 2714 7d3c 4184 86bc ef36 92bc 508b 2b3c
00000020: 19af 103b 852c 503c 5332 a3bc 1127 123d
00000030: dfc7 41bc ca93 253b 2362 383c 989e 0d3d
00000040: ad61 81bb d396 5c3c f3a0 c6bc 1a97 143b
00000050: 869b ecba 18b6 babb 90cf 4f3c 147c d8bc
00000060: 4fa4 ac3c 8c2c e53b d5b0 81bc 6899 d83b
00000070: 87d7 0d3c c380 0fbc 0b55 b43c c7d6 133c
00000080: 7abe 243c 950f 0fbc 5cbe 853c 553d 75bc
00000090: 1503 b7ba 1019 5abc a076 77bb 54ef 85bc
000000a0: 012c bdbb 89f1 2e3c 0fe2 84bc 2b9b 2b3c
000000b0: 557e 78bc 28d3 8a3c 8ad0 8a3c e334 893c
000000c0: 386e 97bb 5dd8 d33c d29d a1bc 7962 af3c
000000d0: 4b3b ac3c 4ab1 6dbc d8bd 8a3c ec53 783c
000000e0: bed2 053d 2809 543c f1fe e13c c688 2cbc
000000f0: 24cd ed3b 901e d53c bfa4 40bc ae55 0e3c
00000100: 1b13 d73c e4cc d2bc e361 a33c 0281 1d3b
00000110: e773 91bc 176e db3b 133a 2c3b 5e43 8c3b
00000120: 46cf 623b 06ee 8c3c d426 9a3c 4b04 c83b
00000130: d165 d5bc 4a4c 093d 7a98 c73c 50c4 25bc
00000140: 4e98 ae3c 1dbf df3c a102 d23c cbea 083d
00000150: 9093 b2bc 6b5c 8cbc e114 9d3c d4c3 c4bc
00000160: b5f7 84bc cb49 5cbc 270c 9abc df83 6c3c
00000170: e099 a03c a727 a2bc 5b93 723c 3ccb d23c
00000180: 41ea 82bc 0c0c a4bc 7886 cebc dce5 813b
00000190: aebe 173c fe03 b1bc cf50 15bb 042a f6bb
000001a0: 3fc3 023d 7087 ca3c b5b9 f2bb 5088 bb3c
000001b0: 73fc 80bc 9614 da3c 41d9 ebba 8445 0e3c
000001c0: 4dd0 9abc 76e1 88bb 10c8 60bc 7c0a c03b
000001d0: c576 3bbc 9cdb cd3c 965d 8dbc a03d a4bc
000001e0: 4eef a4bc 7fc3 cc3c 56b6 453b 6e6b 343c
000001f0: bc41 2539 8de6 98bc ae95 d73b 3807 bbbc
00000200: 259c 3c3a 341f 973b 144b 89bb 412a 1fbc
00000210: addb e93c cc11 813c 2e45 86bc d048 2ebb
00000220: 8e8e d4bc b1de aeba 9231 7b3c 3a00 daba
00000230: a3dd 6e3c 022b ecbc 992c c93a 7fc3 30bc
00000240: 9de9 b03c 682c 633c 48ad a5bc 8704 6e3c
00000250: 92c5 ab3c 6f2e 87bc 4812 38bc 620f 06bc
00000260: b0da 6ebc f110 d5bb b233 a23c fd2a e4bb
00000270: 7e81 883c 8d37 523b d9ce 42bc d54f 203b
00000280: 1e77 86bb fab3 c63b b120 e03c f6f2 c9bc
00000290: 41a6 3abb 62e9 babc f216 863c 3d46 aa3c
000002a0: 119a 4db9 23a0 d1ba 348a b73c c4db a8bc
000002b0: 3382 2bbc 159d 9d3c 64ef 85bc 4676 023c
000002c0: 46e6 f23c 2f80 96bc cb84 f93b 6038 7eb6
000002d0: 67fb 7c3c 5ce1 fe3b 70bc 363c b58c 8cbc
000002e0: 3deb 63bc 01df a23b 557c 90bc ded0 c4bc
000002f0: 02cf 62bc 4b82 8bbc f901 10bc 4ceb d43c
00000300: e9c6 dabc 3c3a 55bb 9ac8 c2bc 0a68 e43c
00000310: 2938 9a3c 678e 75bc f2b4 f33c f6e8 ba3c
00000320: cd9e 66bc 3a21 80ba 1ff0 5e3c 8c7d e53c
00000330: 7387 40bc 85d9 d5bc c621 2cbc 5a09 a0bc
00000340: 152d 9cbb fda2 dfbc 2505 9a3c 4ee3 1ebc
00000350: 77c6 913c 3a2b dc3c 645e fc3c 708d 0d3d
00000360: b236 ed3b 6288 8c3c 1426 283c c94d f9bc
00000370: 60ab c43c f230 ca3c 9293 f5bc 22e7 6bb9
00000380: 8908 c1bc 8282 b6bc 427d 0d3d 568d 54bb
00000390: 0ad2 0a3d 0e37 223c c3a6 853c 5a31 8bbc
000003a0: 4271 9dbc e74e a2ba 57ef 2a3c 3bb2 48ba
000003b0: adef 52bc 1893 98bc 9331 9a3c c7f1 223c
000003c0: b460 143c babb 953b 2f3c ce3c b450 933c
000003d0: 83e3 eebc 8e35 553c b28c c5bc aef6 783b
000003e0: 5f98 7d3c e549 443c 2a01 e53c 10d4 62bc
000003f0: d1f2 e83c 56bf 6e3b 45fa 61bb 75a2 11bb
-0.011753927 0.0219829 -0.028342403 0.019009558 0.015446699 -0.016420485 -0.01784846 0.010470226
0.0022077023 0.012705927 -0.019921457 0.035681788 -0.011827438 0.002526509 0.011253866 0.034575075
-0.0039484114 0.013463694 -0.024246668 0.0022673071 -0.0018051721 -0.005697977 0.012683764 -0.026426353
0.021074442 0.006993836 -0.01583139 0.0066100843 0.008657343 -0.0087587265 0.022013208 0.009023375
0.010055179 -0.008731742 0.016326122 -0.014968236 -0.001396271 -0.013311639 -0.0037759915 -0.016349472
-0.005773068 0.010677704 -0.016221074 0.010474007 -0.015166839 0.01694639 0.016945142 0.016748851
-0.0046212934 0.025860006 -0.019728575 0.02140926 0.021024367 -0.014507601 0.016936228 0.015156727
0.032671683 0.012941636 0.027587386 -0.010530656 0.0072571207 0.02601555 -0.0117580285 0.00868742
0.026254227 -0.025732465 0.019944137 0.0024033193 -0.017755462 0.0066964733 0.0026279732 0.0042804917
0.0034608408 0.017203342 0.018817343 0.0061040274 -0.026049526 0.03352002 0.024364699 -0.010117605
0.021312859 0.02731281 0.02563602 0.03342704 -0.021798879 -0.017133912 0.019174995 -0.02401916
-0.016231397 -0.013445328 -0.018804623 0.014435737 0.019604623 -0.019794298 0.01480564 0.025731675
-0.015980842 -0.020025276 -0.025210604 0.003964169 0.00926177 -0.021608349 -0.0022783761 -0.007512333
0.031924482 0.024722785 -0.007407392 0.022892147 -0.015745377 0.026621144 -0.0017993824 0.008683566
-0.018898154 -0.0041772677 -0.013719574 0.005860625 -0.011441891 0.025129132 -0.01725654 -0.020048916
-0.02013364 0.024995564 0.0030168495 0.011011941 0.00015760114 -0.018664623 0.0065791225 -0.02283059
0.0007194898 0.004611874 -0.004189858 -0.009714664 0.028547132 0.015755557 -0.01639041 -0.0026593693
-0.025946882 -0.0013341514 0.015331643 -0.0016632148 0.0145792095 -0.028829101 0.0015348374 -0.010788797
0.02159577 0.013865568 -0.020224229 0.014527447 0.020968232 -0.016501633 -0.011234827 -0.0081823785
-0.014578506 -0.0065022637 0.01980004 -0.0069631324 0.01666331 0.0032076568 -0.011890137 0.0024461646
-0.0041035553 0.0060639353 0.027359338 -0.024651986 -0.0028480443 -0.022816364 0.016368363 0.020785445
-0.00019607718 -0.0015993159 0.022404768 -0.020612605 -0.010468054 0.019239942 -0.016349502 0.007962769
0.029650819 -0.01837167 0.007614707 -3.7881764e-06 0.015440798 0.00777833 0.011153325 -0.017156938
-0.013911066 0.004970432 -0.017637411 -0.024025377 -0.0138433 -0.017029902 -0.008789533 0.025991105
-0.026706176 -0.003253593 -0.023777295 0.027881641 0.018825607 -0.014987565 0.029749367 0.022816163
-0.014075947 -0.0009775527 0.013607054 0.028013967 -0.011751044 -0.026104698 -0.010506099 -0.01953571
-0.0047661164 -0.027299399 0.018801281 -0.009697748 0.01779483 0.02687608 0.030806728 0.034558713
0.007239186 0.017154876 0.010262985 -0.030432599 0.0240075 0.024681542 -0.029977594 -0.0002249745
-0.02356364 -0.022279028 0.034543283 -0.0032432876 0.033891715 0.009900821 0.01631487 -0.016991306
-0.019219045 -0.0012383134 0.01043304 -0.0007655953 -0.012874526 -0.018624827 0.018822467 0.0099453395
0.009056259 0.004569498 0.025175182 0.017982818 -0.02916122 0.013013257 -0.02411494 0.003798883
0.015478223 0.011980508 0.027954657 -0.013844505 0.028436096 0.0036429963 -0.0034481448 -0.0022222076

layer2.0.bias f4 [64]
00000000: 3389 88bc 99f7 603c c12b 1cbc a0e7 303b
00000010: 7573 ac3c ebc5 1f3a 04fd 043c 0d43 883c
00000020: 0d08 31bc 074b 18bc 4f37 9dbc f375 133c
00000030: d69c 84bb 90b9 b9bc e429 9f3c af24 f63c
00000040: f373 6a3c ad87 babc 3cc1 d1bc 5915 8f3c
00000050: 32fc 0e3b 4096 bb3c da4c 9ebc 68f6 af3c
00000060: 0387 623c d0f9 003c a4b5 71bc 75dd d83c
00000070: f090 93bb 0d32 843c bcfe 6d3c ff34 9dba
00000080: b6dc 7abc 6557 a93b c08a e4bc 2cdc 34bc
00000090: 7be6 d8bc cc09 0ebc 88cb df3b a895 cb3c
000000a0: a24f ebbc b3d6 d43c bb69 92bc 1fdd 533c
000000b0: 4aee adbb d6ab c3bb 3b0b 4d3a 7abb 56bb
000000c0: 751e d3bc fb45 823c d4f1 163c e4a5 1e3c
000000d0: c818 5e3c 174d 5cbc 78a1 6f3c ae2d d73b
000000e0: 471b ecbc 1526 8339 5423 e93c 5cea 403c
000000f0: e5d0 89bc 8f92 ef3b dbb5 583b 9823 9bb6
-0.016666984 0.013730907 -0.009531916 0.0026993528 0.021051148 0.0006094861 0.008116964 0.016633535
-0.010805142 -0.009295232 -0.019191412 0.009000289 -0.0040470166 -0.02267149 0.019429155 0.030046789
0.014309871 -0.022769773 -0.025604837 0.017466234 0.00218178 0.022898793 -0.019323755 0.0214798
0.013826135 0.00787206 -0.014752779 0.026472786 -0.004503362 0.016137147 0.014526065 -0.0011993943
-0.015311411 0.005167889 -0.027898192 -0.011038821 -0.02647709 -0.008669328 0.0068296827 0.024851635
-0.028724495 0.025981283 -0.017872682 0.012931137 -0.0053079473 -0.005971412 0.0007821803 -0.0032765553
-0.025771359 0.01590251 0.00921293 0.009683106 0.013555713 -0.013446114 0.0146258995 0.0065667247
-0.0288216 0.0002501464 0.028459229 0.011774626 -0.016823241 0.0073111723 0.0033067379 -4.6235036e-06

layer2.1.weight f4 [64]
00000000: 4e5f 5e3f e7b4 313f e001 3d3f 4316 f83e
00000010: 2475 4a3f 765a 2b3f c0b3 2d3f d6dc b83e
00000020: f85a 683e 60a3 e63e f316 2b3f 40ee 633d
00000030: f8f6 d43d c612 b13d 5703 753d 9279 063f
00000040: 62a3 1b3f d4b2 4d3c 889b 253e cb1b 1f3f
00000050: 112d 8f3e 4dd3 6e3f 6b44 fd3d f9bd 343f
00000060: 6fc0 1e3f ceb2 433f 9bee 1f3f 808e 283f
00000070: 354f 4e3f 3773 4a3f 2336 1c3e b1a0 043f
00000080: f698 6a3d 79bc 783f 5302 743d 2f1e a83e
00000090: ee1d e13d 4401 1b3f 53de 503f 73c1 333f
000000a0: a9f8 043f 3f22 3e3d f994 ed3d f1d5 5f3e
000000b0: 9e73 6d3f f8cc a13c d83e d43e c9bb 993e
000000c0: 2891 293e 8e4c 4fbb 5138 943e d333 6f3f
000000d0: f142 023f fcad 543f 641e 313f 7097 523f
000000e0: a301 0c3d e196 6c3f 91c0 613f cc15 6c3e
000000f0: 8a2d 663f f077 9f3e e9f2 793f b21e 3b3f
0.86864173 0.6941666 0.73830986 0.48454484 0.7908499 0.6693491 0.678524 0.36105984
0.22690952 0.4504652 0.6683189 0.055647135 0.10398668 0.08646159 0.05981764 0.5252925
0.6079618 0.012554843 0.16172612 0.62151784 0.2796407 0.9329117 0.12366565 0.70602375
0.6201238 0.7644471 0.6247346 0.6584244 0.8058961 0.79082054 0.15255027 0.51807696
0.05727478 0.97162586 0.05957253 0.32835528 0.10992037 0.60548806 0.8158924 0.70217055
0.51941925 0.04641938 0.1160068 0.21858956 0.9275454 0.019751057 0.41454196 0.3002608
0.16559279 -0.0031631324 0.28949216 0.9343845 0.50883394 0.8307798 0.69187 0.82262325
0.03418125 0.9241772 0.8818446 0.2305519 0.8991324 0.31146193 0.97636276 0.7309371

layer2.1.bias f4 [64]
00000000: 4bf7 c4bb 838b d7bb 3227 30bb c1e0 05bb
00000010: 40ee 0f38 b374 9fba 033a 0b3c d01c bb3a
00000020: 269a c2ba ee1e edba 008e 88b6 701b 233a
00000030: f40f 8b3b 244b acbb 3a59 aa3a 57f9 8ebb
00000040: d15b 33bb e437 52ba 6da1 0d3b 9076 d8ba
00000050: 20a9 163a 12cc e7ba ae76 dbbb 78c1 5a3a
00000060: 176c f2bb 6c81 b63b 758d 113c b062 3739
00000070: efc7 3d3b 44af d53a 80ef a3bb 6813 c2ba
00000080: 65ff fe3b 5f9d 053b 13ca 0a3c cc3f 073c
00000090: a5fb 8cbb 25a7 8dbb 9a12 b6bb baaf c13b
000000a0: 81ef aaba 2448 54bb adb5 8eba cb49 1ebb
000000b0: b0f6 eb3b d0c0 90bb 75f8 f1bb f431 cc3a
000000c0: b576 ccbb 5232 0a39 16b6 f6bb 0664 1abb
000000d0: 6d88 213c 411f cdb9 4ad4 02bb e315 063c
000000e0: fa8a dd3b 29ed 7ebb e21e 69bb cd6a bb3a
000000f0: e06b c1bb f3b8 bc3a 7667 98ba 47ba 0d3a
-0.006010925 -0.0065779104 -0.002687883 -0.0020428153 3.4315744e-05 -0.0012165516 0.008497718 0.0014275555
-0.0014846965 -0.0018090883 -4.069647e-06 0.0006222045 0.004243845 -0.005257981 0.0012996562 -0.0043632197
-0.002736796 -0.00080191926 0.002161111 -0.0016514827 0.00057472475 -0.0017684719 -0.0066974973 0.0008344869
-0.007398139 0.0055696275 0.008883824 0.00017489004 0.002895828 0.0016302844 -0.005002916 -0.0014806809
0.0077819102 0.002038799 0.00847103 0.008254956 -0.0043024593 -0.0043229037 -0.0055564167 0.005910841
-0.0013041348 -0.0032391632 -0.0010887884 -0.002415287 0.0072010383 -0.0044175163 -0.0073843547 0.0015578852
-0.006239737 0.00013179451 -0.0075290306 -0.0023558154 0.009859187 -0.00039123933 -0.001996296 0.008183929
0.006760952 -0.0038898683 -0.0035571386 0.0014298797 -0.0059027523 0.0014398381 -0.0011627513 0.00054064806

layer2.1.running_mean f4 [64]
00000000: 8af6 123f eb11 143e bf6d 333e acdc 3e3e
00000010: 5308 2ebe b0c5 0dbe c677 e23e 699c 043f
00000020: 6e78 173f 3ba2 2d3e f5ad c43e 91b6 16bf
00000030: c41e b33e dcc7 673c 2eb5 8fbd a7d8 bb3d
00000040: 865e eb3e ff0b 00be 29ae 233e 86b0 95bc
00000050: 8dd7 2f3e 5859 ff3d cd1a a73d 3b22 31bd
00000060: be1d c8be a124 003e 9934 d13e 2691 aa3d
00000070: f7b7 193f 3288 a03e 2dce 62bd fac7 f9be
00000080: 2bc3 143e 2d7d 593e e132 4c3d 74bd d53c
00000090: 8fc7 073e 8212 18bf 0d66 7fbe 794e f73e
000000a0: 5633 3dbe b5de 943e 8d8f 173f df65 65bf
000000b0: a241 473b 8436 263f dad6 d13d 72bd 60bf
000000c0: 56fe 2a3e 3d98 c13e c083 58bc 7c2a 753e
000000d0: ba36 513d a84c 903d e830 4cbf d9d6 a03d
000000e0: 81af bd3e eeae c4bd 2a5d 983e 668f 6a3e
000000f0: b18b 05be 98bf 53bf 10a6 1fbf d07d a73d
0.5740744 0.1445996 0.17522334 0.18638867 -0.16995363 -0.13844943 0.44232005 0.5180116
0.59168136 0.16956417 0.3841397 -0.58872324 0.3498441 0.014146771 -0.07016979 0.091721825
0.45970553 -0.12504576 0.15984406 -0.01827265 0.1717207 0.12468213 0.08159409 -0.043245535
-0.3908519 0.12513973 0.4086044 0.08328466 0.60046333 0.3135391 -0.055372406 -0.48785383
0.14527576 0.21239157 0.04985321 0.026091315 0.1325972 -0.5940324 -0.24941273 0.48302057
-0.18476614 0.29076162 0.59203416 -0.8960857 0.003040411 0.64926934 0.10246058 -0.8778907
0.16698584 0.3781146 -0.013215005 0.23941988 0.051077582 0.07045871 -0.79762125 0.07853479
0.3704796 -0.09603678 0.2975858 0.22906265 -0.1304157 -0.82714224 -0.62362766 0.08178294

layer2.1.running_var f4 [64]
00000000: 870f e23e 446d ad3e 73ba b23e 8cad b43e
00000010: 76af 083f 1069 e33e faa5 e33e 4507 cf3e
00000020: 46f5 e33e 6c17 df3e 9247 cb3e 9b5a 3a3f
00000030: 5ff9 ed3e 1ad9 3b3f 4ba7 ae3e a9b4 143f
00000040: 58ec 063f 8df4 193f dd65 cc3e f095 b43e
00000050: e2d7 d13e 0cbc b63e 262a e23e 0282 a93e
00000060: 9040 f43e de0e e93e b0a3 083f 89e1 c83e
00000070: f340 e33e 39a1 d03e 84f1 0f3f c612 2a3f
00000080: 445c f53e 0b70 bf3e c83a b73e 3637 b53e
00000090: 4b0e 2c3f 0f5a 233f 33b5 d13e 2bc0 e03e
000000a0: 5bfc 263f 6032 253f a7f5 f63e 7058 0b3f
000000b0: 3195 bc3e ea5c fc3e 2ebc d13e 8221 113f
000000c0: e989 f03e f84e c73e c963 c43e cde9 ea3e
000000d0: 4189 fb3e 699c c33e 781a 203f 1616 bc3e
000000e0: 2762 d63e fcb3 513f f72f c13e 3df5 023f
000000f0: df97 353f 4a09 1e3f eef7 323f a287 b13e
0.4415247 0.33872426 0.34907874 0.35288656 0.5339273 0.44416094 0.44462568 0.40435234
0.44523066 0.43572557 0.3970304 0.727945 0.46479318 0.73378146 0.3411201 0.58088166
0.5270438 0.6013878 0.39921466 0.35270643 0.40985018 0.35690343 0.44172782 0.33107
0.47705507 0.45519155 0.5337477 0.3923457 0.4438549 0.40748003 0.562279 0.66434896
0.47921956 0.3739017 0.35787034 0.35393685 0.6720931 0.63809294 0.40958557 0.43896613
0.65228814 0.6452999 0.48234293 0.5443182 0.36832574 0.49289638 0.40963882 0.56691754
0.46980217 0.38927436 0.3835738 0.458815 0.49128154 0.3820527 0.6254039 0.367356
0.4187176 0.8191526 0.37731907 0.51155454 0.7093486 0.61732924 0.6990956 0.34673792

layer3.0.weight f4 [32, 64, 3, 3]
00000000: 3cd1 e1bc e2e7 08bd eb55 713c 9fe5 22bd
00000010: f9de be3c 49f6 ac3c cc7b c63c 21e5 51bb
00000020: 6ff2 ffbb bfcf 45bc 622f 1c3d 1439 e6bc
00000030: c0e6 d03c 9527 f93b 2eb3 07bc eebc 51bc
00000040: 2a22 45bc fc80 9d3c 723f e1bc 2115 153d
00000050: 592a 1f3d 99f9 583a 2681 c53c ea37 f33c
00000060: 5f91 1dbd c880 573c d424 3b3d c663 18bb
00000070: 0e07 bc3b 4817 ccbc 41ec 5f3a cefd 1b3d
00000080: 9ef7 0dbd 0e44 25bd adbb 043d 5050 2d3d
00000090: 202d 003c 79b2 dcba 20e5 323c 99f0 873b
000000a0: 9c18 5f3b 502b 143d e25e 3cbc 9a0b c13c
000000b0: b8a1 123d 11d0 8b3b 1a86 c0ba 1f8e 37bd
000000c0: 036b f43b 90a7 a6b9 ab8b f5bc 67c0 47bd
000000d0: 7214 8bbc 926b 093b 9206 fb3c 364a e83a
000000e0: bf88 c33b 37ce fc3c 1575 37bc 40c0 a6bb
000000f0: c04e 113c ed40 3dbb 03a8 da3b 571a 1abd
00000100: fc78 29bd 20b6 1c3c 3aec 51b9 78c3 1dbd
00000110: e8cd ecbc 768c b83c a7a7 1dbd 8593 0a3d
00000120: 0916 c93c 5e21 06bd 9768 a5bc 459c 993b
00000130: 0928 8c3c e941 e5bc f95d b9bc cf56 583c
00000140: fd45 b5bc 0225 6e3c 440f 6fbc 94b4 29bd
00000150: c4a5 04bc a5ef 40bc 3f91 f8bc de5c d5bc
00000160: c1b2 7bbc 3caf 8c3c 3aa7 53bc 5ec9 343c
00000170: 02ce 24bd 4c9c 0cbd b1a7 b83b 1593 e5bc
00000180: 67df ca3c 04d8 69bc 4ed5 8e3c f2a0 28bc
00000190: 5123 e7bc e61a cc3b 0e6c 0fbd 90b7 f63b
000001a0: 4c82 9a3c 9fe1 9dbc dae7 7d3c 95ee 8e3b
000001b0: 60bf 043d d857 79bc da39 0c3d 9f33 02bc
000001c0: 5ab9 ccba b05f 513c d33c 2c3d 468c bcbc
000001d0: ffe5 44bb d67b 91bc f3d3 293c 0149 87bc
000001e0: 2e59 0d3d cd9f 56bc dcff a9bc fb6c 72bc
000001f0: eacb 08bb bfa1 2bbd e3ee 5d3c 35ee 35bd
00000200: 1996 be3c 63ec 063d 79af a63c 0a08 c8bc
00000210: 9b98 e93c cd64 0b3d 59ce 0e3b 4d18 8abc
00000220: ed28 ac3b 05ae e73c a779 8b3c 9326 df3c
00000230: 4078 b0bc 5f13 c1bc ac2f 763c 58a8 1a3c
00000240: 5678 a13c 6f6e 9d3c 7571 babc 0abb 52bc
00000250: 558a c73b a87f f93c 0bda 04bd 6eef d63c
00000260: 15b5 06bc a10c d1bb 1abd 843c 1da1 093b
00000270: eac1 85bc 56b8 fb3b d57d bc3c 1d71 84bc
00000280: 4364 92bc a683 c3bc 3f21 8cbc 6324 c0bc
00000290: fb03 efbc b743 0e3d fe46 42bc dfdd 9dbc
000002a0: 3460 bcbc af9f b73c 2fbe 853c d6e5 4cbc
000002b0: 4de7 013d d582 af3c 47fa 0a3d e341 d13c
000002c0: d9a4 d5bc 55d2 00bd ade1 d43c e663 d33b
000002d0: e50c 023c 1280 c13c 3bdd 9d3b 9dff b83c
000002e0: e1f5 11bd 1d31 d7bc b227 253c c890 a23a
000002f0: dcf5 cabc bc00 d83b 46c3 a0bc bf5c 1a3d
00000300: 6f14 bc3c 562f 533c 31a0 453c ed17 a9bc
00000310: 6585 2f3d 8688 e83c 1a11 0dbd 3bb6 8ebc
00000320: 946c 90bc acfc 1dbd 7fb5 183d c04a 09bd
00000330: 3b71 d63b e2a4 09bd 6c85 b9bc 54ad c0bc
00000340: d9fb 2f3d 7caf 19bd 1520 12bc 3de1 343d
00000350: 511e dd3c 140f 163d c8b8 d93c daa0 debb
00000360: 2588 c83b 834e 733c ca78 34bc 1951 2dbc
00000370: 2557 b1bc 1b0d 7c3b 6eff 66bb 151a f0bb
00000380: e70e 74bc fc53 ed3c 7da9 f43c defb 3b3d
00000390: a707 693c 3ca8 563b 8f50 413d d2e5 0dbd
000003a0: 0f2a 133d 4dff 98bc f08d 4e3c f547 c33c
000003b0: 364d 0d3c c8da d7b8 128f 1fbb b436 b4bc
000003c0: 2f5a 40bd b791 91bc f508 08bd c39b eb3c
000003d0: dfb2 5ebc b7c9 c1bc 9932 013d 55d3 133d
000003e0: 5fdc 8eba 9bcb babc d851 a8ba c312 a73c
000003f0: 22dd fd3c a639 d33c eea4 f33c d6ab ad3c
-0.027565591 -0.033424266 0.014729957 -0.039769765 0.023299681 0.021113532 0.024228953 -0.003202744
-0.0078108828 -0.012073456 0.038131125 -0.028103389 0.025500655 0.0076035955 -0.008282466 -0.012801392
-0.012032071 0.019226544 -0.027496073 0.036397103 0.038858745 0.0008276939 0.024109434 0.029689748
-0.038468715 0.013153262 0.04568942 -0.002325283 0.0057381457 -0.024913445 0.00085419795 0.038083844
-0.034659974 -0.040348105 0.032405544 0.04231292 0.007823259 -0.0016837857 0.0109188855 0.0041485545
0.0034041768 0.03617412 -0.011497231 0.023565102 0.03579876 0.004266747 -0.0014688403 -0.04481327
0.007459046 -0.0003178683 -0.029973825 -0.048767474 -0.016977523 0.0020968658 0.030642781 0.0017722312
0.005967229 0.03086005 -0.011197348 -0.005088836 0.008868873 -0.002887781 0.0066728606 -0.037622776
-0.041375145 0.009564906 -0.00020019794 -0.03851649 -0.028906778 0.022527914 -0.038489964 0.03383209
0.02454664 -0.032746665 -0.020191474 0.0046878182 0.017108934 -0.02798553 -0.022627817 0.0132042905
-0.0221281 0.014535191 -0.014591042 -0.04143198 -0.008096162 -0.011775886 -0.030342696 -0.02604526
-0.0153624425 0.017173402 -0.012918288 0.011034338 -0.040235527 -0.034328744 0.0056352247 -0.028024236
0.02476473 -0.014272694 0.017435696 -0.010292279 -0.028215082 0.0062287925 -0.03501516 0.0075292066
0.018860959 -0.019272624 0.015497172 0.0043619373 0.032409072 -0.0152186975 0.03423486 -0.007946878
-0.0015619204 0.012779161 0.042050194 -0.023016106 -0.0030044315 -0.017759245 0.010365474 -0.016514303
0.034508877 -0.013099623 -0.020751886 -0.014796491 -0.0020873495 -0.0419023 0.013545725 -0.044416625
0.023264932 0.03294028 0.020347344 -0.024417896 0.02851515 0.034031678 0.0021790473 -0.01685729
0.005253902 0.028281221 0.017025782 0.027240073 -0.021541715 -0.023568807 0.015026014 0.00943955
0.019710701 0.019217698 -0.022759179 -0.012861976 0.0060894885 0.030456379 -0.032434504 0.026237216
-0.008221884 -0.0063796793 0.016203452 0.0021000572 -0.016327817 0.0076818867 0.02300922 -0.016167218
-0.017870074 -0.023866486 -0.017105697 -0.02345485 -0.029176703 0.034732547 -0.011857746 -0.019270835
-0.022995092 0.02241501 0.016326038 -0.012505969 0.031714726 0.02142469 0.03393009 0.025544113
-0.026079582 -0.03145059 0.025986517 0.006451118 0.007937645 0.023620639 0.0048176325 0.022582823
-0.03563488 -0.026268536 0.010080265 0.0012402767 -0.024775438 0.0065918844 -0.019624364 0.037686106
0.022958962 0.012889704 0.012062118 -0.020641292 0.042851824 0.028385412 -0.034440137 -0.017420879
-0.0176299 -0.038571045 0.037282463 -0.033518553 0.00654426 -0.03360451 -0.022646628 -0.02352015
0.04296479 -0.03752087 -0.008918782 0.044160116 0.026991995 0.036635473 0.026577368 -0.0067940773
0.0061197453 0.014850262 -0.0110151265 -0.010578417 -0.021647999 0.003845996 -0.0035247463 -0.007327328
-0.014896131 0.028970711 0.029865975 0.045894496 0.014223016 0.0032754084 0.047195967 -0.034643
0.035928782 -0.018676424 0.012607083 0.023838023 0.008624366 -0.0001029275 -0.002434675 -0.02199874
-0.046961006 -0.017769678 -0.033211667 0.028760796 -0.013592451 -0.023655755 0.031542394 0.036090214
-0.0010899416 -0.022802165 -0.0012841774 0.020394688 0.030989233 0.025784325 0.02974173 0.021200102

layer3.0.bias f4 [32]
00000000: 1ab1 34bc 1214 073d bc34 ab3b 314c 95bc
00000010: 396a 443a 9863 82bb 1e2d 29bb e96c 6bbc
00000020: 3951 6bbc e823 17bd e0e6 073d 5ba7 d0bb
00000030: e09c 1d3d c511 f63b a4f0 c53c ebef 783c
00000040: 71cd 013b 51d4 ea3b 666a f1bc 6083 7ebc
00000050: 99d0 7cbc 5649 9ebc 3187 8c39 6d77 c13c
00000060: 4677 c23c ae4b 693c 922c f03c a5be 6bbc
00000070: e94a 91bc 1375 e03b c272 223d 04c5 29bd
-0.011028552 0.032978125 0.0052247923 -0.018224807 0.0007492635 -0.0039791577 -0.0025814245 -0.014369228
-0.014362627 -0.036899477 0.033179164 -0.0063676066 0.038479686 0.0075094425 0.024162598 0.01519392
0.001980629 0.0071664234 -0.02946968 -0.015534252 -0.015430593 -0.019322079 0.00026803606 0.023616517
0.023738515 0.014239235 0.029318128 -0.014388715 -0.017735915 0.006849894 0.039660223 -0.041447654

layer3.1.weight f4 [32]
00000000: d847 003f 06b6 8d3e d3c4 6d3f 1963 603f
00000010: 50d5 4e3f dc67 fc3e feec 163f 7b21 193f
00000020: b751 133f 753a 253f b6e5 e13d f8b7 963e
00000030: 5458 443f 4790 093f 0d98 bc3e 80ef 813e
00000040: 0a87 983e 86fb 803f b1d4 293f f32e f43e
00000050: ee30 0c3f c048 033f 97e1 df3e cabe 4b3d
00000060: dc4f 6e3f d29b 0c3f 14d5 3f3f d602 1a3f
00000070: ddec 253f ab0d 7d3f 0970 c03d 50d2 e53c
0.50109625 0.27677935 0.92878455 0.8765121 0.8079424 0.49297988 0.5895537 0.5981671
0.5754656 0.64542323 0.11030142 0.29437232 0.7669728 0.53735775 0.36834756 0.25378036
0.29790527 1.0076759 0.66340166 0.4769207 0.5476216 0.5128288 0.437268 0.049742498
0.93090606 0.5492526 0.74934506 0.6016058 0.6481455 0.9884898 0.09396369 0.028054386

layer3.1.bias f4 [32]
00000000: ed17 dc3b b829 253c 7532 6dbb d0b4 1a3c
00000010: 45e2 a43b 608b 0c3c 8db2 9dbb 968b aebb
00000020: 3236 5ebb 5c15 143c 998a c53b ddce 2cbb
00000030: b50b a3bb ef6f ebbb eb32 87bb eadf 123c
00000040: c64a f23b 9b9f 1d3c 27fe b5bb c5f9 a33b
00000050: 9a2f 88ba 17e2 ca3b 5dc3 11bb eb85 e6ba
00000060: dddc bebb d2b6 d0bb 9883 75bb 7900 bdbb
00000070: ffe9 edba c5d4 a03b 60fa 29b8 240c 4aba
0.0067167194 0.010080747 -0.0036193405 0.009442523 0.0050318562 0.008578151 -0.0048125447 -0.0053266985
-0.0033906815 0.009038296 0.006028485 -0.0026368417 -0.004975761 -0.0071849744 -0.004125943 0.008964518
0.0073941676 0.009620572 -0.005553979 0.00500414 -0.0010390163 0.006191503 -0.002224169 -0.0017587518
-0.005824669 -0.00636945 -0.003746247 -0.0057678786 -0.0018151401 0.0049081766 -4.052592e-05 -0.00077074976

layer3.1.running_mean f4 [32]
00000000: 2869 c13e 2846 4a3e 5376 6c3e d098 c43e
00000010: 84cf b5be 6bdc 803e 9871 a3be 02e4 533c
00000020: 9a38 97be 9ec1 9f3e 888d b3be 90f0 ad3b
00000030: 99c7 96ba 2c36 4b3e a03d 803e d2a7 8b3e
00000040: 78e2 103e f4c2 a83d 1349 363e 2549 ae3e
00000050: 6bd2 abbe 38ca c53e 94d9 15bf 2b57 1f3e
00000060: 2d27 82be 9736 7abe 2be7 673e e2aa cfbe
00000070: ef0d e4be 0cb2 ab3d 5b72 d4bd 4d27 b33d
0.3777554 0.19753325 0.23092012 0.38397837 -0.35509884 0.25168166 -0.31922603 0.012932779
-0.2953537 0.31202406 -0.35068917 0.0053082183 -0.0011503577 0.19844884 0.25047016 0.27276474
0.14148891 0.08240309 0.17801313 0.3404018 -0.33558974 0.38630843 -0.5853512 0.15560596
-0.25420514 -0.24434887 0.22646777 -0.4056006 -0.4454188 0.08383569 -0.10373374 0.087477304

layer3.1.running_var f4 [32]
00000000: 7e0a 033f 5fdb cb3e d587 b43e c4dc 033f
00000010: fe01 113f 8d5a dc3e 63a4 fc3e eb40 b63e
00000020: 1ec6 ad3e d81c 2d3f 6021 1a3f fd9e b13e
00000030: ba39 c83e 32d3 d23e 2010 aa3e 3d04 e73e
00000040: 0c98 ea3e eb79 b73e 8096 b93e 7204 ce3e
00000050: 146b 033f 3a0d f03e c447 fa3e f08f b53e
00000060: b4a0 dc3e 45a2 093f 0450 fd3e 944c 0f3f
00000070: 508a 103f 6466 c53e 128c 9e3e 9c19 af3e
0.51187885 0.39815804 0.35259882 0.51508737 0.56643665 0.43037835 0.49344167 0.35596403
0.33940214 0.6762214 0.60207176 0.3469161 0.39106542 0.41176754 0.33215427 0.4512042
0.45819128 0.35835204 0.36247635 0.40237767 0.51335263 0.4688509 0.48882878 0.35461378
0.43091357 0.5376323 0.4947511 0.55976224 0.5646105 0.3855468 0.3096624 0.34199226
