model.pt (torch_old, 801939 bytes, 32 tensors)

layer1.0.weight f4 [128, 3, 3, 3]
0	0x3c60b9a2	0.013716133
1	0xbd1ec83e	-0.038765185
2	0xbe0570d3	-0.1303132
3	0x3d9b128a	0.075718954
4	0x3d9ce299	0.076604076
5	0xbde022c8	-0.10944134
6	0xbd97956d	-0.074015476
7	0x3dcbbed0	0.09948504
8	0x3d970257	0.07373493
9	0xbc7e07e8	-0.015504815
10	0x3de75932	0.112963095
11	0x3e2e40b5	0.17016871
12	0x3df5a284	0.11993888
13	0x3dd16bd1	0.102256425
14	0x3bbb7fa1	0.0057220017
15	0xbe2f65a4	-0.17128617
16	0x3e2be541	0.16786672
17	0x3e3c0f60	0.1836524
18	0xbd3d5c65	-0.046230692
19	0x3df0183e	0.11723374
20	0x3de2a528	0.11066657
21	0x3ddc4fd8	0.107574165
22	0xbe073738	-0.13204658
23	0x3e149f05	0.14513786
24	0x3ce91226	0.028451037
25	0x3dd547ec	0.10414109
26	0xbdd90c92	-0.10598101
27	0x3dba6e33	0.0910305
28	0x3d9b5117	0.07583826
29	0xbd0515ba	-0.032491423
30	0x3e085f80	0.1331768
31	0x3db025d9	0.08600969
32	0x3e16bae4	0.1471973
33	0x3d1d3474	0.0383801
34	0x3d53ae08	0.05167964
35	0xbdeb31e8	-0.11484128
36	0x3e295ac9	0.16538538
37	0x3e0d1c9c	0.13780445
38	0x3c5e0f99	0.013553523
39	0x3e029117	0.1275066
40	0xbdf175fe	-0.11790083
41	0x3e3cc050	0.18432736
42	0xbe0ee30d	-0.139538
43	0x3dda004e	0.10644589
44	0x3e29db23	0.165875
45	0xbe370c0e	-0.17875692
46	0x3deca1af	0.11554276
47	0x3c0e0220	0.008667499
48	0xbda88c59	-0.08229894
49	0xbe259b71	-0.16172577
50	0xbe13dfad	-0.14440794
51	0xbc27adc8	-0.010234304
52	0x3de2e8da	0.11079569
53	0x3e315ee8	0.1732136
54	0xbd79db54	-0.061000183
55	0xbe39e25e	-0.18152758
56	0xbd00ca33	-0.031442832
57	0xbb3f6612	-0.0029205126
58	0xbdd51c57	-0.10405796
59	0x3e1626ed	0.14663287
60	0x3c3e9b71	0.01163374
61	0x3e01d3c6	0.12678441
62	0xbe237fa6	-0.15966663
63	0x3d513ebc	0.05108522
64	0x3bbb8ad5	0.005723337
65	0x3bfcafb0	0.0077113733
66	0xbd803071	-0.062592395
67	0x3e01c798	0.12673795
68	0xbe428d0f	-0.18999122
69	0x3e0ddda6	0.13854083
70	0x3d1dd2f2	0.03853125
71	0xbdf818ba	-0.12114091
72	0x3dac4a1d	0.084125735
73	0xbe157bf7	-0.1459807
74	0xbd109fe0	-0.03530872
75	0xbdd4cd4b	-0.10390719
76	0xbdd3b589	-0.103373595
77	0xbd4fb904	-0.050713554
78	0xbd9c3894	-0.07627979
79	0x3db247e9	0.08705122
80	0xbe3adef5	-0.18249114
81	0x3e0aa48e	0.13539335
82	0x3d02b108	0.03190711
83	0xbdad5454	-0.0846335
84	0xbdabec95	-0.08394734
85	0x3e254991	0.16141345
86	0x3de54e2a	0.11196549
87	0xbe41eded	-0.18938418
88	0xbe18a2ea	-0.14905897
89	0xbcc2f11a	-0.023796607
90	0x3d6d0432	0.05786533
91	0xbe032661	-0.12807609
92	0xbd754427	-0.05987945
93	0x3d46c3a1	0.04852641
94	0x3cdb7f30	0.026794046
95	0x3e3da72b	0.18520801
96	0x3df6e4f0	0.12055385
97	0xbe0d49b7	-0.13797651
98	0x3df6a0d8	0.12042397
99	0x3de5bbb3	0.112174414
100	0xbe1a8e6a	-0.15093389
101	0xbe3f62cc	-0.18690032
102	0x3d1364bb	0.035984736
103	0xbd0452f8	-0.032305688
104	0x3d8a2cdb	0.06746837
105	0xbe3be3d1	-0.18348624
106	0xbd60fd50	-0.054929078
107	0xbdb9f102	-0.09079172
108	0xbd0bab31	-0.034098808
109	0xbe3d3697	-0.18477856
110	0x3d22c887	0.03974202
111	0xbe0497da	-0.12948552
112	0xbda2e052	-0.07952942
113	0x3d8c8b3e	0.06862496
114	0x3d8c44de	0.06849073
115	0x3e4121ed	0.18860598
116	0x3d23e653	0.040014576
117	0x3d6c7684	0.057730213
118	0x3cb998a0	0.022655785
119	0x3e0e8474	0.13917714
120	0x3d6f3e6d	0.058409143
121	0x3dae4592	0.08509363
122	0xbd29b4de	-0.041432254
123	0xbd6a2b15	-0.057169992
124	0xbd6cbfa8	-0.057799965
125	0x3e216706	0.15761957
126	0x3c30e0c9	0.01079578
127	0xbd9222af	-0.071355216
128	0x3dbaf78f	0.09129249
129	0xbdb54996	-0.08851926
130	0x3e1a442f	0.15065072
131	0x3d8feb4e	0.07027303
132	0x3b5c4508	0.0033610482
133	0x3e333738	0.17501533
134	0xbdecd062	-0.11563183
135	0xbe2ad8e5	-0.16684301
136	0x3d9c7ea7	0.076413445
137	0x3cb042fb	0.021516314
138	0x3ddb9b99	0.10723037
139	0xbcb38e29	-0.021918373
140	0xbe22639d	-0.15858312
141	0x3d9fc2a3	0.07800796
142	0x3e3ae82f	0.18252634
143	0xbe10beb6	-0.1413525
144	0x3e161d31	0.14659573
145	0xbd0a3fd8	-0.033752292
146	0x3dc5f316	0.096655056
147	0xbdb9ca88	-0.09071833
148	0x3cc928a9	0.024555521
149	0xbdfcbf0b	-0.12341126
150	0xbc67d8b2	-0.014150785
151	0x3dcbe3f7	0.0995559
152	0x3dd17d7a	0.10229011
153	0x3e2e12cd	0.1699936
154	0xbe087bc0	-0.13328457
155	0x3dc59aca	0.09648664
156	0xbd440672	-0.04785771
157	0x3dc01003	0.09378054
158	0xbdfcb5ed	-0.12339387
159	0x3e2ead2a	0.17058244
160	0x3e130caf	0.14360307
161	0x3e102cbe	0.14079568
162	0x3de0300e	0.10946666
163	0xbc8bdc74	-0.017072894
164	0x3cc1007c	0.023559801
165	0x3c3d6533	0.011559772
166	0x3dd24a6a	0.102680996
167	0x3dab789a	0.08372612
168	0xbd830040	-0.06396532
169	0xbda78ed5	-0.0818154
170	0x3b87c3b8	0.0041432045
171	0x3defe9d6	0.117145225
172	0xbdbd7aef	-0.09251963
173	0x3e2d7bb5	0.16941722
174	0x3e2f0230	0.17090678
175	0x3df39350	0.11893332
176	0x3c638622	0.01388696
177	0x3e2278ed	0.15866442
178	0x3d62d909	0.055382762
179	0x3caa7e6c	0.020812236
180	0x3c5ac5f5	0.013352861
181	0x3c7f44a6	0.015580332
182	0x3daced61	0.08443714
183	0x3cf36a1f	0.029713688
184	0x3e3af8e5	0.18259008
185	0x3dc31c90	0.09526932
186	0xbe181e55	-0.14855321
187	0xbcf78e7d	-0.03021931
188	0x3dca7ece	0.09887467
189	0x3dd76c4e	0.10518704
190	0x3d9f6c04	0.07784274
191	0x3d7d0e36	0.06178113
192	0xbe25a06c	-0.16174477
193	0x3cf1b20c	0.029503845
194	0xbe042cea	-0.12907758
195	0xbcfa31b7	-0.030541284
196	0x3ca8748d	0.020563388
197	0x3e00346a	0.12519994
198	0x3de4dfcd	0.11175499
199	0x3d90757e	0.0705366
200	0x3daddffe	0.08489989
201	0xbd730052	-0.059326477
202	0x3d82318c	0.063571066
203	0xbe393190	-0.18085313
204	0x3dab188a	0.0835429
205	0xbe0d39ec	-0.13791627
206	0x3dd06ae2	0.10176636
207	0x3df1ea73	0.11812296
208	0x3d91f4d0	0.071267724
209	0x3c038918	0.008028291
210	0x3d8af85a	0.067856506
211	0x3c3f19df	0.011663883
212	0x3e3ef2d0	0.18647313
213	0xbdf9aa82	-0.12190725
214	0x3e22aaa3	0.15885405
215	0x3d602a6f	0.054727968
216	0xbe32c903	-0.17459492
217	0xbdd96c05	-0.10616306
218	0xbb887dc2	-0.004165382
219	0xbc8996f6	-0.016795617
220	0xbd2cb824	-0.042167798
221	0xbe1ad9b9	-0.15122117
222	0x3dc6757c	0.09690377
223	0xbe217b9e	-0.15769812
224	0x3dd9079f	0.10597157
225	0x3c8380a9	0.01605256
226	0x3d50099d	0.050790418
227	0x3d960b0c	0.07326326
228	0x3dd43a86	0.10362725
229	0xbe20163f	-0.15633486
230	0x3da1e51a	0.07905026
231	0x3c221752	0.009893255
232	0x3dc7911d	0.09744475
233	0x3d04f5fb	0.032461148
234	0xbc97333e	-0.018457051
235	0x3e2717d7	0.16317688
236	0xbdd58547	-0.10425811
237	0x3dd31340	0.10306406
238	0xbdad7bde	-0.084708914
239	0xbcddfd99	-0.027098464
240	0xbd4f2661	-0.05057371
241	0xbd1232ce	-0.035692982
242	0x3da120d9	0.07867593
243	0x3d227a1e	0.03966724
244	0xbca179ed	-0.019711459
245	0x3e2cfd67	0.1689354
246	0x3dc75a46	0.09734015
247	0x3e31b94a	0.17355838
248	0xbd1877eb	-0.037223738
249	0xbe331ed7	-0.17492233
250	0x3d758911	0.05994517
251	0x3e2ce32c	0.16883534
252	0xbe192edf	-0.14959286
253	0x3e35142c	0.17683476
254	0x3e03ef21	0.12884189
255	0xbd9ae417	-0.07563036

layer1.0.bias f4 [128]
0	0xbd6ae8bc	-0.05735086
1	0xbcc93238	-0.024560079
2	0x3e425381	0.18977167
3	0xbcae4115	-0.021271268
4	0xbda9cbac	-0.082908005
5	0xbe16a460	-0.14711142
6	0xbd98f39c	-0.0746834
7	0xbe250912	-0.16116741
8	0x3de7bc62	0.11315228
9	0xbe088803	-0.13333134
10	0x3dd7cc68	0.10537034
11	0xbca519a1	-0.020153822
12	0xbe441fa5	-0.19152696
13	0xbe02e1cf	-0.12781452
14	0x3e109a8b	0.14121453
15	0xba19cf4c	-0.00058673765
16	0xbd88458c	-0.0665389
17	0x3d89da50	0.06731093
18	0x3e0c6b5e	0.13712832
19	0x3e0b49dd	0.13602395
20	0x3e1e4ed8	0.15459764
21	0xbe20110d	-0.15631504
22	0x3de4d7b1	0.11173952
23	0x3d9900a6	0.07470827
24	0xbd838954	-0.06422678
25	0xbd414345	-0.047183294
26	0x3d707546	0.05870559
27	0x3d1217aa	0.0356671
28	0x3de943c9	0.11389882
29	0xbdb13a80	-0.08653736
30	0x3e3616ce	0.17782137
31	0x3bee4d66	0.00727241
32	0xbe2ad4d3	-0.16682748
33	0xbe431bc1	-0.19053556
34	0x3de271e8	0.11056882
35	0xbe13814f	-0.14404796
36	0x3e19027d	0.14942355
37	0xbe3ed2de	-0.18635127
38	0x3a87b7ca	0.0010354456
39	0x3d94aa84	0.07259086
40	0x3e01d667	0.12679444
41	0x3d74c8d5	0.05976184
42	0x3e364d2b	0.17802875
43	0x3da6f599	0.08152313
44	0x3c4d6784	0.012536887
45	0x3e3242fe	0.17408368
46	0xbe2e5f09	-0.1702844
47	0xbcb62b1e	-0.022237357
48	0xbd8f5408	-0.069984496
49	0xbe2d7c78	-0.16942012
50	0xbe32cd42	-0.17461112
51	0xbdcbf3cb	-0.09958609
52	0x3e37c03c	0.17944425
53	0x3d85b73e	0.06529091
54	0x3deb30b7	0.11483901
55	0x3db3d409	0.08780677
56	0xbd2b3424	-0.041797772
57	0xbe39f9a8	-0.18161643
58	0x3d16577d	0.03670453
59	0xbe07deec	-0.13268632
60	0x3e34668e	0.17617247
61	0x3deadcb7	0.11467879
62	0x3e204a8e	0.1565344
63	0xbe07ee98	-0.1327461
64	0x3e01b974	0.12668401
65	0x3d9660c7	0.073426776
66	0x3d6f5e10	0.058439314
67	0x3dfa5471	0.12223137
68	0xbdfa37f4	-0.122177035
69	0x3da43741	0.08018351
70	0xbd882536	-0.066477224
71	0x3dbb1e34	0.0913662
72	0x3dde09cf	0.108417146
73	0x3d675532	0.056477733
74	0xbdae507c	-0.08511445
75	0x3dd54acc	0.10414657
76	0xbd92ada9	-0.07162029
77	0x3e343572	0.17598513
78	0xbd4d3021	-0.050094727
79	0xbd9c3cf2	-0.07628812
80	0x3daa5a02	0.08317949
81	0xbdbd8fec	-0.092559665
82	0x3e25e8f6	0.16202149
83	0x3d691f25	0.056914467
84	0xbe0c46dd	-0.13698907
85	0xbd710d45	-0.058850545
86	0xbde4d68b	-0.11173733
87	0x3e398eab	0.1812083
88	0xbe204764	-0.15652233
89	0xbdbfe399	-0.09369583
90	0xbe382950	-0.1798451
91	0x3db1eab0	0.08687341
92	0xbe2a6ba9	-0.16642632
93	0x3db346f3	0.08753767
94	0x3d40fe7d	0.0471177
95	0x3c982857	0.018573923
96	0xbda19f31	-0.078916915
97	0x3db0eb05	0.086385764
98	0xbdf8d605	-0.12150196
99	0xbdada0a2	-0.08477904
100	0x3d9f3b44	0.07774976
101	0xbd63f093	-0.05564935
102	0xbe053ded	-0.13011904
103	0x3c63f8ee	0.01391433
104	0xbdcb9b3f	-0.0994172
105	0xbc09e484	-0.008416299
106	0xbe04d745	-0.12972744
107	0x3d9c035c	0.07617828
108	0x3db0cc6a	0.08632739
109	0x3e3d923c	0.18512815
110	0xbd36c917	-0.044625368
111	0x3d2ae56f	0.04172271
112	0x3e278ebd	0.16363044
113	0x3d9fed07	0.07808881
114	0xbd902481	-0.070382126
115	0x3da29eee	0.0794047
116	0xbe35b47e	-0.17744634
117	0x3e400f90	0.18755937
118	0x3e410067	0.1884781
119	0xbd1d49ca	-0.03840045
120	0x3c8e42ff	0.01736593
121	0x3bc6f2b6	0.006071414
122	0x3e0c35ed	0.13692446
123	0x3dca4b31	0.09877623
124	0xbe05e3d9	-0.13075198
125	0x3d853691	0.06504548
126	0xbd9da3bc	-0.076972455
127	0x3e22b90b	0.15890901

layer1.1.weight f4 [128]
0	0x3d3b3a9f	0.045710202
1	0x3eb33478	0.35000968
2	0x3f71acfd	0.94404584
3	0x3f309609	0.68978935
4	0x3ec8be50	0.39207697
5	0x3e4371db	0.19086401
6	0x3e1cca7c	0.15311617
7	0x3ef878e1	0.48529723
8	0x3c8d9365	0.017282197
9	0x3ebf79c0	0.37397575
10	0x3f1fa26f	0.6235723
11	0x3e0f1933	0.13974456
12	0x3efb9207	0.49134848
13	0x3f2da17e	0.6782454
14	0x3f5414c3	0.8284418
15	0x3f212d8e	0.62960136
16	0x3f48b494	0.7840054
17	0x3ecc783c	0.39935482
18	0x3f64b7fd	0.89343244
19	0x3f4ba1d4	0.79543805
20	0x3ee9ce67	0.45665285
21	0x3f230a7d	0.6368788
22	0x3f18cebc	0.5969045
23	0x3de5deb3	0.11224117
24	0x3bc9021b	0.006134284
25	0x3f5dd8fb	0.8665921
26	0x3f3ce4c6	0.7378658
27	0x3f409c28	0.75238276
28	0x3f69c663	0.9131834
29	0x3e513085	0.20428665
30	0x3ed62f95	0.41833177
31	0x3f04dbf2	0.5189811
32	0x3ece76df	0.40325066
33	0x3eef0e6f	0.466907
34	0x3eb24ebc	0.34825695
35	0x3f1bed15	0.60908633
36	0x3e8880f1	0.26660874
37	0x3f2af4d5	0.66779834
38	0x3eb39514	0.35074675
39	0x3f15c6c6	0.5850643
40	0x3cae8e4a	0.021308083
41	0x3eb704e9	0.35745934
42	0x3f0d55ea	0.5520922
43	0x3ef6556d	0.4811205
44	0x3f2e45ad	0.68075067
45	0x3f07638d	0.5288628
46	0x3f256317	0.64604324
47	0x3f58312a	0.8445002
48	0x3f14663d	0.57968503
49	0x3ea15965	0.31513515
50	0x3e8ddc1c	0.27706993
51	0x3e9644fd	0.2934951
52	0x3e1cfe3f	0.15331362
53	0x3f7d5d76	0.98970735
54	0x3e4928a2	0.19644406
55	0x3d97bbb0	0.074088454
56	0x3ec1d883	0.37860498
57	0x3f5926cd	0.8482483
58	0x3f6d7c7a	0.9276806
59	0x3e01b978	0.12668407
60	0x3ebdb342	0.37050825
61	0x3ee8d2c6	0.45473307
62	0x3ebef148	0.37293458
63	0x3e83f035	0.257692
64	0x3f438e31	0.7638884
65	0x3e12a57d	0.14320941
66	0x3e3ad68c	0.18245906
67	0x3e124829	0.1428534
68	0x3e351f88	0.1768781
69	0x3ecfc8d6	0.40582913
70	0x3f4cc11b	0.79982156
71	0x3f16d70f	0.58921903
72	0x3d5b6a26	0.053568028
73	0x3f7b9e09	0.9828802
74	0x3f3560c9	0.7085081
75	0x3f55353d	0.8328436
76	0x3d00f5ab	0.031484287
77	0x3f15d4c6	0.5852779
78	0x3f1b02db	0.6055123
79	0x3f299402	0.66241467
80	0x3f6430a7	0.8913674
81	0x3f2e35d7	0.68050903
82	0x3f5de933	0.8668396
83	0x3e0e127c	0.13874239
84	0x3f1f9918	0.6234298
85	0x3f253e75	0.64548427
86	0x3ef9966a	0.4874757
87	0x3e7f2bd4	0.24919063
88	0x3f44ef3d	0.7692755
89	0x3e77e92b	0.2421004
90	0x3f51be54	0.8193104
91	0x3e389e95	0.18029244
92	0x3c3ca43a	0.011513764
93	0x3dae1bc3	0.08501389
94	0x3ecc16f3	0.3986126
95	0x3e81707e	0.25281137
96	0x3e2a3db5	0.16625102
97	0x3db369ae	0.08760391
98	0x3e672aca	0.22574916
99	0x3f541add	0.8285349
100	0x3eaafd8d	0.3339657
101	0x3f5ba0ca	0.8579222
102	0x3f3e97ed	0.7445057
103	0x3ee29d08	0.4426043
104	0x3f66da85	0.90177184
105	0x3f77299b	0.9654786
106	0x3f31a04b	0.6938521
107	0x3d7ba896	0.061440073
108	0x3f5f452f	0.8721494
109	0x3ee38c86	0.44443148
110	0x3ead6f15	0.3387381
111	0x3f7d747c	0.99005866
112	0x3f25b90f	0.647355
113	0x3f4413f5	0.7659295
114	0x3f15fc02	0.5858766
115	0x3f062a34	0.52408147
116	0x3ea4ac40	0.32162666
117	0x3e0d09dc	0.13773292
118	0x3e8192ca	0.25307304
119	0x3ed9d3b8	0.4254434
120	0x3dda81fa	0.10669322
121	0x3dace048	0.08441216
122	0x3d135cf7	0.03597733
123	0x3f2d7b59	0.6776634
124	0x3ed16f71	0.40905336
125	0x3e4f7e35	0.20262988
126	0x3f3b6cab	0.7321269
127	0x3f52b39a	0.823053

layer1.1.bias f4 [128]
0	0x3a81e050	0.0009908769
1	0xba827a9f	-0.0009954757
2	0x3a82f61f	0.0009991563
3	0x3a82e855	0.0009987453
4	0x3a6b8a8f	0.00089851854
5	0xba812f8b	-0.0009856088
6	0x3a81c6b4	0.0009901137
7	0xba806079	-0.0009794376
8	0x3a81be5e	0.0009898653
9	0x3a822beb	0.0009931301
10	0x3a8291b8	0.000996164
11	0x3a829d73	0.0009965136
12	0xba828d07	-0.0009960242
13	0xba8300e7	-0.0009994776
14	0xba82fd2b	-0.0009993663
15	0x3a802597	0.0009776828
16	0xba82c77b	-0.0009977663
17	0xba827d22	-0.0009955505
18	0x3a82f7b6	0.0009992037
19	0xba82f168	-0.0009990158
20	0x3a82edae	0.0009989047
21	0xba830460	-0.0009995811
22	0x3a822281	0.0009928496
23	0xba82a814	-0.0009968304
24	0xb9ed8434	-0.00045302662
25	0xba81c053	-0.0009899236
26	0x3a80ae88	0.0009817639
27	0xba82e952	-0.0009987748
28	0x3a82ec71	0.0009988678
29	0xba82bb02	-0.0009973946
30	0xba8183be	-0.0009881181
31	0xba82a9fd	-0.0009968873
32	0x3a82df9a	0.0009984851
33	0xba824f27	-0.0009941802
34	0x3a82ebcc	0.0009988486
35	0x3a82f9b5	0.0009992631
36	0x3a82d1c4	0.0009980728
37	0xba82e1af	-0.0009985472
38	0xba82d487	-0.0009981551
39	0x3a82a208	0.0009966502
40	0xba80f848	-0.0009839619
41	0xba82b6e2	-0.0009972716
42	0x3a829778	0.0009963354
43	0xba82b286	-0.0009971417
44	0x3a82a3ae	0.0009966993
45	0x3a82b621	0.0009972492
46	0xba82ff46	-0.000999429
47	0x3a82bfb3	0.0009975344
48	0x3a808f75	0.0009808379
49	0x3a826f5f	0.0009951404
50	0x3a82fcdf	0.0009993574
51	0x3a82fbe1	0.0009993279
52	0xba813611	-0.0009858032
53	0x3a82f601	0.0009991528
54	0xba82c63b	-0.000997729
55	0xba6ae670	-0.00089607295
56	0x3a81c026	0.0009899184
57	0xba80263c	-0.000977702
58	0xba82f8f5	-0.0009992408
59	0xba7ffd51	-0.0009765225
60	0xba82b7ca	-0.0009972986
61	0xba818a6a	-0.000988317
62	0x3a82ff10	0.0009994227
63	0x3a82f41d	0.0009990964
64	0xba5b0d43	-0.0008356163
65	0xba82a1e4	-0.000996646
66	0x3a80b0ce	0.0009818317
67	0xba82e633	-0.0009986818
68	0xba8186b0	-0.0009882059
69	0x3a82b928	0.0009973394
70	0x3a79c9d3	0.00095286703
71	0x3a80e57d	0.0009834018
72	0x3a829fce	0.0009965838
73	0x3a7e4501	0.00096996134
74	0x3a78246d	0.0009465877
75	0x3a8266e7	0.000994888
76	0x3a82a27f	0.000996664
77	0xba41faa5	-0.00073997147
78	0xba825821	-0.0009944477
79	0xba82c5f4	-0.0009977208
80	0x3a8300f3	0.000999479
81	0xba768780	-0.00094043463
82	0xba82cef2	-0.0009979887
83	0x3a79c98e	0.000952863
84	0x3a82f8d2	0.0009992367
85	0xba82ead3	-0.0009988196
86	0x3a82ca45	0.0009978494
87	0x3a82d517	0.0009981719
88	0xba82b255	-0.000997136
89	0xba8290a7	-0.0009961323
90	0xba82cc07	-0.0009979018
91	0xba82d29a	-0.0009980977
92	0x3a822990	0.00099306
93	0xba82f204	-0.0009990339
94	0x3a7bd67b	0.000960685
95	0xba81c500	-0.000990063
96	0xba82ef3d	-0.0009989511
97	0xba827950	-0.0009954367
98	0xba829611	-0.0009962936
99	0x3a820e8c	0.0009922548
100	0xba82f7f7	-0.0009992112
101	0xba82d91e	-0.0009982919
102	0x3a82508b	0.0009942217
103	0x3a82ebfa	0.0009988539
104	0x3a823fad	0.000993719
105	0xba8261df	-0.0009947381
106	0x3a351a95	0.0006908563
107	0x3a818b43	0.0009883422
108	0xba4805c3	-0.0007630253
109	0x3a8234d6	0.0009933959
110	0xba82e392	-0.0009986034
111	0x3a830233	0.0009995162
112	0x3a8295e1	0.000996288
113	0x3a82402e	0.000993734
114	0x3a82d2b2	0.0009981005
115	0x3a5d444d	0.00084406586
116	0xba82c034	-0.0009975494
117	0x3a82f56b	0.0009991353
118	0xba8218cf	-0.0009925606
119	0xba82e346	-0.0009985946
120	0x3a82adb5	0.0009969982
121	0xba8231bb	-0.0009933034
122	0x3a81ba87	0.0009897508
123	0x3a821caa	0.0009926755
124	0x3a830143	0.0009994883
125	0xba822afe	-0.0009931026
126	0x3a82f29c	0.0009990516
127	0x3a82bb85	0.0009974098

layer1.1.running_mean f4 [128]
0	0x41b45904	22.543465
1	0x41a9f8e5	21.24653
2	0xc1931656	-18.385906
3	0xc1039237	-8.223197
4	0x414e4965	12.892919
5	0x4174f9fe	15.311033
6	0x41e66cfe	28.803219
7	0x4194fd99	18.623827
8	0xbff82fe2	-1.9389613
9	0x41871fc0	16.890503
10	0x3fadd8a2	1.3581736
11	0x41da89e5	27.317331
12	0x41060b5f	8.377776
13	0xc0c922de	-6.2855062
14	0xc061a5f8	-3.525755
15	0x418133c9	16.150286
16	0xc16b9540	-14.723938
17	0xc0daa61d	-6.8327775
18	0xbfc9ec33	-1.5775207
19	0xc017de32	-2.3729367
20	0xc1411a59	-12.068933
21	0xc1a32611	-20.393587
22	0xc1abb1c6	-21.461803
23	0xc060f9a3	-3.5152366
24	0xc0c80075	-6.250056
25	0x40064e36	2.0985236
26	0x41de16d8	27.761154
27	0xc1e7c1d3	-28.96964
28	0xc167d33e	-14.489073
29	0x403bbab6	2.933271
30	0x40a85fc0	5.261688
31	0x41a2502c	20.289146
32	0xbfceff55	-1.6171671
33	0x41ba6ffc	23.30468
34	0xc0b11c7f	-5.5347285
35	0xc07b3865	-3.925317
36	0xbf809030	-1.0044003
37	0xc0ebaefb	-7.36511
38	0xc14d7fca	-12.8436985
39	0x412e4531	10.891892
40	0x419c862c	19.565514
41	0x40daee75	6.8416085
42	0x418250dd	16.289484
43	0xc1360289	-11.375619
44	0xc10d463a	-8.829645
45	0xc095cf40	-4.681549
46	0xc10faa67	-8.979102
47	0x41295480	10.58313
48	0x40c2b35a	6.0843935
49	0x41f9822d	31.188562
50	0xc0c26067	-6.074268
51	0xc11e29fb	-9.885249
52	0x411f33df	9.950164
53	0xc14f8980	-12.971069
54	0x40c0bee6	6.023303
55	0x41483b6d	12.514508
56	0x40f32696	7.59846
57	0x40e08595	7.0163064
58	0xbf52fddb	-0.824186
59	0x40d36808	6.606449
60	0xc04941e8	-3.1446476
61	0x4139e245	11.617742
62	0xc08c412a	-4.3829546
63	0xc12b2fbe	-10.699156
64	0x3fc72671	1.5558606
65	0xc1971ec4	-18.890022
66	0x3f04df24	0.51902986
67	0xc092ac90	-4.5835648
68	0x4130e73a	11.056452
69	0x41320511	11.126237
70	0x41b3c5d5	22.471598
71	0x41c070f0	24.055145
72	0xc0f7d265	-7.744433
73	0xc1c5a019	-24.703173
74	0x40cb1623	6.346452
75	0x41a67f8e	20.812283
76	0x405a2d2e	3.4090075
77	0x409d8e50	4.923622
78	0x404ec7be	3.2309413
79	0xc1770dda	-15.440882
80	0xc04dc005	-3.214845
81	0x401e9ed3	2.4784439
82	0xc0be810c	-5.953253
83	0x414a32dd	12.637418
84	0x3fa3d2c2	1.2798693
85	0xc08cc303	-4.398805
86	0xc163cb1d	-14.237088
87	0xc16cd125	-14.801061
88	0xc1adac95	-21.709269
89	0x4004a931	2.0728266
90	0x4144026e	12.250593
91	0xc08bbbbd	-4.3666673
92	0x41735953	15.209308
93	0xc180f0fa	-16.117664
94	0x407a1f83	3.9081733
95	0x418f5efe	17.921383
96	0xc105c7df	-8.361297
97	0x40c522fe	6.1605215
98	0xc117a2da	-9.477259
99	0x412f44c1	10.954286
100	0xc17aff70	-15.687363
101	0xc021534e	-2.5207095
102	0xc1580603	-13.501468
103	0xbe8edcf2	-0.27902943
104	0x4119d200	9.61377
105	0x416f250d	14.946546
106	0x4059390a	3.3941064
107	0x408d9f78	4.4257164
108	0x40614ce8	3.520319
109	0xc1998dd1	-19.194246
110	0xbef7fe63	-0.4843627
111	0x4016f0c4	2.3584452
112	0x4155f805	13.373052
113	0x40938642	4.610139
114	0xc1135f3f	-9.210753
115	0xbf9959f8	-1.1980581
116	0xc084b465	-4.147021
117	0xc09d8a64	-4.9231434
118	0x4199e35c	19.236015
119	0xc0b2f122	-5.591935
120	0xc0fd5b26	-7.9173765
121	0x4154de9a	13.304346
122	0x41399840	11.59967
123	0x4179e4a3	15.6183195
124	0xc183d685	-16.479746
125	0xc0ef6058	-7.4805107
126	0xc1891752	-17.136387
127	0xbfe43b00	-1.7830505

layer1.1.running_var f4 [128]
0	0x432512c3	165.07329
1	0x435f997e	223.59958
2	0x43101d48	144.11438
3	0x42de7ebe	111.24754
4	0x4298c60a	76.386795
5	0x4309be99	137.74452
6	0x43940340	296.0254
7	0x4310ecf4	144.9256
8	0x4215cc5d	37.449574
9	0x434a8f9f	202.56102
10	0x426fe98a	59.978065
11	0x43863ed3	268.4908
12	0x42647438	57.113495
13	0x41acbb8a	21.591572
14	0x42089127	34.14175
15	0x42b6b532	91.3539
16	0x42d5f962	106.987076
17	0x42dd5066	110.65703
18	0x41df36fa	27.901844
19	0x422cf0de	43.23522
20	0x4308f6d8	136.96423
21	0x433d2fb6	189.18637
22	0x434073e2	192.45267
23	0x415d8736	13.8455105
24	0x42505011	52.07819
25	0x422a3ca8	42.559235
26	0x4399898a	307.07452
27	0x43b9a227	371.2668
28	0x431c34b3	156.20586
29	0x421a7122	38.61048
30	0x42646339	57.096897
31	0x436b5fb3	235.37383
32	0x422b33c3	42.80055
33	0x43424177	194.25572
34	0x422a66b3	42.600292
35	0x4261a62f	56.41229
36	0x424f9370	51.893982
37	0x42ad397d	86.61228
38	0x428fc605	71.88676
39	0x42ab9a53	85.801414
40	0x431ecc55	158.79817
41	0x421fe1d7	39.970547
42	0x430cfa67	140.97813
43	0x42ca3236	101.09807
44	0x42756789	61.35111
45	0x429450e5	74.158
46	0x4233cd84	44.9507
47	0x42f1f1b8	120.97211
48	0x42142fd7	37.04672
49	0x43ba499c	372.57507
50	0x4248b0d2	50.172676
51	0x427e89ad	63.63445
52	0x429ad5d2	77.41762
53	0x42c091bd	96.284645
54	0x42a6bf52	83.37367
55	0x42822438	65.07074
56	0x42acfa54	86.48892
57	0x42b45d09	90.18171
58	0x4293062b	73.51205
59	0x4204af62	33.171272
60	0x41eb1c01	29.388674
61	0x428b268e	69.5753
62	0x42ae40d2	87.1266
63	0x423f7b1b	47.87022
64	0x4286c592	67.38588
65	0x430ab584	138.70905
66	0x420bf359	34.987644
67	0x4279be5e	62.435905
68	0x42a739e5	83.613075
69	0x427c35e8	63.052643
70	0x435e87e2	222.53079
71	0x4377d699	247.83827
72	0x426598bf	57.399166
73	0x437d5023	253.31303
74	0x42dc9f9f	110.31176
75	0x431d16be	157.08884
76	0x41b57878	22.683823
77	0x421046be	36.069084
78	0x41fc357e	31.52612
79	0x42d44afb	106.14645
80	0x4217a7eb	37.913982
81	0x41e7d46d	28.978724
82	0x42a2c583	81.385765
83	0x42d81738	108.04535
84	0x41b28a7f	22.317625
85	0x421647bc	37.570053
86	0x430afeaf	138.99486
87	0x42e0664a	112.19978
88	0x43675a4c	231.35272
89	0x42cccd83	102.40139
90	0x42dbc64c	109.8873
91	0x422765e6	41.84951
92	0x42a26547	81.19781
93	0x43182d00	152.17578
94	0x424433ed	49.05071
95	0x4312ed4c	146.92694
96	0x42436e10	48.857483
97	0x42bc6906	94.205124
98	0x42de0fd8	111.030945
99	0x4294c04e	74.375595
100	0x42d313a4	105.53836
101	0x421dec1d	39.48058
102	0x433e30ba	190.19034
103	0x42e9e212	116.94154
104	0x42c485ed	98.26157
105	0x43015661	129.33742
106	0x42c1f8c5	96.98588
107	0x41ab451a	21.408741
108	0x425ee235	55.720905
109	0x43179bb6	151.60825
110	0x42524ea0	52.576782
111	0x424512a1	49.268192
112	0x42f01614	120.04312
113	0x4214a4de	37.161003
114	0x42868383	67.25686
115	0x422ba347	42.90945
116	0x427c460d	63.06841
117	0x42a53ecd	82.62266
118	0x42ee5ab3	119.17715
119	0x424b53b2	50.831734
120	0x42a41ea7	82.05987
121	0x430b4bbf	139.29588
122	0x42105345	36.081318
123	0x4321c678	161.77527
124	0x42dd6e43	110.715355
125	0x4221f68e	40.490776
126	0x4334f39f	180.95164
127	0x41e3944d	28.447412

layer2.0.weight f4 [64, 128, 3, 3]
0	0xbc2f697b	-0.010706301
1	0xbc028c71	-0.007968054
2	0xbcc1cb17	-0.023656411
3	0xbcc65ddb	-0.024214676
4	0x3cc1dabd	0.023663873
5	0x3ccb2c1d	0.024801308
6	0xbcdb5b62	-0.026776973
7	0xbc259389	-0.010105976
8	0xbccf90df	-0.025337635
9	0x3ca4dfe9	0.0201263
10	0xbc8cd6c9	-0.017192261
11	0x3bb6b42a	0.0055756764
12	0xbbeb7879	-0.0071859923
13	0x3b870c20	0.0041213185
14	0xbc2b06e0	-0.010438651
15	0x3ccb4995	0.02481536
16	0xba28ec9c	-0.0006443949
17	0xbc415192	-0.011799233
18	0x3cabe2e3	0.020982211
19	0xbceb0fc4	-0.028694041
20	0x3b4691a1	0.0030299204
21	0x3ca2e02d	0.019882286
22	0x3cc27620	0.023737967
23	0xbc2d5466	-0.010579204
24	0x3c9c2d29	0.019064503
25	0xbbf48530	-0.0074621662
26	0xbca96bf6	-0.020681363
27	0x3c7e5fc9	0.015525767
28	0xbbafee2f	-0.00536897
29	0xbbe02208	-0.0068399943
30	0x3c808e9d	0.015693003
31	0x3bbdaaf5	0.005788202
32	0xbc1c36ef	-0.009534582
33	0xbc62fc93	-0.013854164
34	0x3c94aa37	0.018147571
35	0xbbb09099	-0.005388331
36	0xbcb4be05	-0.022063265
37	0xbccafc69	-0.024778562
38	0xbb2911b2	-0.00257979
39	0x3b1b062c	0.0023654802
40	0x3a09bece	0.00052545674
41	0x3cb30da3	0.021857088
42	0xbc8e26d2	-0.017352495
43	0xbcb8b33a	-0.0225464
44	0x3a49140e	0.000767053
45	0xbcbf2f48	-0.023337975
46	0xbca09674	-0.019602992
47	0x3c037b2b	0.008024971
48	0xbcac0fff	-0.021003721
49	0xbc15211d	-0.009102133
50	0xbcb3ad19	-0.021933125
51	0xbcea0916	-0.028568786
52	0x3c51ebff	0.0128126135
53	0xbc87e6d0	-0.016589552
54	0x3c31664c	0.010827612
55	0x3c201b1a	0.0097720865
56	0x3cd41011	0.025886567
57	0xbcd8a260	-0.026444614
58	0xbccb5429	-0.024820404
59	0x3c98cf74	0.018653609
60	0xbb7af892	-0.0038295132
61	0x39a843b4	0.000320939
62	0xbbd2a256	-0.0064280434
63	0xbce3bb6e	-0.027799334
64	0x3befe7a2	0.007321314
65	0x3cb10136	0.021607023
66	0x3baa4060	0.0051956624
67	0xbc0a69ab	-0.008448045
68	0xbca3275b	-0.019916227
69	0xbc30bf22	-0.010787757
70	0x3c90b380	0.017663717
71	0x3c30a21e	0.010780839
72	0x3bd27112	0.0064221704
73	0xbcd97e55	-0.026549498
74	0xbc8c5465	-0.017130086
75	0xbbe1349b	-0.006872726
76	0x3be0c270	0.0068591163
77	0xbcb726fa	-0.022357453
78	0x3b318c11	0.0027091543
79	0x3c4199e0	0.011816472
80	0x3cb0d67d	0.021586651
81	0x3cc4a3e6	0.024003934
82	0x3c8947b1	0.016757818
83	0xbc699465	-0.014256571
84	0x3b0e2402	0.0021688943
85	0xbb031567	-0.002000177
86	0xbc9219b3	-0.01783452
87	0x3cbf9326	0.023385596
88	0xbbff2180	-0.007785976
89	0xbcb14f0f	-0.021644143
90	0xbc9e2b43	-0.019307738
91	0x3ce67d05	0.028135786
92	0xbcb93eba	-0.022612918
93	0xbcccf54a	-0.025019307
94	0xb6ec5a00	-7.0438255e-06
95	0x3cc3d5b5	0.023905614
96	0xbce48ce5	-0.027899215
97	0x3b83ce5c	0.0040224027
98	0x3ba4f4a4	0.0050340462
99	0x3cde5a00	0.027142525
100	0x3c0c20a3	0.008552703
101	0xbc801193	-0.01563338
102	0x3ceaf333	0.02868042
103	0x3c1c1104	0.009525541
104	0x3cc6fcd5	0.024290482
105	0x3c9d311b	0.019188454
106	0xbaf5e4ce	-0.0018760206
107	0xbc973736	-0.018458944
108	0x3cd41852	0.025890503
109	0xbc6d503a	-0.0144844595
110	0xbca5db46	-0.02024616
111	0x3c685826	0.0141811725
112	0x3c13bd82	0.00901735
113	0xbc8a588c	-0.016887926
114	0x3cb3c5db	0.02194493
115	0xbc44ee95	-0.012019773
116	0xbc138627	-0.009004152
117	0x3c99323f	0.018700717
118	0x3cb404b7	0.021974904
119	0xbc42d595	-0.011891742
120	0x3cdc776a	0.02691241
121	0x3c3a53ba	0.011372501
122	0xbca8c26f	-0.020600526
123	0x3b149708	0.002267303
124	0xbca20964	-0.019779868
125	0xbc907413	-0.017633474
126	0xbcdf9ab9	-0.027295457
127	0x3b256f6c	0.0025243415
128	0x3cd7f2b1	0.026360841
129	0x3a52a33a	0.0008035187
130	0x3c1babc1	0.009501399
131	0xbbc3d31c	-0.005976094
132	0x3cde998c	0.027172826
133	0xbcaaf28c	-0.020867608
134	0xbc448b41	-0.011996091
135	0x3b86745a	0.0041032257
136	0x3ce3fc6d	0.027830327
137	0x3a37c73e	0.00070105854
138	0x3c5b9454	0.013402063
139	0x3ae7eb20	0.0017693974
140	0x3cb1f656	0.021723907
141	0xbcad66fa	-0.021167267
142	0xbbddfc1d	-0.006774439
143	0x3c4d5954	0.0125335045
144	0x3c0b1795	0.008489509
145	0x3cac659c	0.021044545
146	0x3ca4d0a1	0.020119013
147	0xbce35082	-0.02774835
148	0x3ca82fd6	0.020530622
149	0x3c57a530	0.013161942
150	0x3b572611	0.0032829086
151	0x3cde2347	0.02711643
152	0xba22983a	-0.0006202493
153	0xbc9a291e	-0.018818434
154	0x3b5e417a	0.0033913539
155	0x3ca6cdf7	0.020361884
156	0xbc99670b	-0.018725893
157	0x3c87f3e4	0.016595788
158	0x3ce0b7bb	0.02743136
159	0xbcc9b862	-0.024624053
160	0x3cd3c2e9	0.025849776
161	0x3cd70faa	0.026252586
162	0xbc771b80	-0.01508224
163	0x3ba9c624	0.005181091
164	0xbc894590	-0.016756803
165	0x3ae1a46c	0.0017215139
166	0xbcb2cb59	-0.02182548
167	0x3c60a835	0.013711979
168	0xbc24abd2	-0.010050731
169	0xbcbcf6e0	-0.023066938
170	0xbc7aba91	-0.01530327
171	0x3c198219	0.009369397
172	0xbcc98134	-0.024597742
173	0xbce1a1ec	-0.02754303
174	0x3cc5566c	0.02408906
175	0xbc26a7bb	-0.010171826
176	0x3cd42e5d	0.025901014
177	0xba8e6bbc	-0.0010865848
178	0xbb708ae0	-0.003670387
179	0xbcd5a8e3	-0.026081508
180	0x3cc71b7f	0.024305103
181	0x3b10af0e	0.0022076997
182	0x3cbc6b30	0.02300033
183	0x3c552d82	0.013011338
184	0xbcf88b47	-0.03033985
185	0x3c645923	0.0139372675
186	0x3b57cd44	0.0032928744
187	0x3bfa99f5	0.0076477476
188	0x3c60cca2	0.013720663
189	0x3cd744c8	0.026277915
190	0xbc9d2104	-0.019180782
191	0x3b8aa524	0.004231112
192	0xbbc3d55c	-0.005976362
193	0x3bbd1987	0.0057708654
194	0x3b99e573	0.004696542
195	0x3ccfe8b3	0.025379514
196	0xbc7a71f3	-0.015285957
197	0x3cbac193	0.022797382
198	0xbcbbd702	-0.022929672
199	0xbc7b9ccd	-0.015357208
200	0x3a536370	0.00080638286
201	0xbbe0d875	-0.006861741
202	0xb9c5817c	-0.0003767124
203	0xbc12b710	-0.008954778
204	0x3cd0a10a	0.025467414
205	0x3c864bd0	0.016393572
206	0xbc5c9a0d	-0.013464463
207	0xbba6b6d9	-0.005087715
208	0xbc412491	-0.011788503
209	0xbc8eaecb	-0.017417332
210	0x37ff7940	3.045483e-05
211	0xbccfa6b5	-0.025348047
212	0xbc82ef7f	-0.015983341
213	0xbc41c69c	-0.011827137
214	0x3c9506de	0.018191751
215	0x3bb25f59	0.005443495
216	0x3bae8be2	0.005326734
217	0x3c1ce45b	0.009575929
218	0xbbee0f00	-0.0072649717
219	0x3c13c0e1	0.009018154
220	0xbb9c44d4	-0.004768947
221	0x3cb0739d	0.021539504
222	0x3c87f113	0.016594445
223	0x3b876c57	0.004132788
224	0x3c3cf163	0.01153216
225	0x3c0d7751	0.008634404
226	0x3c107f4a	0.008819411
227	0x3ce22285	0.02760435
228	0xba928748	-0.0011179233
229	0xbc340998	-0.010988615
230	0xbcb76a07	-0.022389425
231	0x3cdb4c3b	0.026769748
232	0x3cd1ea78	0.025624499
233	0xbc017550	-0.007901505
234	0xbc208fce	-0.009799911
235	0xbcb71530	-0.02234897
236	0xbc958b60	-0.018254936
237	0x3cd25730	0.02567634
238	0xbc8d0135	-0.01721249
239	0x3c031e62	0.008002849
240	0xbcac3640	-0.021021962
241	0x3bf03238	0.0073302053
242	0x3bc62bcf	0.006047703
243	0x3cba80fe	0.022766586
244	0xbae8fab5	-0.0017774912
245	0xbc000ac0	-0.007815063
246	0xbc05738c	-0.008145224
247	0x3b8e10a6	0.0043354807
248	0xbccb882e	-0.024845209
249	0x3a890ec9	0.0010456677
250	0xbc47d7c6	-0.0121974405
251	0x3ba4d812	0.0050306404
252	0xbc022cad	-0.007945222
253	0x3b78c2ce	0.003795791
254	0xbc6c787b	-0.014433022
255	0xbcccd619	-0.025004433

layer2.0.bias f4 [64]
0	0x3c5fbb29	0.013655462
1	0xbcca9bdb	-0.02473252
2	0x3c5dbaa8	0.013533272
3	0x3b4cdcad	0.0031259463
4	0x3c11f312	0.00890805
5	0xba3afde4	-0.00071331696
6	0xbb94449d	-0.004524781
7	0x3cd05207	0.025429739
8	0xba5675ae	-0.0008180988
9	0xbc03ae55	-0.008037169
10	0xbc7ffcb7	-0.015624217
11	0x3c9c01a1	0.019043745
12	0x3cc49fc6	0.024001967
13	0x3c55717b	0.013027544
14	0x3bf65cc5	0.007518383
15	0xbbbec577	-0.0058218795
16	0xbaaa377d	-0.0012986507
17	0xbce34236	-0.027741533
18	0xbc0042ba	-0.007828409
19	0x3c34f321	0.011044295
20	0x3ce4ecf7	0.027945025
21	0x3c1cb457	0.009564481
22	0x39d18108	0.00039959722
23	0x3caee5b6	0.02134977
24	0x3bc69d96	0.006061266
25	0xbbf2d43b	-0.0074105537
26	0x3ac0bab0	0.0014704075
27	0x3c9542cf	0.018220333
28	0xbc437a9a	-0.011931086
29	0x3c76bd58	0.0150597915
30	0xbc98a2fe	-0.018632408
31	0x3c884f33	0.016639328
32	0xbcddbc40	-0.027067304
33	0xbcbdce67	-0.02316971
34	0xbca5ce27	-0.020239903
35	0x3c4902a3	0.012268695
36	0xbc889fd2	-0.01667777
37	0xbc8beb52	-0.017079983
38	0xbbab8df6	-0.005235429
39	0xbc7f1cc6	-0.015570825
40	0xbce53d39	-0.027983295
41	0x3ce1f0ed	0.027580703
42	0xbc30c32b	-0.010788719
43	0x3cddf2a9	0.027093248
44	0xbc7fe584	-0.015618686
45	0x3ba47e6a	0.0050199525
46	0xbc3c55d4	-0.011495072
47	0x3bdec0da	0.006797892
48	0x3ce9fe19	0.028563546
49	0x3bcda110	0.0062753037
50	0xbc1c0808	-0.009523399
51	0xbcc071fb	-0.02349185
52	0xbc180c46	-0.00928027
53	0x3cb2a5cb	0.021807572
54	0x3c55e80b	0.013055812
55	0x3c75fc95	0.0150138335
56	0xbc8bb765	-0.017055223
57	0x3c75750b	0.0149815185
58	0xbbd2d3f3	-0.0064339577
59	0xbcbadb42	-0.022809628
60	0xbc2416da	-0.010015214
61	0xbba59c16	-0.0050540073
62	0x3b51b6ff	0.0031999943
63	0x3ccb82bd	0.024842614

layer2.1.weight f4 [64]
0	0x3f2eec56	0.6832937
1	0x3ee0741e	0.4383859
2	0x3f2aaae4	0.6666701
3	0x3f354f82	0.70824444
4	0x3f7d5c99	0.9896942
5	0x3e114e90	0.14190125
6	0x3cd39613	0.025828397
7	0x3f2e955d	0.6819666
8	0x3b3fa213	0.002924089
9	0x3e74df13	0.23913221
10	0x3f077bca	0.5292326
11	0x3d7dc3ec	0.061954424
12	0x3f1f40ce	0.6220826
13	0x3d4ee71c	0.05051337
14	0x3ed7cfd3	0.42150745
15	0x3f1fcd44	0.62422585
16	0x3e7d46b1	0.24733998
17	0x3de9bb97	0.11412733
18	0x3f3d7548	0.7400708
19	0x3e5a557f	0.21321677
20	0x3e4ae092	0.1981223
21	0x3dd587bc	0.1042628
22	0x3ef9c0cd	0.48779908
23	0x3f1d9d84	0.61568475
24	0x3ebef8a4	0.37299073
25	0x3e9ff308	0.31240106
26	0x3f74dd23	0.9564993
27	0x3f6093c9	0.877255
28	0x3f417d64	0.75581956
29	0x3f76d8f5	0.964248
30	0x3f25b47b	0.64728516
31	0x3f69df73	0.9135658
32	0x3ed0b70c	0.40764654
33	0x3d08a95b	0.033364635
34	0x3e1767ff	0.14785765
35	0x3ecc2fee	0.39880317
36	0x3edf447d	0.4360694
37	0x3e902f46	0.28161067
38	0x3f360f73	0.71117324
39	0x3f17852a	0.5918757
40	0x3f538fae	0.8264111
41	0x3f4f0009	0.8085943
42	0x3d479248	0.04872349
43	0x3f225138	0.6340518
44	0x3ea1dc11	0.3161321
45	0x3f32508b	0.6965415
46	0x3eb3057a	0.34965116
47	0x3ec714b3	0.3888298
48	0x3f6502d4	0.8945744
49	0x3f7860a5	0.9702247
50	0x3ed1b89d	0.4096116
51	0x3f54b381	0.830864
52	0x3da92c53	0.08260407
53	0x3f4638a7	0.77430195
54	0x3e8e8778	0.2783773
55	0x3ec7a0bc	0.38989818
56	0x3f33027a	0.69925654
57	0x3e3d4165	0.18481977
58	0x3f4e9518	0.8069625
59	0x3ef695d8	0.48161197
60	0x3f7f1d3f	0.99654
61	0x3f1ee50f	0.62068266
62	0x3e5a1020	0.21295214
63	0x3eb5aaba	0.35481817

layer2.1.bias f4 [64]
0	0xba82bf9e	-0.0009975319
1	0x3a8269c5	0.0009949735
2	0x3a82ff51	0.0009994303
3	0x3a813695	0.0009858186
4	0xba82fa24	-0.0009992761
5	0xba82cce6	-0.0009979277
6	0xba817b3e	-0.0009878648
7	0xba82b204	-0.0009971266
8	0x3a82abf3	0.0009969458
9	0xba82eb42	-0.0009988325
10	0x3a82c23a	0.0009976097
11	0x3a82c444	0.0009976705
12	0xba80f66e	-0.0009839067
13	0x3a8300db	0.0009994762
14	0xba82fcd1	-0.0009993558
15	0x3a82cfd0	0.0009980146
16	0x3a8298d8	0.0009963764
17	0xba82bca6	-0.0009974435
18	0xba8154cd	-0.0009867192
19	0x3a798a55	0.0009519209
20	0x3a82a335	0.0009966852
21	0x3a8151a2	0.0009866247
22	0x3a8111d2	0.000984723
23	0x3a82abb9	0.000996939
24	0xba81da22	-0.0009906928
25	0x3a820a09	0.0009921204
26	0xba82ea85	-0.0009988105
27	0x3a82d8cb	0.0009982822
28	0xba82feef	-0.0009994189
29	0x3a82cfe7	0.0009980173
30	0x3a83007e	0.0009994654
31	0xba82a9b9	-0.0009968794
32	0xba830076	-0.0009994644
33	0xba82f574	-0.0009991364
34	0x3a80f979	0.0009839974
35	0x3a82eca4	0.0009988737
36	0xba814833	-0.0009863436
37	0xba82ec17	-0.0009988573
38	0x3a82d527	0.0009981737
39	0xba82f67d	-0.0009991672
40	0xba82f314	-0.0009990656
41	0x3a82d973	0.0009983018
42	0xba829d7e	-0.0009965149
43	0x3a82b7fa	0.0009973042
44	0x3a6de7b1	0.0009075357
45	0x3a82c7f1	0.00099778
46	0xba830292	-0.0009995273
47	0x3a82faed	0.0009992995
48	0xba7f60c7	-0.0009741899
49	0x3a82bfd1	0.0009975379
50	0xba82dab4	-0.0009983392
51	0xba82fc9e	-0.0009993499
52	0xba8300c3	-0.0009994734
53	0xba7e0d59	-0.000969132
54	0xba82becc	-0.0009975075
55	0x3a82bcce	0.0009974481
56	0xba830278	-0.0009995243
57	0xba8280ab	-0.0009956559
58	0xba829398	-0.0009962199
59	0xba69d101	-0.00089193886
60	0x3a82f8e4	0.0009992388
61	0xba82b58d	-0.0009972319
62	0xba82c7c1	-0.0009977744
63	0x3a82f96c	0.0009992546

layer2.1.running_mean f4 [64]
0	0xb9d2bf23	-0.0004019673
1	0x3c1cf46f	0.009579762
2	0x3b79af36	0.0038098819
3	0x3c7165fa	0.014733786
4	0xbbb5e8cf	-0.0055514346
5	0xbcbe8d5d	-0.023260767
6	0xbc0837da	-0.008314097
7	0x3cb1c046	0.021698128
8	0xbcbcfc3e	-0.023069497
9	0x3b7ce893	0.0038590773
10	0xbcaa3c0c	-0.020780586
11	0xbcab0f1e	-0.020881232
12	0xbbde5486	-0.0067849783
13	0x3c95fc0a	0.018308658
14	0x3bba2abf	0.0056813653
15	0x3d22fee1	0.039793853
16	0x3b824856	0.0039759083
17	0x3b70260e	0.0036643776
18	0xbc71fc5a	-0.014769638
19	0xbb85495c	-0.004067583
20	0xbc5cf602	-0.013486387
21	0xbcd49820	-0.025951445
22	0xb913dcb2	-0.00014101228
23	0x3c627c43	0.013823572
24	0xbc98d12f	-0.018654434
25	0xbb69f776	-0.0035700477
26	0xbcb2f3a6	-0.021844696
27	0xbbaf88c6	-0.005356881
28	0x3b99025b	0.0046694702
29	0xbc608bba	-0.013705188
30	0x3ce55255	0.02799336
31	0xbb8c3871	-0.0042791893
32	0x3b4ab3b0	0.0030929856
33	0x3b3aa7e2	0.0028481414
34	0x3adfe1f3	0.0017080888
35	0x3bf9d5e6	0.0076243756
36	0x3b908149	0.0044099432
37	0xbd95b604	-0.07310107
38	0xbc523080	-0.012828946
39	0xbc718e0e	-0.014743341
40	0x3be3eb1d	0.006955518
41	0xbc4516c1	-0.012029351
42	0xbc5b7f46	-0.013397044
43	0x3ab0109a	0.0013432682
44	0x3be0ecc5	0.0068641626
45	0xbc860b16	-0.016362708
46	0x3c7d6395	0.015465637
47	0xb90ee608	-0.00013627869
48	0x3b36f34f	0.002791602
49	0xbc5bee9e	-0.01342359
50	0xbd366a23	-0.044534814
51	0x3c7a46ba	0.015275652
52	0x3c076c43	0.008265558
53	0xbc9f3b25	-0.019437382
54	0x3c1fbf22	0.009750159
55	0xbb9f4b14	-0.004861245
56	0x3b7e2f72	0.0038785604
57	0xbc869859	-0.016430067
58	0xbc7e14a2	-0.015507849
59	0x3d13cf0e	0.036086135
60	0x3ce8ce30	0.02841863
61	0xbc2e8f42	-0.0106542725
62	0x3b44b15b	0.0030012939
63	0x3ba78a39	0.005112913

layer2.1.running_var f4 [64]
0	0x3f673169	0.9030977
1	0x3f68ae40	0.90890884
2	0x3f68028a	0.90628874
3	0x3f6887f7	0.90832466
4	0x3f67d1a0	0.9055424
5	0x3f688cce	0.9083985
6	0x3f68cc1e	0.9093646
7	0x3f6928fb	0.91078156
8	0x3f69a841	0.9127236
9	0x3f680691	0.9063502
10	0x3f6b32f9	0.91874653
11	0x3f680d82	0.9064561
12	0x3f67a153	0.90480536
13	0x3f685654	0.90756726
14	0x3f67e9ea	0.905913
15	0x3f6be8fa	0.9215237
16	0x3f6848c7	0.9073605
17	0x3f67dd6c	0.9057224
18	0x3f682124	0.9067557
19	0x3f674f93	0.90355796
20	0x3f68b03f	0.9089393
21	0x3f6a7f22	0.9160024
22	0x3f67f351	0.90605646
23	0x3f685d4f	0.9076738
24	0x3f67b279	0.905067
25	0x3f675062	0.9035703
26	0x3f689c2d	0.90863305
27	0x3f681e5b	0.9067132
28	0x3f67ea3e	0.905918
29	0x3f67f8ba	0.906139
30	0x3f6938b6	0.9110216
31	0x3f67b58f	0.9051141
32	0x3f678644	0.9043925
33	0x3f67c9c3	0.9054224
34	0x3f67e24d	0.9057968
35	0x3f67f0a3	0.9060156
36	0x3f683dd7	0.9071936
37	0x3f75790f	0.95887846
38	0x3f683683	0.9070818
39	0x3f671d39	0.90278965
40	0x3f67b61d	0.9051226
41	0x3f67fc29	0.9061914
42	0x3f678cf3	0.90449446
43	0x3f679b8f	0.9047174
44	0x3f684a40	0.90738297
45	0x3f68345c	0.90704894
46	0x3f689ccc	0.90864253
47	0x3f68650a	0.90779173
48	0x3f67ec75	0.9059518
49	0x3f681d6c	0.90669894
50	0x3f707e41	0.9394265
51	0x3f685072	0.9074775
52	0x3f671d41	0.9027901
53	0x3f69e2f1	0.9136191
54	0x3f679857	0.9046683
55	0x3f686f98	0.9079528
56	0x3f67ae27	0.9050011
57	0x3f68ace9	0.9088884
58	0x3f68545a	0.9075371
59	0x3f6cac48	0.9245038
60	0x3f6964d9	0.91169506
61	0x3f67f6e1	0.9061108
62	0x3f6818a1	0.9066258
63	0x3f681584	0.9065783

layer3.0.weight f4 [32, 64, 3, 3]
0	0x3cffef26	0.031241965
1	0xbc62636a	-0.0138176475
2	0xbcb4efff	-0.022087095
3	0xbce4bad0	-0.02792111
4	0xbcdf5d28	-0.0272661
5	0xbc88cf49	-0.016700404
6	0xbc893df6	-0.016753178
7	0x3bc683e1	0.0060582017
8	0x3d20695a	0.03916297
9	0xbae114c2	-0.0017172324
10	0xbc66ba90	-0.014082566
11	0xbbc2f050	-0.0059490576
12	0x3d135914	0.035973623
13	0x3bbe6ab8	0.0058110617
14	0x3c6dc2c8	0.0145117715
15	0x3c6e6d07	0.014552361
16	0x3c207428	0.009793319
17	0xbd266b48	-0.040629655
18	0x3c5b017b	0.013367052
19	0xbd1e0edb	-0.038588386
20	0x3cee0b63	0.029058164
21	0x3d0eb280	0.0348382
22	0x3bc8ae72	0.006124311
23	0x3d0d6cd6	0.034527622
24	0x3ccaddee	0.024764027
25	0x3ce1365d	0.027491743
26	0xbc80bc28	-0.01571472
27	0xbc55b3b3	-0.013043332
28	0xbc3f3934	-0.011671353
29	0xbc978bf5	-0.018499354
30	0x3c3b1111	0.011417643
31	0xbc08a211	-0.008339421
32	0x3ab44638	0.0013753837
33	0x3d2121bc	0.039338812
34	0x3b80ac04	0.003926756
35	0xbc28a9ea	-0.010294417
36	0xbd23e4c7	-0.0400131
37	0xbcf744ec	-0.030184232
38	0xbd066559	-0.032811496
39	0x3c1904e7	0.009339548
40	0x3aaec57a	0.0013333999
41	0xbd2bd952	-0.0419553
42	0xbbd340da	-0.00644694
43	0x3c497a26	0.012297189
44	0xbc28e034	-0.01030736
45	0x3ad7c932	0.0016463159
46	0x3c8a6e45	0.016898284
47	0xbd09ab1b	-0.033610445
48	0x3a818d9c	0.0009884122
49	0x3cdd7e73	0.027037835
50	0xbcbca669	-0.02302857
51	0x3cf29ddc	0.029616289
52	0xbc05bd3b	-0.008162792
53	0x3cfc7236	0.030816179
54	0x3c0c5c64	0.0085669495
55	0x3bea422d	0.007149002
56	0x3d1ce560	0.038304687
57	0xbd17da57	-0.03707346
58	0xbcb10b45	-0.021611819
59	0xbc979efe	-0.01850843
60	0xbcd38b51	-0.025823267
61	0x3d1fe825	0.03903975
62	0xbcd1c131	-0.025604816
63	0xbc94647f	-0.018114327
64	0xbcadc4b9	-0.021211969
65	0xbc7d7942	-0.015470805
66	0x3c08f724	0.008359704
67	0xbcb988c9	-0.022648232
68	0xbc93b38c	-0.01802995
69	0x3d1966e2	0.037451632
70	0x3ca8da13	0.020611798
71	0xbb6c65d3	-0.0036071434
72	0x3c2d5781	0.010579945
73	0xbd1d2ee2	-0.03837479
74	0xbcfe678f	-0.03105524
75	0x3c43702f	0.011928602
76	0xbc4ec5db	-0.012620415
77	0xbc8bf3da	-0.01708405
78	0x3d1f2949	0.038857732
79	0xbd015532	-0.03157539
80	0x3d19a100	0.037507057
81	0x3c819f96	0.015823167
82	0xbd1582d3	-0.036501717
83	0xbc3d9db1	-0.011573241
84	0x3ca4d3a7	0.020120455
85	0xbcb5af4f	-0.02217832
86	0x3c583007	0.013195044
87	0x3ce0d7dd	0.027446682
88	0x3c94308e	0.018089559
89	0xbcb78569	-0.022402482
90	0xbd0b4cf7	-0.034008946
91	0x3d017cc5	0.03161313
92	0x3cfdcf2d	0.030982578
93	0x3c63949e	0.013890414
94	0x3d023795	0.03179129
95	0x3ce58d75	0.028021554
96	0x3ca3899b	0.019963076
97	0xbba5daf8	-0.0050615035
98	0xbb12c8c8	-0.0022397507
99	0x3c874218	0.016511008
100	0xbc688e25	-0.014194046
101	0xbbbca629	-0.0057571125
102	0x3c3fc351	0.011704282
103	0xbce7d48e	-0.028299596
104	0x3d24f543	0.040272962
105	0xbc0eb969	-0.008711197
106	0xbc8b824e	-0.017029908
107	0x3cfe43ec	0.031038247
108	0x3d140fd8	0.036147922
109	0xbc501d40	-0.012702286
110	0x3cb68216	0.022278827
111	0xbced63ee	-0.028978314
112	0xbcd86c5d	-0.02641886
113	0xbc7b85ae	-0.015351696
114	0xbcb6bee1	-0.022307815
115	0xbd1669e5	-0.036722083
116	0xbbf53dbb	-0.0074841655
117	0x3c8c9863	0.017162507
118	0xbcc6327e	-0.024193998
119	0x3cd21e0f	0.025649099
120	0xbbbb0fba	-0.005708662
121	0xbd2c4580	-0.042058468
122	0xbd2e6688	-0.04257825
123	0x3cfb2f2d	0.030662144
124	0xbca56148	-0.020187989
125	0x3ce228ac	0.027607284
126	0x3d1e1cdc	0.03860174
127	0xbc5b810c	-0.013397466
128	0xbd255a88	-0.04036954
129	0xbc69c266	-0.01426754
130	0xbcde75ae	-0.027155723
131	0x3d0637c3	0.032768022
132	0xbceb0aff	-0.028691767
133	0xbc83fd9c	-0.016112141
134	0x3cef6322	0.029222075
135	0xbc33d7bb	-0.010976727
136	0xbb2d25a8	-0.002642015
137	0xbc401128	-0.01172284
138	0x3cb70909	0.022343175
139	0x3cdf46c4	0.027255423
140	0xbc89d103	-0.016823297
141	0xbc143fb7	-0.009048394
142	0xbd0f7982	-0.03502799
143	0x3bd00d74	0.00634926
144	0xbc6664cc	-0.014062118
145	0xbc8830db	-0.016624859
146	0xbcffe10f	-0.031235246
147	0xbcdf0f77	-0.027229054
148	0xbb9e54f8	-0.0048319064
149	0xbbecbf21	-0.007224933
150	0x3cf08ed8	0.029364988
151	0xbc872a4a	-0.016499657
152	0xbce98931	-0.0285078
153	0x3c0c2641	0.008554042
154	0xbd071bc5	-0.032985467
155	0xbc0c62a7	-0.008568442
156	0xbd0d7566	-0.034535788
157	0xbc920641	-0.017825248
158	0xbbaa0ad3	-0.0051892786
159	0xbbf966a9	-0.007611115
160	0xbd200877	-0.039070573
161	0x3cc23448	0.02370657
162	0xbce385aa	-0.027773697
163	0x3d13bb20	0.03606713
164	0xbd22646d	-0.039646555
165	0xbcc441ba	-0.023957122
166	0xbd0f33bf	-0.03496146
167	0xbbce3a48	-0.0062935688
168	0x3d23f135	0.040024955
169	0xbc8bb732	-0.017055128
170	0xbbd22669	-0.0064132703
171	0xbcba72c9	-0.022759812
172	0x3b9b0399	0.0047306535
173	0x3c818707	0.015811456
174	0xbcddffee	-0.027099576
175	0xbc892584	-0.016741522
176	0x3d18391a	0.03716383
177	0xbc8f9f00	-0.017531872
178	0xbbd11eda	-0.0063818516
179	0xbc1f8127	-0.009735382
180	0x3ce9457a	0.028475512
181	0x3c1550b1	0.009113477
182	0xbc93dea9	-0.018050509
183	0x3cf6ffe3	0.030151313
184	0x3ca52b45	0.020162234
185	0xbd0369c8	-0.032083303
186	0xb99bc224	-0.0002970855
187	0x3d05045f	0.03247487
188	0x3c1cdb26	0.009573733
189	0xbcf0974b	-0.029369017
190	0x3c8997af	0.016795961
191	0xbd14f329	-0.036364708
192	0x3cde0726	0.027103018
193	0xbc2d0509	-0.0105602825
194	0xbc7a1970	-0.015264854
195	0xbcb29330	-0.0217987
196	0x3ccbe935	0.024891475
197	0xb9c7867c	-0.00038056436
198	0xbd07f3a8	-0.033191353
199	0xbb927f52	-0.004470744
200	0x3ba92862	0.0051622847
201	0x3d14f38a	0.03636507
202	0xbcd52c1a	-0.026022006
203	0x39997d4c	0.00029275788
204	0xbd27fb1a	-0.041010953
205	0x3c41f120	0.011837274
206	0xbc95960f	-0.01826003
207	0x3be5c4b9	0.0070119766
208	0xbb648c24	-0.003487357
209	0x3c3792a6	0.011204397
210	0x3cf15404	0.029459007
211	0xbceb13e1	-0.028696002
212	0x3c9c0292	0.019044194
213	0xbd131216	-0.03590592
214	0x3ca6d5cf	0.020365624
215	0xbc86271a	-0.016376067
216	0x3c42328c	0.011852872
217	0xba71e1cd	-0.00092270673
218	0xbca9098a	-0.020634431
219	0xbd1ee94c	-0.038796708
220	0x3caabe66	0.020842742
221	0x3cdeccc7	0.027197255
222	0x3d0bc4d7	0.034123268
223	0x3cee7d06	0.02911235
224	0xbc556256	-0.013023933
225	0x3c5ca9cc	0.013468217
226	0xbb5aa6a8	-0.0033363495
227	0xbcf10196	-0.029419702
228	0xbabd0105	-0.001441986
229	0x3c2211d2	0.009891944
230	0xbcf370af	-0.029716818
231	0x3ba3e9cf	0.0050022374
232	0xbc68ed42	-0.014216723
233	0xbd2360a7	-0.039887097
234	0xbca9ab00	-0.020711422
235	0xbcb43cb6	-0.022001605
236	0x3d15642b	0.03647248
237	0x3bd638dd	0.0065375404
238	0x3b73dc7e	0.003721028
239	0x3d03a60d	0.03214078
240	0xbcac0d89	-0.021002548
241	0x3d1bf777	0.038077798
242	0x3cd6d197	0.026222987
243	0xbcf0b3b4	-0.029382564
244	0xbcd4058c	-0.025881551
245	0xbd1c964f	-0.038229283
246	0xbd0d261f	-0.034460183
247	0xbc288059	-0.010284507
248	0xbcaa0235	-0.020753006
249	0x3c5d2e17	0.013499758
250	0xbd0d714f	-0.034531888
251	0x3cbbc2bb	0.022920003
252	0x3c101ddd	0.008796182
253	0xbd12d3e2	-0.0358466
254	0xbab9f3df	-0.0014187059
255	0xbd0740e1	-0.033020858

layer3.0.bias f4 [32]
0	0xbc436637	-0.011926225
1	0x3c8d7396	0.01726703
2	0xbd272f20	-0.040816426
3	0xbb37ce92	-0.002804671
4	0xbbf20448	-0.0073857643
5	0xbc85e1c1	-0.016343
6	0xbb7cfb31	-0.003860187
7	0xbb9c1409	-0.0047631306
8	0xbb169878	-0.0022979062
9	0x3ca329ed	0.019917453
10	0xbc8fceb8	-0.017554626
11	0xbce69a5f	-0.028149782
12	0x3cf9f92c	0.030514322
13	0xbb8904fc	-0.0041815024
14	0x3b3b3089	0.0028562865
15	0x3d0e4858	0.03473696
16	0x3caf8c6b	0.021429261
17	0x3ca1f4d2	0.01977006
18	0x3d29f43a	0.04149268
19	0xbcb5a756	-0.022174519
20	0xbc5afe04	-0.013366226
21	0xbc94e748	-0.01817669
22	0xbc2999c0	-0.010351598
23	0x3cb96eee	0.022635903
24	0xbc6df6bd	-0.014524159
25	0x3cedd389	0.029031532
26	0xbd1e95da	-0.03871713
27	0xbcc7dff6	-0.024398785
28	0xbd07e93c	-0.033181414
29	0xbcbaafab	-0.022788843
30	0xbbe788dc	-0.0070658755
31	0x3d03aa9e	0.032145135

layer3.1.weight f4 [32]
0	0x3d57c7eb	0.05268089
1	0x3ec8dcca	0.3923095
2	0x3ed84793	0.42242107
3	0x3ec2d3bc	0.38052166
4	0x3dd88e14	0.10573974
5	0x3da34ed4	0.0797402
6	0x3ee54e20	0.44786167
7	0x3f332c36	0.69989336
8	0x3f195e80	0.5990982
9	0x3d01ee1c	0.03172122
10	0x3f4adca1	0.79242903
11	0x3ea78232	0.3271652
12	0x3f02e695	0.5113309
13	0x3ef45cb2	0.4772697
14	0x3ede6318	0.43434978
15	0x3f39ea49	0.72623116
16	0x3edac851	0.42730954
17	0x3f12c71d	0.5733507
18	0x3d0c7163	0.03428782
19	0x3dc36cf6	0.09542267
20	0x3e876082	0.26440817
21	0x3f711ad7	0.9418158
22	0x3f4b2a98	0.7936187
23	0x3f1ed077	0.6203684
24	0x3f78c38f	0.971734
25	0x3d2fff34	0.04296799
26	0x3f2efad0	0.6835146
27	0x3f612d35	0.87959605
28	0x3e12c446	0.14332685
29	0x3f399133	0.7248718
30	0x3f09da61	0.53848845
31	0x3ea7bb41	0.3276005

layer3.1.bias f4 [32]
0	0x3a82d9d1	0.0009983127
1	0x3a81eb0b	0.0009911967
2	0xba8301b2	-0.0009995012
3	0x3a82f058	0.0009989841
4	0xba82fc2a	-0.0009993364
5	0x3a82c925	0.0009978159
6	0x3a829c69	0.0009964827
7	0x3a8300e8	0.0009994777
8	0xba8185c1	-0.0009881781
9	0x3a809e1f	0.0009812749
10	0xba82f33c	-0.0009990702
11	0x3a82ef1d	0.0009989474
12	0xba82fd7b	-0.0009993756
13	0x3a827c8c	0.0009955331
14	0x3a82fc33	0.0009993374
15	0x3a7de5ca	0.00096854253
16	0xba82ed35	-0.0009988906
17	0xba82e843	-0.0009987432
18	0x3a83008d	0.0009994671
19	0x3a81dc75	0.000990762
20	0xba82eadf	-0.000998821
21	0xba82ca01	-0.0009978415
22	0x3a82be81	0.0009974987
23	0x3a82d87a	0.0009982728
24	0xba82e23f	-0.000998564
25	0x3a81d01d	0.0009903942
26	0x3a8309b6	0.0009997401
27	0xba82f468	-0.0009991052
28	0x3a8303e6	0.0009995669
29	0x3a82f76b	0.0009991949
30	0xba82f968	-0.0009992542
31	0xba82e719	-0.0009987085

layer3.1.running_mean f4 [32]
0	0xbcd1314e	-0.025536206
1	0xbccb0d8e	-0.024786737
2	0xbc4a729f	-0.012356429
3	0xbc477812	-0.012174623
4	0xbc498a5f	-0.012301057
5	0x3c80ebac	0.015737377
6	0x3b896da6	0.0041939793
7	0xba642883	-0.00087035465
8	0x3c2fcfd9	0.010730707
9	0x3c8672cf	0.016412167
10	0xbcd9301d	-0.0265122
11	0xbbf9244a	-0.007603203
12	0x3b8863a9	0.004162271
13	0xbcdaa230	-0.026688665
14	0xbc0ef36e	-0.00872503
15	0x3d1e9ee5	0.038725752
16	0xbca1b35a	-0.019738842
17	0x3c972797	0.018451495
18	0x3d0f41dd	0.03497492
19	0xbc933563	-0.017969793
20	0x3c22d402	0.009938242
21	0xbc926f94	-0.01787547
22	0xbc602880	-0.013681531
23	0xbc26b2d0	-0.010174468
24	0xbd1100d6	-0.035401188
25	0xbc8a9ad9	-0.01691954
26	0xbcb86181	-0.022507431
27	0xbd19a516	-0.037510954
28	0x3b24e95e	0.0025163512
29	0x3c199f02	0.009376289
30	0xbc662410	-0.014046684
31	0xbc54b9f6	-0.01298379

layer3.1.running_var f4 [32]
0	0x3f697c22	0.91205037
1	0x3f6a116e	0.91432846
2	0x3f671e15	0.90280277
3	0x3f67ad2c	0.90498614
4	0x3f67e063	0.9057676
5	0x3f690f46	0.9103893
6	0x3f678667	0.90439457
7	0x3f689177	0.9084696
8	0x3f67717d	0.90407544
9	0x3f68c349	0.9092298
10	0x3f681d7c	0.9066999
11	0x3f67952b	0.9046199
12	0x3f67a775	0.90489894
13	0x3f69e53a	0.91365397
14	0x3f687a13	0.9081127
15	0x3f692d13	0.910844
16	0x3f687e45	0.9081767
17	0x3f67b5a1	0.9051152
18	0x3f6ac260	0.9170284
19	0x3f68a2e2	0.9087354
20	0x3f68a501	0.90876776
21	0x3f67272d	0.9029415
22	0x3f675fcc	0.9038055
23	0x3f681cd7	0.90669006
24	0x3f691318	0.9104476
25	0x3f67efda	0.9060036
26	0x3f680958	0.9063926
27	0x3f6a278b	0.9146659
28	0x3f686471	0.9077826
29	0x3f67e546	0.9058422
30	0x3f67cdb7	0.9054827
31	0x3f673b2a	0.9032465
